Other Experiments/Noiseless_Kuzushiji/NQE750.pt (torch, 10117 bytes, 6 tensors)

layer1.0.weight f4 [1, 1, 3, 3]
000000 e0 59 7e bd d4 06 b0 3e c3 c1 eb ba 44 1d 03 be
       -0.06209743 0.3438021 -0.0017986823 -0.12804133
000010 9f 4d dc 3e 3e 0f 45 bd c0 c4 d7 3e db 32 3d bd
       0.4302797 -0.04811024 0.42142296 -0.046191078
000020 1c 5f cc bd
       -0.09979078

layer2.0.weight f4 [1, 1, 3, 3]
000000 b5 1d b2 bd 2c a6 5b be 64 71 b5 be 23 cc 50 be
       -0.086970724 -0.21450108 -0.35438073 -0.20390372
000010 60 28 59 3d 42 81 d6 bd 8f a9 b2 be 8d 38 01 be
       0.05301702 -0.10473873 -0.34894988 -0.12619229
000020 88 38 48 3d
       0.048882037

fc1.weight f4 [32, 49]
000000 3b 35 4a bd 9d 38 a0 3d 25 83 50 3c 0f 8d 07 3e
       -0.04936717 0.07823298 0.01272658 0.13237403
000010 b2 3c 8c 3c ae 44 86 3c 3b 5a de 3d 31 69 91 bd
       0.017118786 0.01639017 0.10857054 -0.07100142
000020 dd e5 0c 3e 84 26 34 bd a5 bf ce 3d 8d bb de bd
       0.13759561 -0.043982044 0.10095147 -0.10875616
000030 97 b3 1a bc c7 bb ac bd 43 12 17 3d fd 80 7e bd
       -0.009442232 -0.08434253 0.03688265 -0.06213473
000040 4c a9 56 3d 65 72 d5 3d 33 e5 e6 bd c1 fb f5 bd
       0.052407548 0.1042221 -0.11274185 -0.12010909
000050 72 8e 3f 3d 4a 7e cd bd 5f cd fe 3d 4c 3a b3 bd
       0.046766706 -0.10033853 0.12441515 -0.087513536
000060 da 65 0c be b8 d0 45 bd 4d 9c 9f bb 8a 28 79 bd
       -0.13710728 -0.048294753 -0.0048709274 -0.060829677
000070 cc 0d 0f 3d e1 9a 4d bd 14 65 33 3d 9c 9a 3f bc
       0.034925267 -0.050196532 0.043797567 -0.011694577
000080 53 27 88 bc 8e c6 03 bd 1f ab 8c 3d 39 33 a5 bd
       -0.016620314 -0.03217178 0.06868576 -0.080664106
000090 ce 0b 09 be 57 4c 32 3d 57 59 94 3d 97 e5 c2 bd
       -0.1338341 0.043529835 0.07243603 -0.09516447
0000a0 e7 38 89 3d fa 99 03 3e 45 b7 f4 bd 17 c0 b1 bd
       0.067003064 0.12851706 -0.119490184 -0.08679216
0000b0 3a 6a aa 3d 83 f9 a5 3c 92 69 de bc 4b 94 9b bd
       0.08321042 0.020260578 -0.02714995 -0.07596644
0000c0 25 73 0b be cc 7b d4 bd 3d 15 64 bd a9 5c a0 bb
       -0.13618143 -0.10375175 -0.055684317 -0.0048938585
0000d0 b5 4d 89 3d c3 ad 3a 3d a2 da 21 3d d8 84 f8 3d
       0.067042746 0.04557587 0.039515145 0.12134713
0000e0 fc ff 19 3d 23 11 e9 3c 82 17 c9 bd 1c 4c b8 bc
       0.03759764 0.028450554 -0.09818937 -0.02249723
0000f0 1c b2 04 bd 11 93 11 3e 17 ca 6a 3c fd 46 43 3d
       -0.03239642 0.14216258 0.014330409 0.04767512
000100 01 4d 29 bd 40 54 34 3d f5 39 27 3c e4 89 06 3e
       -0.041333202 0.04402566 0.010206689 0.13138539
000110 61 e7 7c 3d 77 75 b1 bd dc 36 b0 3c 47 c8 95 3c
       0.061744098 -0.08664983 0.021510534 0.018283976
000120 8f 73 84 bd 1a 6a 3d 3d f4 5c 92 bd aa bd 81 3d
       -0.064673536 0.046243764 -0.07146636 0.06335004
000130 5a 60 9f bd 46 99 81 bc 13 c6 28 bd e3 93 23 3d
       -0.077820495 -0.015820157 -0.041204523 0.039935958
000140 ae 7b fb 3d 66 49 51 3d db 87 1e 3d f6 d3 4f bb
       0.122794494 0.05109539 0.03870378 -0.0031712032
000150 e5 04 d7 3d 7d 47 a7 3d ce bb fb bd b9 f9 6a 39
       0.104989804 0.08167932 -0.1229168 0.00022409008
000160 38 a5 c4 bd 23 1b 8e 3d a0 6b 8c 3d c8 54 c9 bd
       -0.096018255 0.0693877 0.06856465 -0.09830624
000170 71 c9 d6 3d f6 aa 02 3e 29 5d 5f bd 88 f4 29 bd
       0.10487641 0.12760529 -0.054532204 -0.04149297
000180 a3 15 cb bd 29 cb 05 bd 2e c4 0d 3d 5f df 8d 3c
       -0.09916236 -0.03266445 0.03461092 0.017318426
000190 8c 1d bc 3d 86 3a fd 3d df ce 01 3d ba f8 94 3c
       0.09185323 0.12364678 0.03169143 0.018185008
0001a0 e4 d5 e0 3d aa 32 f9 bd f3 6d 4b 3c 65 3d bf 3d
       0.109782964 -0.121678665 0.012416351 0.09337882
0001b0 5e c2 64 bd e4 3d c9 bc 76 85 99 bd 7a d6 90 3d
       -0.055849425 -0.024565645 -0.07496159 0.07072158
0001c0 d9 d8 cf 3c b7 7c da 3d c8 c6 e3 bc c0 19 a3 bd
       0.025371956 0.10668319 -0.027804747 -0.07963896
0001d0 b5 ca bb bd b7 ed 03 3e 02 54 8e bd 63 70 cd 3d
       -0.09169523 0.1288365 -0.06949617 0.10031202
0001e0 b3 89 1c be 7e 8f 9f bd 3c 33 e1 3d 3e 13 9f bd
       -0.15286903 -0.07791041 0.109961 -0.07767342
0001f0 b9 2c ce bb 47 a3 49 bd 18 49 c1 bd f8 46 8b bd
       -0.0062919524 -0.04922798 -0.0943777 -0.068006456
000200 18 99 69 bc 2a 15 23 3a 16 fe 71 bd 17 50 db bd
       -0.014257692 0.000622111 -0.059080206 -0.10708635
000210 d3 bd 5f bc 8f 88 d2 bd 89 9b 8a bd a3 cf ed bd
       -0.013656097 -0.10279953 -0.06767947 -0.11611869
000220 1c 97 b2 bd 3e bb dd 3c ce 86 12 3d 2d 83 1a 3c
       -0.08720228 0.027066823 0.03577309 0.009430689
000230 b9 50 84 bd 79 87 e5 bd 80 a5 80 3d d0 5b b8 bb
       -0.06460709 -0.1120748 0.062815666 -0.0056261793
000240 76 46 0c 3e e3 8d ad bd 36 49 d7 3d 59 09 88 3d
       0.13698754 -0.08474328 0.10512011 0.06642408
000250 07 ba fd bd 0e bd d8 bd b0 dc d1 bc 25 81 3d bd
       -0.123889975 -0.10582934 -0.025617927 -0.04626574
000260 c0 a6 4b bc 2b 1d 60 bd a7 62 a4 3d 84 bf e2 bd
       -0.012429893 -0.054715317 0.08026629 -0.11071685
000270 e0 3a c4 3c 8a 35 b6 3c fa ec b2 3c 85 11 f0 bc
       0.023953855 0.022242326 0.021841515 -0.029305229
000280 42 bf 82 3c a5 9d b2 bd 62 1b 1c 3c e3 f0 09 be
       0.01596034 -0.087214746 0.009528013 -0.13470797
000290 09 0c a4 bd bd 48 19 3e db 5b 35 bd 0c ef d1 3d
       -0.08010108 0.14969154 -0.044277053 0.10250673
0002a0 a2 fd e4 3c 59 8b 39 3d 90 51 27 bb b2 7e a9 bd
       0.027952973 0.045298908 -0.0025530793 -0.08276118
0002b0 34 d2 f2 3b 6a dc c6 bd f7 24 ba bd 12 75 04 3e
       0.007410312 -0.097100094 -0.09089082 0.12935284
0002c0 77 28 2a be 6a 55 10 3c 55 d9 60 3d ec f3 ff 3d
       -0.16616999 0.008809427 0.054894764 0.12497696
0002d0 84 c8 e9 3d a7 ed 23 be 3c e0 fb 3d 9c 8c f4 bd
       0.114151984 -0.16008626 0.12298629 -0.119408816
0002e0 4b 36 88 3d 3f 89 0e be 1b 0e 16 3c d4 32 ca 3b
       0.066509806 -0.13919543 0.009158636 0.00617061
0002f0 6c 3f 0a 3e a5 2e e7 3d 5e b1 2b bd c7 2b 03 be
       0.13500756 0.112881936 -0.041917197 -0.12809668
000300 88 0e 01 3e c9 e5 20 3d dd fb 8a 3c 44 bc 06 3e
       0.126032 0.03928164 0.0169658 0.13157755
000310 12 5a aa bb 2e 12 c7 bd dc b4 97 bd e7 50 76 3d
       -0.0051987255 -0.097202644 -0.07407543 0.06013575
000320 37 fa ae bd 03 6b 96 3c 88 cd be bd a6 b6 ff 3d
       -0.085438184 0.018361574 -0.09316546 0.12486009
000330 7c fa 30 3b b1 00 56 bd de 0b cd 3c ec 49 35 3c
       0.002700477 -0.052246753 0.025030073 0.011064988
000340 f6 8c cc 3d d9 82 cb bd b8 64 09 bd ca 95 2a 3c
       0.09987824 -0.099370666 -0.03354332 0.010411689
000350 e0 37 66 3c b1 24 6f bc df 51 fc bd ca 19 46 3d
       0.014051408 -0.01459615 -0.12320303 0.048364438
000360 a5 31 c4 3c ec da e4 3d 48 b4 41 bd 11 7c 1f 3d
       0.023949454 0.111745685 -0.04729107 0.03893668
000370 42 bf f7 bd be 24 41 bc 91 ad ee bd c9 f5 ea bd
       -0.120970264 -0.011788545 -0.11654199 -0.11472661
000380 e3 df 8f 3d 73 bc 04 be 89 97 aa bd 22 de f7 bb
       0.07025125 -0.12962513 -0.08329684 -0.007564322
000390 ec 1b fd 3d 0e e8 0c be 7c ae 41 3d ac 28 0f 3c
       0.12358841 -0.13760397 0.047285542 0.008737724
0003a0 96 a3 b7 bd eb da 58 bc 6d 1a d2 bd c7 9f e5 3d
       -0.089667484 -0.013235788 -0.102589466 0.11212116
0003b0 f7 61 ff bd af 24 a9 bd 3a ee c0 3d c2 8e 86 bd
       -0.12469857 -0.0825895 0.09420438 -0.06570198
0003c0 b1 84 96 3b dc d0 75 bd 7a 68 5e 3d 41 a4 15 bb
       0.0045934548 -0.060013637 0.054298855 -0.0022833499
0003d0 6b 3d 8d 3d 35 4b a9 bd f8 7f b3 3c 7e 2c 03 3e
       0.0689648 -0.08266298 0.021911606 0.12809941
0003e0 93 f6 aa bc fa 4d aa 3d 97 24 e3 3d 82 09 99 bc
       -0.020869529 0.08315654 0.11090963 -0.018681291
0003f0 df 10 f3 bd 6f 1e 07 be b2 da 39 3c 7b 9d 49 ba
       -0.11868452 -0.13195203 0.011343645 -0.0007691008

fc1.bias f4 [32]
000000 7e 9e 9d 3c 96 22 c4 bd 2b 4d a0 bd b5 f6 04 bd
       0.019240614 -0.09576909 -0.078272186 -0.03246184
000010 dc 3c 5a bd 5c a4 01 3d 72 5b 09 be e9 21 ff bd
       -0.053280696 0.031650886 -0.1341379 -0.1245764
000020 1e 92 f7 3d ce a7 e5 b9 b7 26 e5 3d 27 11 0e 3e
       0.120884165 -0.00043803308 0.11189025 0.1387373
000030 b2 8a be bd 66 90 5c bd 67 02 aa 3d 81 a1 f8 3d
       -0.09303798 -0.053848647 0.083012395 0.121401794
000040 30 16 a9 3d 09 36 45 3d bd 36 8d bc 8e 3d fc 3d
       0.08256185 0.048147235 -0.017238015 0.12316428
000050 79 34 15 bc 60 97 0a be 45 58 3c bd aa 1c 13 be
       -0.009106749 -0.13534307 -0.045982618 -0.14366403
000060 2a ac c8 bc 50 a1 62 3d 6e 15 41 3d c5 df 9e 3d
       -0.024496157 0.05532962 0.047139578 0.077575244
000070 c7 09 d0 bd 63 3b 0f 3e ca 2f bd 3b 06 d1 4e ba
       -0.10158115 0.13987498 0.005773519 -0.0007889423

fc2.weight f4 [8, 32]
000000 3f 32 2b be eb c5 b0 bd b2 2f 2a 3e 25 a8 df 3d
       -0.16718386 -0.086315 0.16619757 0.10920743
000010 5a ac 1e be a1 6a 8d bd 15 3c 57 bd 0a 2e b4 3d
       -0.15495434 -0.069051035 -0.052547533 0.08797844
000020 dd 09 2d 3e 05 bd 85 3c 76 da 03 3e 68 bb b6 3d
       0.16898294 0.016325483 0.12876305 0.08922464
000030 ff b9 df 3d 49 10 83 3d 12 57 cf bd 91 c0 de bd
       0.10924148 0.063995905 -0.10124029 -0.10876573
000040 4c ad b0 bd f3 18 cb bd 97 0c 85 bd 67 76 d6 3d
       -0.08626804 -0.09916868 -0.06496542 0.10471802
000050 8c 63 52 3d b6 55 01 3d cf 2b 38 3e 4b 91 98 bd
       0.051364467 0.03157588 0.17985462 -0.074495874
000060 c9 af c4 3b 17 de ca 3a 32 d1 0e be 46 a4 9e bd
       0.0060024005 0.0015477565 -0.13946989 -0.077461764
000070 b2 69 f3 3d 11 22 4f bd 31 93 1d 3e 27 03 4e 3d
       0.11885394 -0.050569598 0.1538818 0.050295975
000080 4a 14 9a 3d d6 04 8e bd 03 43 8c bd e4 86 39 be
       0.07523401 -0.06934516 -0.06848719 -0.18117863
000090 d7 21 38 bd 51 59 b8 3d 3b 08 25 3e d6 8c 8c bc
       -0.044954147 0.09001411 0.16116421 -0.017157
0000a0 3e b5 95 bd 3f 2a 38 3e 9e 9c f4 3d f3 da 79 bd
       -0.0730996 0.17984866 0.11943935 -0.060999822
0000b0 c2 5d 29 be b1 e3 04 3e fe bd b5 3d 3e e0 0e 3d
       -0.16539672 0.12977482 0.08874129 0.034881823
0000c0 c2 9d ac bd 39 bb 2e 3e 64 06 ec bd 01 5c 3a 3d
       -0.084285274 0.17063607 -0.115246564 0.045497898
0000d0 2e 5f 9c 3d 95 b2 05 ba d6 c4 0e 3b 41 74 03 be
       0.076353416 -0.0005100158 0.0021784804 -0.12837316
0000e0 d2 f1 27 3e 91 e7 af 3d f0 4c 36 3e 44 02 a5 bc
       0.16400841 0.0858909 0.17802787 -0.020142682
0000f0 a7 6e c6 bc 7d d9 33 3e 5c e6 b6 bd 12 0e 32 bd
       -0.024222685 0.17563434 -0.08930656 -0.04347045
000100 1e d9 02 3e 33 8a f5 bd 09 06 38 be 7c 2b 17 be
       0.12778136 -0.1198925 -0.17971052 -0.14762682
000110 e5 8c 56 bd 7e 6a f2 3d 61 6e 0b 3e 0d 45 63 bd
       -0.05238046 0.11836718 0.13616325 -0.055485774
000120 71 db e5 bd 98 4d 58 3b d2 6e 2d be 8d bb 9b 3c
       -0.11223496 0.0033005234 -0.16936806 0.01901033
000130 03 1a b0 3c d2 7c ba 3d 52 e6 e4 bd bf 4c 2e 3e
       0.021496778 0.09105839 -0.111767426 0.17021464
000140 af e1 c0 3d fe 2d 1b be 9c 0f 96 bc de 58 b9 bd
       0.09418046 -0.15154263 -0.01831799 -0.09050153
000150 fb f9 1d 3e f3 17 ca 3d e9 01 fc bc d7 25 17 be
       0.15427391 0.09867849 -0.03076263 -0.14760529
000160 99 7f 12 bd c7 75 9f bc 7a ec 2e 3d da 3a 95 bc
       -0.035766218 -0.01946534 0.04270599 -0.01821654
000170 43 8c 1c be 32 08 f2 bd c7 1d 36 3e 5e 29 0f 3d
       -0.1528788 -0.118179694 0.17784797 0.03495156
000180 08 9d 8a 3d 47 42 0d 3e c6 26 d9 3d 38 36 2d 3d
       0.067682326 0.13794814 0.106030986 0.042288035
000190 83 5a b9 3d d2 71 c8 3d 43 f2 82 3d 31 fd 9e bd
       0.09050467 0.097873345 0.06393864 -0.07763136
0001a0 fe b9 f2 3d 1b 4c 8f 3d 8a 2c 93 bd 1a 0b 9a 3c
       0.118518814 0.06996938 -0.071862295 0.018804122
0001b0 50 db 48 be 91 6b af 3d a4 82 2f be 89 b1 23 3e
       -0.19614911 0.085654385 -0.17139679 0.15985693
0001c0 96 92 a9 3c 84 f1 91 bd 2e 6b 1b 3e e4 96 0d be
       0.02069978 -0.071261436 0.15177605 -0.13827091
0001d0 07 3d 31 3e aa 2f 2f be bc ea 5c bd 9e 8f 6a bd
       0.17308436 -0.17108026 -0.053934798 -0.05726587
0001e0 ee f9 52 3d 62 b4 ea bd a0 0e 41 be 83 32 8c bd
       0.051507883 -0.114601865 -0.18853235 -0.06845572
0001f0 43 fc 48 be 9e 11 c4 bb e1 51 b4 3d 45 4c 8a bd
       -0.1962748 -0.0059835454 0.0880468 -0.067528285
000200 8c cb 31 bd e1 8b 98 bc ee 97 eb bd de af 56 3c
       -0.043407008 -0.018621387 -0.11503588 0.013103453
000210 23 68 33 be e5 8f 1f be ac 03 da bd 28 96 18 3e
       -0.17520194 -0.15582235 -0.106452316 0.1490103
000220 16 ce cd 3d 82 1e 15 3e 57 5c 01 3e dc 39 44 bc
       0.100490734 0.14562419 0.12632881 -0.011976685
000230 03 ca 42 bd 08 a3 df 3d 96 26 b6 3c 29 24 06 be
       -0.047555935 0.109197676 0.022235196 -0.13099732
000240 21 b2 79 bd 6d 1b cb bd e4 f5 0d be 07 50 0b 3e
       -0.060960893 -0.099173404 -0.13863331 0.13604747
000250 5c 71 eb bd b1 33 81 3d 49 54 03 3e d0 e6 55 bd
       -0.11496231 0.063086875 0.12825121 -0.052222073
000260 61 4b b9 3d b5 31 79 bd db f2 8c 3d b1 72 26 3e
       0.090475805 -0.06083842 0.068822585 0.16254689
000270 38 d9 2a 3e 6a 12 d4 3d f0 9e 0f be e1 9a 06 3e
       0.16684425 0.10355075 -0.14025474 0.13145019
000280 95 3d 07 3e d8 7f 40 3d c2 0f 1c be 56 27 fd 3c
       0.13207085 0.04699692 -0.15240386 0.030902546
000290 2f 3a 25 bd 4e 4d 11 be 40 ea 09 be a5 6a 8e bd
       -0.04033869 -0.14189646 -0.13468266 -0.069539346
0002a0 c4 77 42 3e 2a b9 63 be 13 a4 06 bd b5 21 db 3d
       0.18991 -0.22238603 -0.032871317 0.106997885
0002b0 9b 75 98 3c a0 b4 84 3d f6 5b cd bc 48 85 3e be
       0.018610766 0.06479764 -0.025068264 -0.1860553
0002c0 4f 13 83 3c 5f 22 cd 3d 64 19 4e be 5f fc c2 bc
       0.016000418 0.100163214 -0.20126873 -0.02380198
0002d0 5d b0 33 3d ef 90 2b 3e 08 4d 80 3d 46 b6 00 be
       0.043869365 0.16754507 0.062646925 -0.12569532
0002e0 d0 b5 f1 bd d1 f8 8d 3c b8 d8 dc bd b6 0d ab 3c
       -0.11802256 0.017330559 -0.10783523 0.020880561
0002f0 1a bc e3 bd 62 99 18 3c 0d a5 02 3e 2f b4 b1 bd
       -0.11119862 0.009313913 0.12758274 -0.086769454
000300 18 f1 b5 ba 66 fa 7e 3d a4 2e 3b 3e a5 46 13 3e
       -0.0013881056 0.062250517 0.1827951 0.14382418
000310 a0 fb a4 3d d0 d9 89 3c 3a 13 2a be d6 b4 18 be
       0.08055806 0.016827494 -0.16608897 -0.14912733
000320 80 c2 ec 3d 44 15 10 be 4a ba 5d bd 06 50 0e be
       0.115605354 -0.14070612 -0.054132737 -0.13897714
000330 ef c3 90 3d ad 70 1c be 2d bd 15 bd cf e8 34 be
       0.07068621 -0.15277357 -0.036557365 -0.17666934
000340 f2 93 4c bc da 0b 2a bd e3 de c0 bc 06 16 18 bd
       -0.012486445 -0.04151521 -0.02354378 -0.03713038
000350 74 3f a4 3d 13 54 3e 3e 37 c3 a5 3d 91 37 d7 3d
       0.08019915 0.1858676 0.08093875 0.10508645
000360 8b 2e 18 bd 92 9a b8 bd 24 9a 52 bd d1 95 cc 3d
       -0.03715376 -0.09013857 -0.05141653 0.09989513
000370 b3 90 29 be 7d 57 9d bd 72 3d f6 bd 7a f1 6b bc
       -0.16559105 -0.07682703 -0.120234385 -0.014400834
000380 f6 b2 09 bd 5c 4d 15 3e db 6b f7 3d f6 79 e2 3d
       -0.033617936 0.14580292 0.12081119 0.110584185
000390 26 a1 9e bd 8e 2a 3d 3d bb d5 a2 bb 28 bb 06 be
       -0.077455804 0.04618316 -0.0049693263 -0.13157332
0003a0 01 6f 14 be 25 55 f8 bd f1 f0 a7 3d a4 57 32 3e
       -0.1449547 -0.12125615 0.08200253 0.17416245
0003b0 3b 4a dc bd 49 1d 85 bd 99 6f 82 bd 44 f9 45 be
       -0.10756346 -0.06499726 -0.06368942 -0.19333369
0003c0 c7 95 74 bd 78 58 96 bd 3d d7 0f be 1e 0f 5f 3d
       -0.05971315 -0.07341093 -0.1404695 0.054457776
0003d0 22 70 d0 3c 9c fb 12 3d bb fb 23 3e 5e 9d a8 3d
       0.025444094 0.035884485 0.16013996 0.082331404
0003e0 28 b1 47 3d 24 4d cd bc 1a 66 22 be 9e 1d d7 3c
       0.048752934 -0.025061198 -0.15859261 0.02625924
0003f0 08 8b 06 3e 12 d7 5e 3d 14 e0 29 be 1b 7f 20 be
       0.13138974 0.054404326 -0.16589385 -0.15673487

fc2.bias f4 [8]
000000 c1 b7 1d be 8c de 31 3c 19 75 82 bc 78 b6 6c 3d
       -0.15402128 0.010856282 -0.015924977 0.057791203
000010 e6 55 a3 bc ab e7 49 bd 26 b1 a0 bd ba a3 04 3d
       -0.01993842 -0.0492932 -0.078462884 0.032382704
