Other Experiments/Noiseless_Kuzushiji/NQE950.pt (torch, 10117 bytes, 6 tensors)

layer1.0.weight f4 [1, 1, 3, 3]
0	0xbd530d4f	-0.051526364
1	0x3eafb393	0.34316692
2	0x3ae56aa0	0.001750309
3	0xbe00c03a	-0.12573329
4	0x3ed692bf	0.41908833
5	0xbd5e2904	-0.054238334
6	0x3ed930a4	0.42419922
7	0xbd6d920c	-0.05800061
8	0xbde43fd4	-0.11144987

layer2.0.weight f4 [1, 1, 3, 3]
0	0xbdf08a06	-0.11745076
1	0xbe6c64c7	-0.23085319
2	0xbea7fccf	-0.32810065
3	0xbe5769ec	-0.210365
4	0x3d2cb9df	0.042169448
5	0xbdc42e4a	-0.095791414
6	0xbeadca2c	-0.33943307
7	0xbe198240	-0.14991093
8	0x3d3b1058	0.045669883

fc1.weight f4 [32, 49]
0	0xbd3c72a2	-0.04600776
1	0x3da6a937	0.08137744
2	0x3c85f4a5	0.016352007
3	0x3e0b3ba7	0.13596974
4	0x3c92a3ba	0.017900337
5	0x3ca42aeb	0.020039996
6	0x3de46458	0.111519516
7	0xbd8be57d	-0.06830881
8	0x3e0ef84e	0.13961908
9	0xbd244a24	-0.04010977
10	0x3dceb875	0.10093776
11	0xbdd81915	-0.10551659
12	0xbb854cc7	-0.0040679905
13	0xbda5bafa	-0.080923036
14	0x3d1fc4b3	0.039005946
15	0xbd6d7a95	-0.05797823
16	0x3d64386e	0.055717878
17	0x3ddb7709	0.107160635
18	0xbde0378f	-0.10948097
19	0xbde931d0	-0.11386454
20	0x3d46d62b	0.04854409
21	0xbdc544fb	-0.096322976
22	0x3e03ae9c	0.12859577
23	0xbda78ea6	-0.08181505
24	0xbe07294f	-0.13199352
25	0xbd3685f4	-0.04456134
26	0xbb072a75	-0.0020624672
27	0xbd7a061c	-0.061040983
28	0x3d191833	0.037376594
29	0xbd3e580c	-0.046470687
30	0x3d3cd6b9	0.046103213
31	0xbc1f1d4a	-0.009711573
32	0xbc66b54b	-0.01408131
33	0xbcf7419c	-0.030182652
34	0x3d8ebb5a	0.06969328
35	0xbd9fd653	-0.07804551
36	0xbe05ca4f	-0.13065456
37	0x3d2a20d6	0.04153522
38	0x3d9209d8	0.07130784
39	0xbdbe2939	-0.09285206
40	0x3d9251a7	0.0714448
41	0x3e08e620	0.13369036
42	0xbde9553b	-0.113932095
43	0xbdabf491	-0.08396257
44	0x3da69744	0.081343204
45	0x3cae3663	0.021266168
46	0xbcbc3ed7	-0.022979183
47	0xbd9217cc	-0.07133445
48	0xbe0721e8	-0.13196528
49	0xbdd45679	-0.10368056
50	0xbd5dd16c	-0.0541548
51	0xbb025e11	-0.0019892494
52	0x3d90b898	0.070664585
53	0x3d370132	0.044678874
54	0x3d25f2bf	0.040514704
55	0x3df3a741	0.118971355
56	0x3d15ff18	0.03662023
57	0x3d00afe6	0.03141775
58	0xbdca215c	-0.09869644
59	0xbcc95bf2	-0.024579976
60	0xbceb64f9	-0.028734671
61	0x3e132866	0.1437088
62	0x3c21fad9	0.009886467
63	0x3d3a6560	0.045506835
64	0xbd22173a	-0.03957293
65	0x3d3906da	0.04517255
66	0x3c66240a	0.014046678
67	0x3e07a563	0.13246684
68	0x3d887db0	0.06664598
69	0xbdc4313b	-0.095797025
70	0x3cc87bfc	0.024473183
71	0x3cb341ee	0.021882024
72	0xbd6cafb4	-0.05778475
73	0x3d448d94	0.047986582
74	0xbd91ff02	-0.07128717
75	0x3d783691	0.060598914
76	0xbdb9fb60	-0.09081149
77	0xbc8f7845	-0.017513404
78	0xbd24b632	-0.040212817
79	0x3d264158	0.04058966
80	0x3df75376	0.12076466
81	0x3d4a171a	0.049338438
82	0x3d0b8c3c	0.034069285
83	0xbc110b97	-0.008852861
84	0x3dcf8782	0.10133268
85	0x3db029eb	0.08601745
86	0xbe01c058	-0.1267103
87	0xbb710094	-0.0036774026
88	0xbdbc8683	-0.092053436
89	0x3d9eafc9	0.07748372
90	0x3d9cbc54	0.07653108
91	0xbdb5d492	-0.08878435
92	0x3de28c60	0.11061931
93	0x3e002810	0.12515283
94	0xbd5c59d5	-0.053796608
95	0xbd1760e8	-0.03695765
96	0xbdbe3948	-0.09288269
97	0xbcf117f6	-0.02943037
98	0x3cfeab29	0.031087475
99	0x3c8071c3	0.015679246
100	0x3dbabee1	0.091184385
101	0x3e002147	0.12512694
102	0x3cf62958	0.030049011
103	0x3c7f0a79	0.015566462
104	0x3dd3fdd6	0.1035115
105	0xbe00ce52	-0.12578705
106	0x3c569c26	0.013098752
107	0x3db5c389	0.08875186
108	0xbd69f560	-0.057118773
109	0xbcb56883	-0.022144562
110	0xbda0d244	-0.07852605
111	0x3d7b79ca	0.061395444
112	0x3ca45731	0.020061107
113	0x3dd49f13	0.103819035
114	0xbcf2cede	-0.029639658
115	0xbd9cc328	-0.076544106
116	0xbdbcbce1	-0.09215713
117	0x3e03d349	0.12873568
118	0xbda96e0c	-0.08272943
119	0x3dcb56d9	0.09928674
120	0xbe1c8f2c	-0.1528899
121	0xbd9922b0	-0.07477319
122	0x3dde4633	0.10853233
123	0xbda36088	-0.07977396
124	0xbc33d9d8	-0.010977231
125	0xbd84bf75	-0.0648183
126	0xbdcaf7e9	-0.09910566
127	0xbd9072ae	-0.070531234
128	0xbc824d7a	-0.015906084
129	0xbb416018	-0.002950674
130	0xbd7eca0a	-0.0622044
131	0xbde5cf8b	-0.11221226
132	0xbcb57c2a	-0.022153933
133	0xbde0971f	-0.10966324
134	0xbd863770	-0.065535426
135	0xbdf2a339	-0.118475385
136	0xbdb78196	-0.089602634
137	0x3cf2f36e	0.029657092
138	0x3d2799d0	0.04091817
139	0x3c6159d3	0.013754326
140	0xbd705f6c	-0.05868475
141	0xbddd5613	-0.10807433
142	0x3d7d74b4	0.061878875
143	0xbbb2c637	-0.005455758
144	0x3e0d127d	0.13776584
145	0xbda81c48	-0.08208519
146	0x3dd62e99	0.104581065
147	0x3d82039e	0.06348346
148	0xbdfea36a	-0.124335125
149	0xbdd4f948	-0.10399109
150	0xbcba90e6	-0.022774171
151	0xbd4614e0	-0.04835975
152	0xbc6c7580	-0.014432311
153	0xbd789239	-0.060686324
154	0x3d9d2c86	0.07674508
155	0xbddba3ed	-0.10724626
156	0x3cb5d3df	0.022195755
157	0x3ca2ed19	0.019888448
158	0x3cc58e1a	0.02411561
159	0xbcfdfd3e	-0.031004544
160	0x3bf69ce7	0.0075260284
161	0xbdbc0573	-0.09180727
162	0x3c107cfa	0.008818859
163	0xbe0a1ba4	-0.13487107
164	0xbd9d52bc	-0.07681796
165	0x3e192491	0.14955355
166	0xbd2923dd	-0.041293968
167	0x3db89d55	0.09014384
168	0x3ceabbf6	0.02865408
169	0x3d40709b	0.04698239
170	0x3b173e23	0.0023077808
171	0xbdaab1c1	-0.08334685
172	0x3b94a874	0.0045366827
173	0xbdd1b413	-0.102394246
174	0xbddc3919	-0.10753078
175	0x3e00b518	0.12569082
176	0xbe2c130a	-0.16804138
177	0x3bf12ad7	0.0073598432
178	0x3d51baa2	0.051203378
179	0x3df92558	0.12165326
180	0x3ddcb27c	0.10776231
181	0xbe2de95b	-0.1698355
182	0x3dedfc4f	0.1162039
183	0xbdee58f9	-0.11638064
184	0x3d80c84e	0.06288205
185	0xbe1131ca	-0.1417915
186	0x3c5c02e2	0.013428422
187	0x3c56ff20	0.01312235
188	0x3e102840	0.14077854
189	0x3df7ac91	0.12093461
190	0xbd14ddc5	-0.03634431
191	0xbe03f094	-0.12884742
192	0x3e02065b	0.12697737
193	0x3d2bf40c	0.041980788
194	0x3caeca94	0.021336831
195	0x3e0765ba	0.132224
196	0xbb573068	-0.003283525
197	0xbdc26632	-0.094921485
198	0xbd917604	-0.07102588
199	0x3d83b5aa	0.06431134
200	0xbdab3964	-0.08360556
201	0x3caed115	0.021339932
202	0xbdbdcfe7	-0.0926817
203	0x3e00d2b4	0.12580377
204	0x3b8a0df4	0.004213089
205	0xbd50e928	-0.051003605
206	0x3cd699cd	0.026196385
207	0x3c888053	0.016662752
208	0x3dd4377c	0.10362145
209	0xbdcb5d59	-0.09929914
210	0xbd0b0587	-0.03394082
211	0x3c486013	0.012229937
212	0x3c83c582	0.01608539
213	0xbc1bd8ad	-0.009512109
214	0xbdf2d031	-0.118561156
215	0x3d5ed193	0.054399084
216	0x3caab42b	0.020837864
217	0x3dea84c0	0.11451101
218	0xbd365500	-0.044514656
219	0x3d3a8150	0.04553348
220	0xbdec9763	-0.11552312
221	0xbbe28081	-0.0069122915
222	0xbde6da3a	-0.11272092
223	0xbdf73ca8	-0.12072116
224	0x3d9013ea	0.07035048
225	0xbe02a104	-0.12756735
226	0xbda5f2ae	-0.08102928
227	0xbbd56dc0	-0.0065133274
228	0x3e0333b8	0.12812698
229	0xbe079ed1	-0.13244177
230	0x3d37dc96	0.0448881
231	0x3c019686	0.007909423
232	0xbdaef5b6	-0.085429594
233	0xbc6dd698	-0.014516495
234	0xbdd24b77	-0.102683
235	0x3df101b0	0.117679
236	0xbdf00d56	-0.11721294
237	0xbd9bb175	-0.076022066
238	0x3dcfc427	0.10144835
239	0xbd7856d2	-0.060629673
240	0x3b81d6cd	0.003962374
241	0xbd6cf99b	-0.05785523
242	0x3d6ed23b	0.05830596
243	0x3b52d489	0.0032170138
244	0x3d94e293	0.07269778
245	0xbda4f181	-0.08053876
246	0x3cc01de6	0.023451757
247	0x3e03a0f6	0.1285437
248	0xbc981bbb	-0.01856791
249	0x3dac7211	0.08420194
250	0x3de7c1c1	0.113162525
251	0xbc89b589	-0.016810196
252	0xbdefd379	-0.11710257
253	0xbe081a5b	-0.13291304
254	0x3c39345c	0.011303987
255	0x39e16ddf	0.00042997205

fc1.bias f4 [32]
0	0x3cd3924d	0.025826598
1	0xbdc2f632	-0.09519614
2	0xbdad6467	-0.08466416
3	0xbd1a2fe7	-0.03764334
4	0xbd4a345d	-0.049366344
5	0x3d128779	0.035773728
6	0xbe03d7e2	-0.12875322
7	0xbe02a738	-0.12759101
8	0x3df15f6f	0.11785781
9	0xba9665c1	-0.0011474417
10	0x3dd7c33f	0.10535287
11	0x3e0ead6f	0.13933347
12	0xbdc567d9	-0.09638948
13	0xbd535ca1	-0.05160201
14	0x3da73a3c	0.08165404
15	0x3e054594	0.13014823
16	0x3db144b0	0.08655679
17	0x3d4b2f90	0.049605906
18	0xbc5ef8d9	-0.013609135
19	0x3df091b9	0.117465444
20	0xbbb0cf98	-0.005395841
21	0xbe0d9dbd	-0.13829704
22	0xbd56fe15	-0.052488405
23	0xbe16792e	-0.14694664
24	0xbcd8a933	-0.026447868
25	0x3d643736	0.055716716
26	0x3d432131	0.047639076
27	0x3d994293	0.07483401
28	0xbddf9212	-0.109165326
29	0x3e0de3d7	0.13856445
30	0x3c39683d	0.011316356
31	0xbb4b628f	-0.0031034087

fc2.weight f4 [8, 32]
0	0xbe23a70b	-0.1598169
1	0xbdb70889	-0.08937175
2	0x3e2ed8bb	0.17074864
3	0x3ddeb899	0.10875053
4	0xbe16a977	-0.14713083
5	0xbd988f32	-0.07449187
6	0xbd62d2bb	-0.05537675
7	0x3db8afec	0.090179294
8	0x3e268f05	0.16265495
9	0x3c570002	0.01312256
10	0x3e00389d	0.12521596
11	0x3db9b4e9	0.09067709
12	0x3ded6686	0.115918204
13	0x3d87f917	0.06639307
14	0xbdd4724f	-0.10373365
15	0xbddf0d80	-0.10891247
16	0xbda22e75	-0.07919017
17	0xbdcbc6f2	-0.09950055
18	0xbd8a466d	-0.06751714
19	0x3dbff1af	0.09372269
20	0x3d54af0e	0.051924758
21	0x3d165721	0.036704186
22	0x3e340248	0.17578995
23	0xbd8c4bf5	-0.06850425
24	0x3c4fc1dc	0.012680497
25	0x3b3c17c4	0.002870069
26	0xbe0d6a18	-0.13810003
27	0xbd957c55	-0.07299105
28	0x3dea7029	0.11447174
29	0xbd500d3e	-0.05079388
30	0x3e1a5ff8	0.15075672
31	0x3d4c675d	0.049903262
32	0x3da10dc6	0.07863955
33	0xbd96081b	-0.07325765
34	0xbd9882fa	-0.07446857
35	0xbe3ee49d	-0.18641897
36	0xbd48b809	-0.049003635
37	0x3db284b3	0.087167166
38	0x3e249b0b	0.16074769
39	0xbbd144d3	-0.0063863783
40	0xbd940556	-0.0722758
41	0x3e47c4b8	0.19508636
42	0x3df8a60a	0.121410444
43	0xbd6a08f4	-0.057137445
44	0xbe243f3e	-0.1603975
45	0x3e0b7181	0.13617517
46	0x3dc0871f	0.09400772
47	0x3d1b1a98	0.03786716
48	0xbdaebcb4	-0.08532086
49	0x3e345fbd	0.17614646
50	0xbddcfed1	-0.1079079
51	0x3d3cee69	0.046125803
52	0x3da10e32	0.07864036
53	0x3bb6b78b	0.0055760792
54	0x3b5acede	0.0033387463
55	0xbdfdc498	-0.12391013
56	0x3e29f27b	0.16596405
57	0x3d9f0a2e	0.077656135
58	0x3e390d38	0.18071449
59	0xbca8636f	-0.020555226
60	0xbc475a2e	-0.012167497
61	0x3e31588e	0.17318937
62	0xbdb600f6	-0.08886902
63	0xbd2bc7c9	-0.041938577
64	0x3dfef06e	0.12448202
65	0xbdf23124	-0.11825779
66	0xbe37b077	-0.1793841
67	0xbe160c78	-0.14653194
68	0xbd5edf55	-0.054412205
69	0x3df6b3e7	0.120460324
70	0x3e0a1155	0.13483174
71	0xbd701d56	-0.058621727
72	0xbddf7742	-0.109114185
73	0x3ba6ebec	0.005094042
74	0xbe29215b	-0.1651663
75	0x3c82810a	0.015930671
76	0x3c7c4164	0.01539645
77	0x3db898cd	0.090135194
78	0xbdd6b8ae	-0.104844436
79	0x3e2f64a0	0.17128229
80	0x3db5d29d	0.08878062
81	0xbe19ed08	-0.15031826
82	0xbc4a5bad	-0.012350959
83	0xbda18fbb	-0.078887425
84	0x3e1e2de6	0.15447196
85	0x3dbd05ba	0.09229608
86	0xbce65a6d	-0.02811929
87	0xbe168722	-0.14699987
88	0xbd1cad7b	-0.03825138
89	0xbc9f22dd	-0.019425804
90	0x3d4167b3	0.047218036
91	0xbca98211	-0.020691903
92	0xbe1a319e	-0.1505799
93	0xbdec21e7	-0.11529904
94	0x3e335b2d	0.1751525
95	0x3d0c6872	0.034279294
96	0x3d7af29f	0.061266538
97	0x3e102af7	0.1407889
98	0x3ddf3f57	0.10900753
99	0x3d3bcded	0.045850683
100	0x3dbcfc99	0.09227867
101	0x3dcbac60	0.09944987
102	0x3d769859	0.060203884
103	0xbdae1df5	-0.085018076
104	0x3df74015	0.120727696
105	0x3d76678f	0.060157355
106	0xbd90f15d	-0.070772864
107	0x3c8e6b26	0.017385077
108	0xbe49c2f6	-0.19703278
109	0x3da32ffd	0.079681374
110	0xbe2e2d4e	-0.1700947
111	0x3e2309dd	0.15921731
112	0x3c91026c	0.01770135
113	0xbd9ba529	-0.07599861
114	0x3e1aa4fb	0.15101998
115	0xbe06722e	-0.13129494
116	0x3e2f1a98	0.17099988
117	0xbe34186d	-0.17587443
118	0xbd5646b8	-0.052313536
119	0xbd7f6b5a	-0.062358238
120	0x3d4459ae	0.047937088
121	0xbddd612f	-0.10809552
122	0xbe3ed2dd	-0.18635125
123	0xbd896c9a	-0.06710167
124	0xbe4db8ce	-0.20090029
125	0xbb5c5a45	-0.003362314
126	0x3daf06f3	0.08546247
127	0xbd8b02c9	-0.067876406
128	0xbd02c304	-0.031924263
129	0xbcc5b550	-0.024134308
130	0xbdee29b3	-0.11629047
131	0x3b8f32b3	0.0043700575
132	0xbe346a0a	-0.17618576
133	0xbe248caf	-0.16069292
134	0xbdd95a35	-0.10612909
135	0x3e2443ff	0.16041563
136	0x3dbf507c	0.09341523
137	0x3e23a552	0.15981033
138	0x3e02da86	0.12778673
139	0xbc152c41	-0.009104789
140	0xbd2b0c94	-0.041760042
141	0x3deef778	0.11668295
142	0x3ccce2d4	0.025010504
143	0xbe02b9f1	-0.12766244
144	0xbd6dc5ee	-0.05805009
145	0xbdb548ed	-0.088518
146	0xbe09e2d9	-0.13465442
147	0x3e04b0ce	0.1295807
148	0xbde9b661	-0.11411739
149	0x3d8e60c4	0.0695205
150	0x3dfe736c	0.12424359
151	0xbd447158	-0.047959656
152	0x3dc5ec92	0.09664263
153	0xbd86ced3	-0.06582417
154	0x3d8ef429	0.069801636
155	0x3e23f3a0	0.16010904
156	0x3e32bfa4	0.17455918
157	0x3dcc6388	0.099799216
158	0xbe0b9b13	-0.13633375
159	0x3e07066d	0.13186045
160	0x3df81057	0.121124916
161	0x3d4e25f7	0.050329175
162	0xbe13acc6	-0.14421377
163	0x3d0f41b2	0.03497476
164	0xbd0f1a75	-0.03493734
165	0xbe0d739e	-0.13813636
166	0xbe0a9ac8	-0.13535607
167	0xbda5f9ee	-0.08104311
168	0x3e4347b1	0.19070317
169	0xbe71d776	-0.23617348
170	0xbd0f06d3	-0.034918617
171	0x3dc57366	0.09641151
172	0x3c3a806e	0.011383159
173	0x3d7e67af	0.0621106
174	0xbcc4214e	-0.023941662
175	0xbe3ad3fd	-0.1824493
176	0x3c52b441	0.012860359
177	0x3db46a2a	0.08809312
178	0xbe4b90a1	-0.1987939
179	0xbc34a037	-0.011024526
180	0x3d44170c	0.04787354
181	0x3e1f4a5f	0.15555714
182	0x3d888957	0.066668205
183	0xbdfea257	-0.124333076
184	0xbdfda5f8	-0.12385172
185	0x3cb58d8f	0.022162227
186	0xbdd6fab5	-0.10497037
187	0x3cc5c824	0.024143286
188	0xbdf3ffb8	-0.11914009
189	0x3c5cc49f	0.0134746125
190	0x3dfa803f	0.12231492
191	0xbdad207f	-0.08453464
192	0xbbfcc0e1	-0.0077134226
193	0x3d8b3e92	0.06799044
194	0x3e3f5fbe	0.18688866
195	0x3e16c9b4	0.14725381
196	0x3daca2d6	0.08429496
197	0x3c944abf	0.018102048
198	0xbe295f63	-0.16540293
199	0xbe2080f5	-0.15674193
200	0x3de7c5a1	0.113169916
201	0xbe2130e7	-0.15741311
202	0xbd715a3d	-0.05892395
203	0xbe0e8d56	-0.13921103
204	0x3d9891a6	0.07449655
205	0xbe242cc4	-0.16032702
206	0xbd3b6066	-0.04574623
207	0xbe34fae6	-0.17673835
208	0xbc46d987	-0.0121368235
209	0xbd4b847e	-0.0496869
210	0xbd119548	-0.035542756
211	0xbd2f00c8	-0.042725354
212	0x3d95ff34	0.07324067
213	0x3e383eed	0.17992754
214	0x3da78f8d	0.08181677
215	0x3dc7c88a	0.09755047
216	0xbd26108d	-0.040543128
217	0xbd9f5c2a	-0.07781251
218	0xbd7011ee	-0.05861085
219	0x3dcf7f4a	0.101317
220	0xbe34c3a7	-0.1765276
221	0xbda15c56	-0.0787894
222	0xbdf1d95b	-0.118090354
223	0xbc5d05bc	-0.013490137
224	0xbd0ac414	-0.0338784
225	0x3e141f7b	0.14465134
226	0x3e063cc4	0.13109118
227	0x3de96b89	0.11397464
228	0xbd84a192	-0.064761296
229	0x3d26dd8e	0.040738635
230	0xbc312430	-0.01081185
231	0xbe0f23b2	-0.1397846
232	0xbe10cb76	-0.14140114
233	0xbe08ccdd	-0.13359399
234	0x3d964ad1	0.07338489
235	0x3e2cac61	0.16862632
236	0xbdc7f4c4	-0.09763482
237	0xbd7e8a66	-0.062143706
238	0xbd848f1d	-0.06472609
239	0xbe400161	-0.18750526
240	0xbd641890	-0.055687487
241	0xbda1ab18	-0.07893962
242	0xbe0c0b6d	-0.13676234
243	0x3d58c904	0.05292608
244	0x3cc90417	0.024538083
245	0x3d07f800	0.033195496
246	0x3e207b9c	0.15672153
247	0x3d93560e	0.07194148
248	0x3d3dd07e	0.04634141
249	0xbc9bcc73	-0.019018387
250	0xbe1c306e	-0.1525285
251	0x3cff7451	0.031183394
252	0x3dfa9016	0.122345135
253	0x3d6d3a31	0.057916824
254	0xbe29b71a	-0.16573754
255	0xbe1ef007	-0.1552125

fc2.bias f4 [8]
0	0xbe2e4a0e	-0.17020437
1	0x3c2c0314	0.010498781
2	0xbb39d0cd	-0.0028353215
3	0x3d8ccf57	0.068754844
4	0xbd00ccf8	-0.031445473
5	0xbd2ad385	-0.041705627
6	0xbdb7ac4e	-0.089684114
7	0x3ce02a48	0.027363911
