Other Experiments/Noiseless_Kuzushiji/PCA-NQE200.pt (torch, 3631 bytes, 6 tensors)

linear_relu_stack2.0.weight f4 [12, 4]
0	0x3d3912db	0.045183998
1	0xbec3dc94	-0.38254225
2	0x3efa4911	0.4888387
3	0x3e1e9e3e	0.15490052
4	0xbe985427	-0.29751703
5	0x3ec2d2ca	0.38051444
6	0x3d0489a3	0.032357823
7	0x3e5af94c	0.21384162
8	0x3f007476	0.50177705
9	0x3ea14a11	0.3150182
10	0x3da8c97c	0.08241555
11	0xbedd2d8f	-0.4319882
12	0xbeec2eab	-0.46129355
13	0xbed8b2cc	-0.4232391
14	0x3e9a403b	0.3012713
15	0x3c5d3487	0.013501293
16	0xbed37a29	-0.41304138
17	0x3e8feaf4	0.28108943
18	0x3c580b5f	0.013186305
19	0x3eec29c6	0.4612562
20	0x3e6dcf52	0.23223618
21	0xbe7aedc9	-0.2450477
22	0xbec3443d	-0.38138
23	0xbea439f1	-0.32075456
24	0xbe72c7ad	-0.23708983
25	0x3ed4570e	0.41472667
26	0xbe05f773	-0.13082676
27	0x3e8025b9	0.2502878
28	0xbef48cae	-0.4776358
29	0x3eb708df	0.35748956
30	0x3edb1729	0.42791107
31	0x3edc4faa	0.4302953
32	0x3eb2c6c6	0.34917277
33	0xbe56b320	-0.20966768
34	0xbe94877e	-0.29009622
35	0x3e517ed6	0.2045854
36	0x3ed8e524	0.4236232
37	0xbd4e8c47	-0.050426748
38	0x3e9ea32e	0.3098387
39	0x3dce86d5	0.10084311
40	0xbeff229a	-0.49831086
41	0xbc081f40	-0.008308232
42	0xbe239070	-0.15973067
43	0xbdbfac58	-0.09359044
44	0xbeb70166	-0.35743254
45	0x3e3dbbd7	0.18528686
46	0xbe1efaf0	-0.15525413
47	0x3da53e6b	0.08068546

linear_relu_stack2.0.bias f4 [12]
0	0x3e4d2956	0.200353
1	0xbd773ef6	-0.06036278
2	0xbd3bba1c	-0.045831785
3	0x3e122b5f	0.14274357
4	0xbd453225	-0.048143525
5	0xbdc2fdba	-0.09521051
6	0xbeaaf31b	-0.333886
7	0x3d92fb87	0.07176881
8	0xbd578873	-0.052620362
9	0xbedb4916	-0.42829198
10	0xbeed76c0	-0.46379662
11	0x3efc27cb	0.4924911

linear_relu_stack2.2.weight f4 [12, 12]
0	0x3af9c96f	0.0019057224
1	0x3e24896f	0.16068052
2	0x3d4a6900	0.049416542
3	0x3e8a1f92	0.2697721
4	0xbde37a44	-0.11107305
5	0xbdb5962f	-0.08866536
6	0x3dbb962f	0.091595046
7	0x3dda4582	0.10657789
8	0x3e664c44	0.2249003
9	0xbdec92ce	-0.11551438
10	0x3e74440f	0.23854087
11	0x3e12e322	0.14344457
12	0x3e0e2fc8	0.13885415
13	0x3dce35fa	0.10068889
14	0x3d94df2c	0.07269129
15	0xbe37ea22	-0.17960408
16	0x3e6cddbd	0.23131461
17	0xbe12dcd0	-0.14342046
18	0x3d087f6c	0.033324644
19	0x3d715b1c	0.05892478
20	0xbe27702f	-0.16351388
21	0xbe18b065	-0.14911039
22	0x3d860837	0.065445356
23	0x3e460cd1	0.19340827
24	0x3daff1e7	0.08591061
25	0x3e6cecde	0.23137233
26	0x3e01f173	0.12689762
27	0xbcc80736	-0.024417501
28	0xbded3157	-0.115816765
29	0xbe5c80a9	-0.21533455
30	0xbe3114cc	-0.1729309
31	0x3e0f092f	0.13968347
32	0x3e63beab	0.22240703
33	0xbe1bb0ef	-0.15204214
34	0x3da7ffcc	0.08203086
35	0x3d275c3a	0.04085944
36	0xbd1cbd63	-0.03826655
37	0xbde1280d	-0.10993967
38	0x3dd32bd1	0.10311092
39	0x3df797ba	0.120894864
40	0xbdd43c1c	-0.103630275
41	0x3e02ae3a	0.12761775
42	0xbdb722d0	-0.08942187
43	0xbe0d16f0	-0.13778281
44	0xbc909ff8	-0.017654404
45	0x3e029cbe	0.12755105
46	0xbe113034	-0.14178544
47	0x3e8ca22e	0.27467483
48	0x3a9561d1	0.0011396949
49	0x3dcb3764	0.09922674
50	0xbe043228	-0.12909758
51	0xbe547aa8	-0.20749915
52	0xbe881a20	-0.26582432
53	0x3e49b2ac	0.19697064
54	0x3e63d3f7	0.22248827
55	0xbe85786c	-0.26068437
56	0x3d0fc019	0.035095308
57	0x3dc4d120	0.096102
58	0xbd1ac1f5	-0.037782628
59	0xbd96820a	-0.07349022
60	0xbdd347f2	-0.10316457
61	0x3dccbc19	0.09996814
62	0xbc41622b	-0.01180319
63	0x3e601743	0.21883874
64	0x3d6baca6	0.057537697
65	0x3de82a20	0.1133616
66	0xbe6538a0	-0.22384882
67	0x3e7dff2b	0.2480437
68	0x3c32e78f	0.010919466
69	0x3e2e2aa6	0.17008457
70	0xbc6a431a	-0.014298225
71	0xbe6f7e9d	-0.23388143
72	0xbdc74118	-0.097292125
73	0xbe6a79b8	-0.22897995
74	0xbcc2b7c6	-0.02376927
75	0x3d022de2	0.03178204
76	0xbd9b28f5	-0.07576171
77	0x3e659175	0.22418769
78	0xbe90372f	-0.28167102
79	0xbe5363be	-0.20643517
80	0x3ddfa62a	0.10920365
81	0xbdc68aec	-0.09694466
82	0xbdb7e9fa	-0.08980174
83	0xbd8069ed	-0.06270204
84	0xbdf7f2b0	-0.12106836
85	0xbdd6e49d	-0.10492823
86	0x3e1db9aa	0.15402856
87	0xbe1a2ca6	-0.15056095
88	0xbc9504fc	-0.018190853
89	0xbe7b0951	-0.24515273
90	0xbdff8f44	-0.124784976
91	0xbe42001f	-0.18945359
92	0x3cc3997f	0.023876904
93	0xbd0e0849	-0.03467587
94	0xbe1dd4cd	-0.15413208
95	0x3e172b9b	0.14762728
96	0x3e4a4ec1	0.19756605
97	0x3e416e28	0.18889678
98	0xbe194e73	-0.14971332
99	0xbe646a50	-0.2230618
100	0x3d041b16	0.032252394
101	0xbe84dee6	-0.25951308
102	0x3e180546	0.14845762
103	0x3e49ef56	0.19720206
104	0xbdb55d29	-0.088556595
105	0xbe14bc01	-0.14524843
106	0x3e30e784	0.17275816
107	0xbe7a29bb	-0.24429981
108	0xbe4d283c	-0.2003488
109	0x3d1ca572	0.03824372
110	0x3e0b6b6b	0.13615195
111	0xbd41a2b7	-0.047274318
112	0xbe85af9f	-0.2611055
113	0x3e131ab7	0.1436566
114	0x3e058f52	0.13042954
115	0xbe8b53ff	-0.2721252
116	0x3d20759c	0.03917466
117	0xbd8ff8ef	-0.07029902
118	0xbe3f4679	-0.18679227
119	0x3d91e551	0.07123817
120	0x3e2e8006	0.17041025
121	0x3e5060af	0.20349382
122	0x3d49b661	0.049246196
123	0xbdba41f2	-0.09094609
124	0x3e83108b	0.2559856
125	0x3e4e4ea0	0.2014718
126	0x3e8dd056	0.2769801
127	0xbe3eeb86	-0.18644533
128	0x3e830cc6	0.25595683
129	0x3e1742c3	0.14771561
130	0xbdfb5b90	-0.122733235
131	0xbe06845b	-0.13136427
132	0xbe86504d	-0.2623314
133	0xbe6c5aad	-0.23081465
134	0xbe34975c	-0.17635864
135	0x3e0ee89a	0.13955918
136	0x3e0fd3c6	0.14045629
137	0x3e8a1508	0.2696917
138	0x3d9618cf	0.073289506
139	0xbe935f30	-0.2878356
140	0x3d43bc03	0.047786724
141	0x3cab4a54	0.020909466
142	0xbd050857	-0.032478657
143	0xbe406d52	-0.18791702

linear_relu_stack2.2.bias f4 [12]
0	0x3e8b708d	0.27234307
1	0x3e878bf4	0.26473963
2	0x3e33e66e	0.1756837
3	0xbda9aa13	-0.08284392
4	0x3da7bd67	0.081904225
5	0xbdc93f1d	-0.09826491
6	0xbe3ffc2b	-0.18748538
7	0xbd31ce3a	-0.043409564
8	0x3e396bca	0.18107525
9	0xbe8220da	-0.2541569
10	0xbd861e90	-0.06548798
11	0xbde0aa51	-0.10969985

linear_relu_stack2.4.weight f4 [8, 12]
0	0x3e762a3f	0.24039553
1	0x3df6079d	0.12013171
2	0x3e2d053a	0.16896525
3	0xbd4c5c86	-0.049892925
4	0x3e2b7856	0.16745123
5	0x3e29d287	0.16584216
6	0x3e7cd8c0	0.24692059
7	0xbd2cffc9	-0.042236123
8	0x3e130168	0.14356005
9	0xbd4f19b2	-0.050561614
10	0xbe5c65c8	-0.21523201
11	0x3e8502cc	0.25978696
12	0x3bf36af7	0.0074285227
13	0x3e64272d	0.2228057
14	0x3e4e0071	0.20117356
15	0x3d9252be	0.07144688
16	0xbd8ba2cf	-0.06818163
17	0x3e7ef3dc	0.24897712
18	0x3e315d39	0.17320718
19	0xbe8e7693	-0.2782484
20	0xbd68f6fd	-0.05687617
21	0xbe8d5351	-0.27602628
22	0x3e220187	0.15820895
23	0x3ddd0f14	0.107938915
24	0xbe0d1fa6	-0.13781604
25	0xbe5ef18e	-0.21771833
26	0xbd582fc9	-0.052779946
27	0x3e5eb780	0.21749687
28	0xbe931c84	-0.28732693
29	0xbddc1087	-0.1074534
30	0xbe909bcb	-0.2824386
31	0xbe6710a7	-0.22564946
32	0x3e8a412a	0.2700284
33	0x3dad74f0	0.0846957
34	0xbe1d3c2d	-0.15354986
35	0x3e90d011	0.28283742
36	0x3e453b0c	0.19260806
37	0x3e04b322	0.12958959
38	0x3db9bde6	0.090694234
39	0xbe827a80	-0.25484085
40	0xbcacf104	-0.021111019
41	0xbe5b100e	-0.21392843
42	0x3c8707b1	0.01648316
43	0xbe6e8e15	-0.23296387
44	0x39bf58b2	0.00036496442
45	0x3e13f295	0.14448006
46	0xbddf28be	-0.10896443
47	0xbd31c5ac	-0.043401405
48	0xbdd0d8ca	-0.10197599
49	0x3e221650	0.15828824
50	0x3da62d54	0.081141144
51	0xbe7bbc22	-0.24583486
52	0xbdb3202f	-0.08746373
53	0x3e2e6872	0.1703203
54	0x3de3104f	0.11087095
55	0xbe10da39	-0.14145745
56	0xbd3045c6	-0.04303529
57	0x3c6cff5c	0.014465179
58	0xbe8cc42f	-0.27493426
59	0xbe82ecb7	-0.25571224
60	0x3e6f8690	0.23391175
61	0xbd2b8efe	-0.041884415
62	0xbda6464a	-0.08118875
63	0xbc9b4121	-0.018951954
64	0x3c780639	0.015138202
65	0xbc9f3577	-0.019434674
66	0xbc184e32	-0.009295987
67	0x3e670b3f	0.22562884
68	0x3e89622a	0.26832706
69	0xbc7c5f93	-0.015403646
70	0xbdaf7c35	-0.085686125
71	0x3e882a63	0.26594839
72	0x3e82591a	0.25458604
73	0xbd92c271	-0.07165993
74	0xbde07207	-0.10959249
75	0x3e3fc99d	0.18729253
76	0x3e8059bd	0.25068465
77	0xbdb50f81	-0.08840848
78	0xbe884968	-0.26618505
79	0xbe90c756	-0.2827708
80	0x3e811565	0.25211635
81	0x3cbedd08	0.023298755
82	0xbd95ba62	-0.0731094
83	0x3e7c4be5	0.24638326
84	0xbc33c6c1	-0.01097268
85	0x3c0bfc59	0.008544051
86	0x3cfd0100	0.030884266
87	0xbdb2d381	-0.087317474
88	0x3c9eec06	0.019399654
89	0x3b951200	0.004549265
90	0xbe88c0db	-0.26709637
91	0x3e83f9e2	0.25776583
92	0xbe37e7c7	-0.1795951
93	0xbe2f2c1a	-0.17106667
94	0xbd482571	-0.048863832
95	0x3e10fdab	0.14159267

linear_relu_stack2.4.bias f4 [8]
0	0x3c43c0f5	0.01194786
1	0xb9f16491	-0.0004604203
2	0xbe3b9482	-0.1831837
3	0x3e69176b	0.2276284
4	0x3e92e6ab	0.2869161
5	0x3df4dc74	0.119561106
6	0xbd7373f8	-0.05943677
7	0xbe573183	-0.21014981
