Additional Experiments/Noisy_Fashion/PCA-NQE500.pt (torch, 3567 bytes, 6 tensors)

linear_relu_stack2.0.weight f4 [12, 4]
0.13428661 -0.3450816 0.032053236 -0.07271415 -0.01334213 -0.1702136 0.24818587 0.5069967
-0.16646081 -0.23563075 -0.40956825 -0.23889321 0.32535467 -0.19747062 0.30917868 -0.37441212
-0.402216 -0.28304338 -0.43586975 0.05391924 0.37264824 0.25040665 0.52965796 0.47274977
0.042947102 0.533462 0.4467162 -0.20895515 0.100423306 0.37985548 -0.25694153 -0.120901175
0.026570288 -0.4671152 -0.17631951 -0.282323 0.28520045 -0.022034004 0.26796892 -0.45418617
0.38775632 0.21285988 -0.41532892 -0.1632679 0.480079 -0.24638014 -0.3944032 0.2972052
00000000: 6e82 093e 89ae b0be 414a 033d 28eb 94bd
00000010: f398 5abc 794c 2ebe 7024 7e3e 89ca 013f
00000020: b474 2abe 3049 71be eeb2 d1be 6ca0 74be
00000030: e394 a63e bd35 4abe ab4c 9e3e f2b2 bfbe
00000040: 41ef cdbe 10eb 90be 522a dfbe 6cda 5c3d
00000050: c0cb be3e 4d35 803e aa97 073f 420c f23e
00000060: 4de9 2f3d f790 083f fcb7 e43e 57f8 55be
00000070: bcaa cd3d 6b7c c23e d78d 83be 099b f7bd
00000080: efa9 d93c b929 efbe 1a8d 34be a48c 90be
00000090: cb05 923e a880 b4bc 3933 893e 178b e8be
000000a0: ff87 c63e f1f7 593e fea5 d4be b32f 27be
000000b0: eacc f53e 134b 7cbe 37ef c9be 482b 983e

linear_relu_stack2.0.bias f4 [12]
-0.20573463 -0.2891064 -0.092262626 0.13969363 0.041674312 0.4455037 0.46191162 0.31802428
0.27778652 -0.39003313 0.3929939 -0.1300846
00000000: 19ac 52be c105 94be 30f4 bcbd d90b 0f3e
00000010: afb2 2a3d 1019 e43e ae7f ec3e 14d4 a23e
00000020: 093a 8e3e 6cb2 c7be 7f36 c93e e634 05be

linear_relu_stack2.2.weight f4 [12, 12]
0.005854539 -0.025011664 0.080737285 -0.17458759 0.041430205 -0.22305392 0.29911724 0.118962236
-0.18666846 -0.14419954 -0.13465302 0.1302187 -0.25083408 -0.22272064 -0.252944 -0.20224299
0.24313414 -0.104274236 -0.049269572 0.08763907 -0.116298534 -0.2642846 -0.27020216 0.0281506
-0.2636459 -0.0995154 0.080363594 -0.23188733 -0.2850987 -0.120769225 -0.14555416 0.14660123
0.00817188 -0.19526282 -0.08659636 0.26029858 -0.18906271 0.333912 0.0074500865 -0.14287834
-0.17384616 0.31570357 -0.20271344 0.20618045 0.2366678 0.13225166 -0.028227843 0.0676143
0.21676338 0.088112675 -0.09790829 0.29648522 0.2703686 -0.009847052 -0.23389418 0.18928298
0.090793595 0.17457901 -0.08088747 0.1430927 0.24530174 0.04670551 -0.1971735 -0.25797892
0.039843675 -0.10971276 -0.07449674 0.09648112 0.09088058 0.19676933 -0.027837304 0.09288186
-0.09421156 -0.15252551 0.14537983 -0.058958057 0.17024267 -0.067153 0.2753237 0.14109327
-0.13643701 0.26364318 0.19973348 0.11510356 0.17531452 -0.1488747 0.2569757 0.25453365
0.030353636 -0.11334466 -0.19107214 0.24098042 0.08258787 -0.0022434958 0.25896236 0.12577522
0.15187192 0.15163596 0.05660341 0.18641086 -0.0366426 -0.11435207 0.05394033 0.19853538
0.011841634 -0.20564453 0.014617724 0.11860351 0.27331308 0.35887593 -0.21607888 -0.008086973
0.22362128 0.34915322 -0.040651005 -0.26166096 -0.0671811 0.27350265 -0.1496893 -0.23637965
0.28557503 0.23154968 -0.27666435 -0.094418995 0.18919316 -0.0871126 -0.059932206 0.21553326
-0.2460472 0.06097899 -0.004447429 0.17129819 0.06629378 0.1285611 0.2711984 0.14301963
0.24150679 0.19398995 0.07148984 0.068865865 0.019392632 -0.18979053 -0.21490312 0.2673196
00000000: 6fd7 bf3b 43e5 ccbc 9759 a53d 17c7 32be
00000010: b8b2 293d 3f68 64be e525 993e 79a2 f33d
00000020: 0426 3fbe 0ba9 13be 7be2 09be 0d58 053e
00000030: 536d 80be e110 64be e081 81be c918 4fbe
00000040: 28f8 783e bb8d d5bd e4ce 49bd 1d7c b33d
00000050: ed2d eebd 5050 87be f057 8abe 169c e63c
00000060: 98fc 86be bbce cbbd ab95 a43d df73 6dbe
00000070: 75f8 91be db55 f7bd 260c 15be a21e 163e
00000080: 59e3 053c faf2 47be 6f59 b1bd db45 853e
00000090: a899 41be 83f6 aa3e db1f f43b b34e 12be
000000a0: ba04 32be e6a3 a13e 1d94 4fbe f820 533e
000000b0: 0b59 723e fb6c 073e 143e e7bc 5e79 8a3d
000000c0: 38f7 5d3e 6b74 b43d 2484 c8bd e9cc 973e
000000d0: c16d 8a3e 8855 21bc f581 6fbe 66d3 413e
000000e0: fef1 b93d d7c4 323e 54a8 a5bd e586 123e
000000f0: 6130 7b3e 474e 3f3d dae7 49be d015 84be
00000100: 1f33 233d 15b1 e0bd bf91 98bd e597 c53d
00000110: 991f ba3d e67d 493e 0f0b e4bc d838 be3d
00000120: fef1 c0bd a62f 1cbe 73de 143e 017e 71bd
00000130: 1854 2e3e 8387 89bd 3af7 8c3e c17a 103e
00000140: 25b6 0bbe 3dfc 863e ef86 4c3e 6abb eb3d
00000150: a685 333e 9c72 18be 5292 833e 3c52 823e
00000160: 30a8 f83c 3f21 e8bd 6aa8 43be 92c3 763e
00000170: d423 a93d 9d07 13bb b796 843e 38cb 003e
00000180: 5084 1b3e 7546 1b3e fad8 673d 7de2 3e3e
00000190: 8d16 16bd 6b31 eabd 89f0 5c3d dc4c 4b3e
000001a0: 6a03 423c 7b94 52be 2e7f 6f3c 66e6 f23d
000001b0: b1ef 8b3e 96be b73e c843 5dbe 397f 04bc
000001c0: fafc 643e 36c4 b23e ab81 26bd 6df8 85be
000001d0: 3f96 89bd 8a08 8c3e 2748 19be 820d 72be
000001e0: e436 923e 5c1b 6d3e f3a6 8dbe bf5e c1bd
000001f0: dabb 413e 1768 b2bd 797b 75bd c0b4 5c3e
00000200: ccf3 7bbe 1bc5 793d bdbb 91bb cb68 2f3e
00000210: 09c5 873d 85a5 033e 84da 8a3e bd73 123e
00000220: 8e4d 773e 4da5 463e 4469 923d 8c09 8d3d
00000230: 4cdd 9e3c 7358 42be 900f 5cbe 1dde 883e

linear_relu_stack2.2.bias f4 [12]
-0.021460498 0.041042548 0.27304152 0.20912854 -0.13174525 -0.015679175 -0.10803771 -0.06380926
-0.2983439 -0.14478481 0.040459804 -0.052093476
00000000: edcd afbc 3b1c 283d 19cc 8b3e cb25 563e
00000010: 3ae8 06be 9d71 80bc e042 ddbd 6eae 82bd
00000020: 88c0 98be 7842 14be 2eb9 253d f85f 55bd

linear_relu_stack2.4.weight f4 [7, 12]
0.2228204 0.26315776 0.020996353 -0.11482608 -0.16150501 -0.18476333 0.008762783 0.278658
0.20176554 0.2897103 -0.022632765 -0.21418709 -0.16402252 -0.16657123 -0.0355495 0.09699136
-0.15124926 -0.25167772 0.16146569 -0.22909316 0.27123225 0.27614692 0.13257441 -0.05762565
-0.22478376 0.18056756 0.06536093 -0.10780002 -0.15575936 -0.16733696 -0.19927883 -0.23613203
0.014722918 -0.22180283 0.11680951 0.19037242 -0.18378618 -0.26362815 0.17508027 -0.13709247
0.14936996 0.2369212 0.1656306 -0.20294699 0.05885423 -0.279908 0.08435362 -0.10390762
0.15211745 -0.18893217 0.039248824 0.0602283 0.075720415 0.027205143 0.050627407 -0.01026718
-0.23550615 -0.29803628 0.08560359 0.082045704 0.24220991 0.05107872 -0.109434746 -0.28625682
-0.05129782 0.005033898 -0.12246656 0.2212473 0.09200459 -0.0719502 -0.1410713 -0.08679154
0.2797143 0.22067112 -0.15115988 -0.1989319 0.19961685 -0.08644117 0.39588934 0.05839289
-0.16947784 -0.39716342 -0.083177514 -0.18596138
00000000: 082b 643e 9dbc 863e 8b00 ac3c f029 ebbd
00000010: 9261 25be 9932 3dbe c791 0f3c 43ac 8e3e
00000020: a09b 4e3e e954 943e 5968 b9bc dc53 5bbe
00000030: 85f5 27be a691 2abe 5a9c 11bd 68a3 c63d
00000040: 16e1 1abe e7db 80be 4357 253e 6697 6abe
00000050: f4de 8a3e 2163 8d3e 96c1 073e e008 6cbd
00000060: b72d 66be b4e6 383e f4db 853d 42c6 dcbd
00000070: 627f 1fbe 615a 2bbe c00f 4cbe 98cc 71be
00000080: 6538 713c 4820 63be d339 ef3d fdf0 423e
00000090: 7232 3cbe 45fa 86be 3e48 333e f861 0cbe
000000a0: 70f4 183e 799b 723e 119b 293e 56d1 4fbe
000000b0: 2211 713d 1a50 8fbe 97c1 ac3d 85cd d4bd
000000c0: adc4 1b3e 6f77 41be 60c3 203d f3b1 763d
000000d0: 4e13 9b3d 52dd de3c af5e 4f3d ad37 28bc
000000e0: 8628 71be 3698 98be ef50 af3d 9407 a83d
000000f0: e005 783e eb37 513d 531f e0bd 4190 92be
00000100: aa1d 52bd 66f3 a43b bfcf fabd a78e 623e
00000110: e76c bc3d a05a 93bd ff74 10be c3bf b1bd
00000120: b636 8f3e 9cf7 613e a8c9 1abe ceb4 4bbe
00000130: 5c68 4c3e 1108 b1bd 02b2 ca3e 622d 6f3d
00000140: 998b 2dbe 0159 cbbe f958 aabd a96c 3ebe

linear_relu_stack2.4.bias f4 [7]
0.05994817 0.23339659 0.25068253 0.22067727 -0.16577658 -0.21692674 0.11820807
00000000: 368c 753d 84ff 6e3e 7659 803e 39f9 613e
00000010: 56c1 29be 0b22 5ebe 1317 f23d
