QCNN_demonstration/Real device/Real/Model2 pre-train/Model2_20.pt (torch, 3559 bytes, 6 tensors)

linear_relu_stack2.0.weight f4 [12, 4]
0	0xbd4b64d1	-0.049656693
1	0xbd314f89	-0.04328874
2	0x3e84068f	0.25786254
3	0x3db4ce21	0.088283785
4	0xbee2e425	-0.44314685
5	0x3de6c1bc	0.11267421
6	0x3eed2a43	0.46321306
7	0xbd8d5836	-0.069015905
8	0xbdae048e	-0.084969625
9	0xbeb9cd0e	-0.36289257
10	0xbe4a9351	-0.19782759
11	0x3ec9cbc8	0.39413285
12	0xbd96a49e	-0.07355617
13	0x3eb968fb	0.36212906
14	0x3e0d93f6	0.13825974
15	0xbe636f0c	-0.2221033
16	0xbec62fa5	-0.38708225
17	0x3eb364bf	0.350378
18	0x3e9ea840	0.3098774
19	0xbdc94b01	-0.09828759
20	0xbeeda5df	-0.46415612
21	0x3ed3c7f2	0.41363484
22	0x3ec43c11	0.38327077
23	0x3ee9b662	0.4564696
24	0x3eb62e4e	0.35582203
25	0x3eadea27	0.33967707
26	0x3defcc4e	0.1170889
27	0x3dc463d6	0.09589355
28	0x3cef0ec7	0.029181851
29	0x3d289fb3	0.041167926
30	0xbed46d5d	-0.41489688
31	0xbe0a88cc	-0.13528746
32	0xbe821018	-0.25402904
33	0x3e82a468	0.25516057
34	0xbec15d07	-0.37766287
35	0xbef9f681	-0.4882088
36	0x3f18b975	0.59657985
37	0x3e00678d	0.12539501
38	0x3eabe735	0.33574834
39	0x3e99de54	0.30052435
40	0xbe5dd0d7	-0.21661697
41	0x3dc25963	0.094897054
42	0x3eeecbdf	0.46639916
43	0xbeef25e6	-0.46708602
44	0xbca0161c	-0.019541793
45	0x3ed6f242	0.41981703
46	0x3eef4ab8	0.46736693
47	0xbe06dfa2	-0.13171247

linear_relu_stack2.0.bias f4 [12]
0	0x3e05661f	0.13027237
1	0x3ed1d459	0.4098232
2	0x3c0a2f5d	0.008434144
3	0xbe55e8d6	-0.20889601
4	0xbe6c5e83	-0.23082928
5	0xbe3b801b	-0.18310587
6	0x3ec882b3	0.39162216
7	0x3e489bee	0.19590732
8	0x3da1f69a	0.07908364
9	0xbe9e10ca	-0.30872184
10	0x3e5df3d1	0.2167504
11	0x3d5ea7eb	0.054359358

linear_relu_stack2.2.weight f4 [12, 12]
0	0x3e203e82	0.15648845
1	0x3e8052f7	0.25063297
2	0x3e3838af	0.17990373
3	0x3e6324f5	0.22182067
4	0x3e05cc3e	0.13066193
5	0xbe2dd37b	-0.16975205
6	0xbd10c0d9	-0.035340164
7	0x3d85111f	0.06497406
8	0x3dae5a73	0.085133456
9	0xbe8a2264	-0.26979363
10	0xbe004aa2	-0.1252847
11	0x3db75eae	0.089536056
12	0x3e871974	0.26386607
13	0x3e567100	0.20941544
14	0x3ddb1674	0.10697642
15	0x3e3c2b54	0.18375903
16	0xbe1d4390	-0.15357804
17	0xbe641234	-0.22272569
18	0x3c8b9660	0.017039478
19	0x3e6bb460	0.23018026
20	0x3e2e0850	0.16995358
21	0xbe6ad816	-0.22933993
22	0x3dd6bbb4	0.1048502
23	0xbde02598	-0.109446704
24	0x3e1c65cc	0.15273207
25	0x3e48c53b	0.19606487
26	0xbe50e6d7	-0.20400558
27	0x3d39376b	0.045218866
28	0x3d188ef4	0.037245706
29	0xbe0f7cf4	-0.1401251
30	0xbd5a2d8a	-0.053266086
31	0x3e80695c	0.25080383
32	0x3defde60	0.117123365
33	0x3e7bba2b	0.24582736
34	0xbe156018	-0.14587438
35	0xbd9ff05e	-0.07809518
36	0x3e31e7b3	0.17373542
37	0x3e7e1917	0.24814259
38	0xbe8bf9b7	-0.27338955
39	0x3db101fb	0.08642956
40	0xbc5b501c	-0.013385799
41	0x3e006da1	0.1254182
42	0x3dfb5e9d	0.122739054
43	0x3e614719	0.21999778
44	0x3d1626d1	0.036658112
45	0xbe8f8a82	-0.2803536
46	0xbe72c4d7	-0.23707901
47	0xbdbbb559	-0.09165449
48	0xbdfeeb12	-0.1244718
49	0xbc3d13c0	-0.011540353
50	0xbb730600	-0.0037082434
51	0x3e3917ee	0.18075535
52	0xbe180977	-0.1484736
53	0x3dcbd60c	0.099529356
54	0xbe255fd9	-0.16149844
55	0xbce1feb0	-0.027587265
56	0xbe7f165e	-0.24910876
57	0xbe1e4382	-0.1545544
58	0x3e607d70	0.2192285
59	0xbdd9dc1c	-0.10637686
60	0xbe7c36bc	-0.24630255
61	0xbea4c0e8	-0.32178426
62	0x3e127fcc	0.14306563
63	0x3e8d049c	0.2754258
64	0xbd2bf54e	-0.041981988
65	0xbc98e636	-0.01866446
66	0x3ea56fa4	0.32311738
67	0xbe46c1ad	-0.19409819
68	0x3d31c895	0.04340418
69	0x3cc74996	0.02432708
70	0xbe8333a8	-0.25625348
71	0xbd5e76af	-0.054312404
72	0x3e4cd70d	0.2000391
73	0x3e0d1fd4	0.13781673
74	0xbe3ca6dd	-0.18423028
75	0x3db2ccca	0.08730467
76	0xbe8af41f	-0.27139375
77	0xbe8b5e18	-0.27220225
78	0x3e06df84	0.13171202
79	0xbd7272fa	-0.05919168
80	0xbdfe6b46	-0.124228045
81	0x3ea6a847	0.3255026
82	0xbe7086ab	-0.23488872
83	0xbd99a0f5	-0.07501403
84	0xbe6a1268	-0.22858584
85	0xbe4e0f7a	-0.20123091
86	0xbc9472b0	-0.018121094
87	0x3e20916e	0.15680477
88	0x3e4eb68c	0.20186824
89	0x3e2b8570	0.16750121
90	0xbe399452	-0.18122986
91	0xbe7b2bbc	-0.24528402
92	0xbe8b7384	-0.2723657
93	0xbe86aa8e	-0.26301998
94	0x3dd602b4	0.10449734
95	0xbe0c30c7	-0.13690482
96	0x3dc62012	0.09674086
97	0xbdbd8d86	-0.09255509
98	0x3e82ea46	0.2556936
99	0x3e461bdf	0.1934657
100	0x3d911bf8	0.07085413
101	0xbdf80c8f	-0.1211177
102	0x3e27ccb6	0.16386685
103	0xbe8bb2e0	-0.27284908
104	0xbe070ba9	-0.13188042
105	0xbe89a94d	-0.2688698
106	0xbd3b38a6	-0.04570832
107	0x3e88c7f8	0.26715064
108	0xbd173fc8	-0.03692606
109	0xbe3b3b2e	-0.18284294
110	0xbe2850e9	-0.16437115
111	0xbcf0d2dd	-0.029397422
112	0xbe0f581b	-0.13998453
113	0x3d83fae1	0.06444336
114	0xbcaef196	-0.021355432
115	0x3e3918f3	0.18075924
116	0x3db8a7d9	0.090163894
117	0x3e77c2ca	0.241954
118	0x3de94045	0.113892116
119	0x3d8ef08d	0.06979475
120	0x3cc31d77	0.02381776
121	0x3e205f83	0.15661435
122	0x3e1dd1a6	0.15412006
123	0xbe841080	-0.25793839
124	0x3e699910	0.22812295
125	0xbd45d9ee	-0.048303537
126	0x3e4bd1d4	0.19904262
127	0x3c3d42f5	0.011551608
128	0x3e0f67cf	0.14004444
129	0x3e41e3b6	0.18934521
130	0x3e38b50d	0.18037815
131	0xbdedb5cf	-0.11606943
132	0x3e9f8235	0.31154028
133	0x3e1f345c	0.15547317
134	0xbe484cfa	-0.19560614
135	0xbd4c0360	-0.049807906
136	0x3dea1a8f	0.11430847
137	0x3e393fde	0.1809077
138	0x3db929e9	0.09041197
139	0xbd633bb4	-0.05547686
140	0xbdaba502	-0.08381082
141	0xbe860a3a	-0.26179677
142	0x3dad7ebd	0.08471439
143	0x3e1be284	0.15223128

linear_relu_stack2.2.bias f4 [12]
0	0x3e7ba2a5	0.24573763
1	0xbe813011	-0.25231984
2	0x3e272e61	0.16326286
3	0x3e196ab6	0.14982113
4	0xbe56f0c4	-0.20990282
5	0x3caa4c31	0.020788284
6	0xbd623332	-0.055224605
7	0x3e6064e0	0.21913481
8	0xbe8c96f6	-0.27458924
9	0xbe097945	-0.13425167
10	0xbdde643d	-0.10858963
11	0x3ddf4b18	0.10902995

linear_relu_stack2.4.weight f4 [7, 12]
0	0x3e8873ac	0.2665075
1	0xbe12cb02	-0.14335254
2	0x3c8ea3ba	0.017412055
3	0xbe5f7ee8	-0.21825755
4	0x3ddb31e8	0.10702878
5	0xbe89809a	-0.26855928
6	0xbb8d9743	-0.0043210103
7	0xbb7fc200	-0.0039025545
8	0xbd29ac36	-0.041424
9	0xbd84ff29	-0.064939804
10	0xbe034c3c	-0.1282205
11	0x3d47acb0	0.048748672
12	0xbd4bee2c	-0.049787685
13	0x3de65ac4	0.11247781
14	0xbd3ecafe	-0.046580307
15	0x3e678d89	0.22612585
16	0xbdf63124	-0.120210916
17	0x3e32aef8	0.17449558
18	0xbe2ac9af	-0.16678499
19	0x3e8a0616	0.26957768
20	0xbdbc0195	-0.09179989
21	0x3e5945bd	0.2121801
22	0xbe306c35	-0.17228778
23	0xbc16ad1e	-0.009196548
24	0x3da987ee	0.0827788
25	0xbe66dbfe	-0.22544858
26	0xbe1e0a04	-0.15433508
27	0x3e14043e	0.14454743
28	0x3dac07d0	0.083999276
29	0xbe12e43e	-0.1434488
30	0xbe158636	-0.14601979
31	0xbdde5890	-0.10856736
32	0xbe7ee228	-0.2489096
33	0xbad0de67	-0.0015935422
34	0xbddb2e30	-0.10702169
35	0x3da7ef06	0.08199887
36	0xbd249a60	-0.040186286
37	0x3e1a9af0	0.15098166
38	0xbe8d0c5f	-0.275485
39	0x3e6cef00	0.23138046
40	0xbe6e0d45	-0.2324725
41	0x3df7dbd9	0.121024795
42	0xbe498807	-0.19680797
43	0x3e686bbc	0.22697347
44	0xbdc8442a	-0.09778626
45	0xbd56e92d	-0.052468468
46	0x3e5815cb	0.21102063
47	0x3e2326c5	0.15932758
48	0xbe262a77	-0.16227137
49	0xbe90f5f3	-0.28312644
50	0x3e762f07	0.24041377
51	0xbde0e30f	-0.10980808
52	0x3e3fbc1e	0.18724105
53	0xbe9f3ca4	-0.31100953
54	0xbe95b96a	-0.29243022
55	0x3e0227d0	0.127105
56	0xbe912b62	-0.2835341
57	0xbe0508b4	-0.12991601
58	0xbe1c630b	-0.15272157
59	0x3e52e022	0.20593312
60	0x3e06fc06	0.13182077
61	0x3df649f8	0.12025827
62	0x3c26ee89	0.010188707
63	0x3dbb1f8e	0.09136878
64	0x3c80dbb0	0.015729755
65	0x3e4ab88a	0.19796959
66	0x3d6e4e40	0.058180094
67	0x39c6ec00	0.00037941337
68	0xbd7f76c8	-0.062369138
69	0x3d9d666c	0.07685551
70	0xbdc582df	-0.09644102
71	0xbe667fb8	-0.22509658
72	0x3de1fc4f	0.11034452
73	0xbde54cce	-0.1119629
74	0x3da8475c	0.08216736
75	0x3e42529b	0.18976824
76	0x3e8e897c	0.27839267
77	0xbe510c38	-0.20414817
78	0xbe95a0e7	-0.2922432
79	0x3dbfba70	0.09361732
80	0x3e70f6f9	0.23531713
81	0xbe91c4e8	-0.2847054
82	0x3e7889dc	0.24271339
83	0x3ea51b46	0.3224737

linear_relu_stack2.4.bias f4 [7]
0	0xbdd7cd66	-0.105372235
1	0x3e912e26	0.2835552
2	0xbe67657a	-0.22597304
3	0x3e506d4c	0.20354193
4	0x3c0150eb	0.0078928275
5	0xbe8d7ebf	-0.27635762
6	0x3e537a1e	0.20652053
