QCNN_demonstration/Real device/Real/Model2 pre-train/Model2_16.pt (torch, 3559 bytes, 6 tensors)

linear_relu_stack2.0.weight f4 [12, 4]
00000000: b02b 3dbd cde0 20bd 2e88 833e d418 b63d
00000010: 3bc4 e3be ab69 e83d 68cb eb3e 79a1 8fbd
00000020: b411 b4bd ff7f b9be ec46 4abe 070f cb3e
00000030: 18f2 98bd 3be0 b73e 1c1b 113e 62bb 68be
00000040: 1552 c7be d265 b33e 22f3 9a3e 9649 cdbd
00000050: e21c edbe 52ff d63e c5f1 c03e 0c45 e93e
00000060: 7f05 b63e 96ee b03e 09cb fc3d 929f d33d
00000070: c7fe 023d c6ab 363d 965b d4be 468f 09be
00000080: 1810 82be 68a4 823e 075d c1be 81f6 f9be
00000090: b02c 173f a97f e23d d056 af3e 1aa6 9a3e
000000a0: bed3 5ebe 8134 b83d 720f ed3e 590f efbe
000000b0: 53a7 9cbc df3c d73e abd1 ed3e 363d 0bbe
-0.04618424 -0.039276887 0.25689834 0.08891454 -0.4448565 0.113482796 0.46053624 -0.0701322
-0.08792439 -0.36230466 -0.19753617 0.39659902 -0.07468051 0.35913262 0.14170498 -0.22727731
-0.3892981 0.3503862 0.3026362 -0.10023801 -0.46311098 0.4199167 0.37684456 0.4556049
0.35551068 0.34557027 0.123434134 0.1033317 0.031981256 0.04459741 -0.41476125 -0.1343356
-0.25402904 0.25516057 -0.37766287 -0.4882088 0.5905256 0.110595055 0.3424592 0.3020485
-0.2176046 0.08994389 0.46300846 -0.46691397 -0.019122755 0.42038628 0.46449026 -0.13597569

linear_relu_stack2.0.bias f4 [12]
00000000: 1b08 053e 69b1 d03e dafc 113c d9d2 56be
00000010: 17ed 6ebe 0de6 3bbe 0638 c93e b7da 493e
00000020: 9af6 a13d 4d10 9fbe 2dfc 5c3e ddb5 5b3d
0.12991373 0.40760353 0.008910382 -0.2097887 -0.2333263 -0.18349476 0.39300555 0.1971234
0.07908364 -0.31067124 0.21580572 0.053640235

linear_relu_stack2.2.weight f4 [12, 12]
00000000: 8952 1f3e d51f 803e b481 383e 17d5 643e
00000010: cdc0 053e 40f5 32be f38b 14bd 1f11 853d
00000020: 735a ae3d 3f12 8bbe a9f1 f8bd 9381 b83d
00000030: 7419 873e 0071 563e 7416 db3d 542b 3c3e
00000040: 9043 1dbe 3412 64be 6096 8b3c 60b4 6b3e
00000050: 5008 2e3e 16d8 6abe b4bb d63d 9825 e0bd
00000060: 38fe 1b3e eb16 463e 30c8 51be 3bfa 323d
00000070: 2405 133d f638 12be 3cbd 57bd 4471 803e
00000080: 60de ef3d a793 7e3e 7e7d 18be a676 a4bd
00000090: ba84 323e fbec 7f3e 87a3 8cbe 20cd b73d
000000a0: 8b21 27bc 77a8 083e 10ff 083e 173c 623e
000000b0: d126 163d ec92 8bbe fb09 74be 9ff2 abbd
000000c0: 12eb febd c013 3dbc 0006 73bb ee17 393e
000000d0: 7709 18be 0cd6 cb3d d95f 25be b0fe e1bc
000000e0: 5e16 7fbe 8243 1ebe 707d 603e 1cdc d9bd
000000f0: c14c 78be 06a0 a1be 22f2 143e 2a79 8d3e
00000100: 02a6 1fbd 4409 23bc 137e a43e bbd1 47be
00000110: 95c8 313d 9edd c73c a1d5 81be 63c3 51bd
00000120: 3b21 533e 7eff 143e ef4c 39be d3b0 b43d
00000130: 0f89 88be 2318 87be 7f6f 063e 46ce 79bd
00000140: 466b febd 8590 a93e 8580 6bbe 8e4c 91bd
00000150: 6812 6abe 7a0f 4ebe b072 94bc 6e91 203e
00000160: 8cb6 4e3e 7085 2b3e 5294 39be bc2b 7bbe
00000170: 8473 8bbe 8eaa 86be b402 d63d c730 0cbe
00000180: 215d c73d 132d bbbd 46ea 823e 6135 473e
00000190: 5c0f 933d f727 f5bd 3b41 2a3e f5b1 8bbe
000001a0: a90b 07be 9b99 88be 9d95 36bd 5806 8a3e
000001b0: 5c3d 21bd 79d1 3dbe 0808 28be b338 f6bc
000001c0: bd61 11be 1693 583d 298b 0ebd e32c 383e
000001d0: d9a7 b83d a980 6b3e 73ec f03d 535b 823d
000001e0: 3c5f ca3c abfc 203e 532b 1c3e 9097 83be
000001f0: 4c8f 6b3e 4fef 31bd ac53 533e 6974 443c
00000200: cf67 0f3e 113e 493e 481e 363e e41d e5bd
00000210: bdfe 9d3e 79f8 1a3e 7c1f 4dbe 4746 46bd
00000220: b492 ec3d bcdb 3a3e 6dee c83d 5008 5dbd
00000230: 02a5 abbd 94ff 83be 5514 a13d 28e1 1e3e
0.15558828 0.25024286 0.18018228 0.22346912 0.13061829 -0.17476368 -0.03626628 0.06497406
0.085133456 -0.27162358 -0.12155468 0.09009089 0.26386607 0.20941544 0.10697642 0.18375903
-0.15357804 -0.22272569 0.017039478 0.23018026 0.16995358 -0.22933993 0.1048502 -0.109446704
0.15233696 0.1934468 -0.20486522 0.04369567 0.035893574 -0.14279541 -0.052670702 0.25086415
0.117123365 0.24861012 -0.14891621 -0.08030443 0.17433444 0.24992745 -0.2746851 0.08974671
-0.010200868 0.13345514 0.13378549 0.22093235 0.036658112 -0.2726053 -0.23831932 -0.08395886
-0.1244718 -0.011540353 -0.0037082434 0.18075535 -0.1484736 0.099529356 -0.16149844 -0.027587265
-0.24910876 -0.1545544 0.2192285 -0.10637686 -0.2424803 -0.315674 0.14545491 0.27631503
-0.038976677 -0.00995094 0.32127437 -0.195136 0.04340418 0.024397667 -0.25358298 -0.051211726
0.20618145 0.14550588 -0.18095754 0.08822789 -0.26667067 -0.26385602 0.1312847 -0.060987733
-0.124228045 0.33118072 -0.22998245 -0.0709468 -0.22858584 -0.20123091 -0.018121094 0.15680477
0.20186824 0.16750121 -0.18122986 -0.24528402 -0.2723657 -0.26301998 0.10449734 -0.13690482
0.0973456 -0.091394566 0.2556936 0.19453956 0.07180664 -0.11970513 0.16626446 -0.27284208
-0.13188042 -0.26679692 -0.044576276 0.26957965 -0.039365157 -0.18536939 -0.16409314 -0.030056333
-0.1419744 0.052874647 -0.034800682 0.17985873 0.090163894 0.22998299 0.11763849 0.06365075
0.024703614 0.15721385 0.15250902 -0.2570157 0.23003882 -0.043441113 0.20637387 0.011990645
0.14004444 0.19652583 0.17784989 -0.11187342 0.30858412 0.15133847 -0.20031542 -0.048406865
0.11551419 0.18247885 0.09811101 -0.053963006 -0.08381082 -0.25780928 0.07865206 0.15515578

linear_relu_stack2.2.bias f4 [12]
00000000: bd43 7b3e 1130 81be 3da7 263e 8cec 1c3e
00000010: c4f0 56be d4be a93c edaa 5ebd e064 603e
00000020: 7918 8cbe 17f7 0fbe 615d dabd c5ea de3d
0.24537559 -0.25231984 0.16274734 0.1532461 -0.20990282 0.020720877 -0.054362226 0.21913481
-0.2736242 -0.14059101 -0.10662342 0.108846225

linear_relu_stack2.4.weight f4 [7, 12]
00000000: d6f4 893e 02cb 12be ae1a 883c 8ac9 64be
00000010: e831 db3d 0a2b 89be 4ee5 05bb 00c2 7fbb
00000020: 37d4 23bd 76ab 83bd ca4b 03be 31f4 383d
00000030: e215 4bbd c45a e63d 04a8 51bd de64 663e
00000040: 2431 f6bd 453d 313e fe7a 30be 1606 8a3e
00000050: e449 bbbd 2412 573e 9f82 35be 59c4 32bc
00000060: 86c7 a93d fedb 66be f9a6 20be ec89 153e
00000070: d007 ac3d 9d62 12be 4e7f 19be 9058 debd
00000080: dd7e 7fbe af2a 4bbb da3e e2bd d172 aa3d
00000090: 7cd6 23bd f09a 1a3e 2237 8dbe 11ad 6f3e
000000a0: 450d 6ebe 2e4a fd3d 8314 4abe bc6b 683e
000000b0: 5224 c9bd f54c 57bd dfe2 573e 34b8 263e
000000c0: be48 29be f3f5 90be 86c8 763e a9bf dcbd
000000d0: 1ebc 3f3e 7f03 9dbe ed00 95be d027 023e
000000e0: 2420 92be e680 04be 3572 1fbe 78ef 4f3e
000000f0: ae62 073e f849 f63d 9ea2 0d3c 4d5a ba3d
00000100: b0db 803c 8937 473e fb3b 613d 00ec c639
00000110: 7a88 7fbd 4232 9a3d 15f6 c7bd 09ea 66be
00000120: d41f dd3d ce4c e5bd ed2b ae3d e999 443e
00000130: 7c89 8e3e 166a 49be 2034 92be 70ba bf3d
00000140: e33c 6f3e b562 90be c8d4 773e e03a a43e
0.26944607 -0.14335254 0.016614284 -0.22342506 0.10702878 -0.2679065 -0.0020430866 -0.0039025545
-0.039997306 -0.06429188 -0.1282188 0.045154754 -0.049581416 0.11247781 -0.051185623 0.22499415
-0.120210916 0.17308529 -0.17234418 0.26957768 -0.09144953 0.21003014 -0.17725609 -0.010911071
0.08290009 -0.22544858 -0.15688695 0.14603394 0.083999276 -0.1429543 -0.14989969 -0.10856736
-0.24950738 -0.0031000783 -0.11047144 0.08322681 -0.03999947 0.15098166 -0.27581125 0.23405863
-0.2324725 0.12367664 -0.19734387 0.22697347 -0.09821381 -0.052563626 0.21082638 0.16281205
-0.16531655 -0.28312644 0.24099931 -0.10778744 0.18724105 -0.3066673 -0.2910227 0.127105
-0.28540146 -0.12939796 -0.1557091 0.20306194 0.13221237 0.12025827 0.008644728 0.09099255
0.015729755 0.19454779 0.054988842 0.00037941337 -0.062386014 0.07529117 -0.09763733 -0.22550215
0.10797086 -0.1119629 0.08504472 0.19199337 0.27839267 -0.19669375 -0.28555393 0.09361732
0.2336307 -0.28200307 0.24202263 0.32076168

linear_relu_stack2.4.bias f4 [7]
00000000: 4f65 d8bd 71ea 8e3e 3b7a 69be 79f5 523e
00000010: 66f0 d23b cc78 8ebe 1e7a 533e
-0.10566198 0.2791324 -0.22800533 0.20601453 0.006437349 -0.27826536 0.20652053
