QCNN_demonstration/Real device/Real/Model2 pre-train/Model2_44.pt (torch, 3559 bytes, 6 tensors)

linear_relu_stack2.0.weight f4 [12, 4]
-0.07942034 -0.06262204 0.25837904 0.113516666 -0.45807543 0.09468797 0.47111276 -0.03305275
-0.078440994 -0.37188748 -0.20359004 0.3756854 -0.07798557 0.36334658 0.1402448 -0.22132745
-0.39622134 0.3293707 0.3136423 -0.07286043 -0.46971226 0.37536344 0.40286165 0.46686712
0.3592571 0.3222674 0.10914755 0.10396118 0.02993009 0.037547514 -0.4152177 -0.13809165
-0.25283477 0.2577111 -0.37754968 -0.48782974 0.605503 0.17516023 0.30786252 0.26964965
-0.21647562 0.09815744 0.46637315 -0.46495175 -0.015664717 0.40994403 0.47783294 -0.11687
00000000: 22a7 a2bd fc3f 80bd 424a 843e 6d7b e83d
00000010: dd88 eabe c4eb c13d b135 f13e 5262 07bd
00000020: aca5 a0bd 0968 bebe e879 50be d659 c03e
00000030: e6b6 9fbd 9008 ba3e 559c 0f3e aaa3 62be
00000040: 86dd cabe 47a3 a83e b995 a03e d937 95bd
00000050: 207e f0be a32f c03e e243 ce3e 3509 ef3e
00000060: 8cf0 b73e 3c00 a53e c088 df3d 99e9 d43d
00000070: f32f f53c 6ccb 193d 6a97 d4be e667 0dbe
00000080: 8f73 81be b6f2 833e 314e c1be d2c4 f9be
00000090: 3f02 1b3f 345d 333e 28a0 9d3e 850f 8a3e
000000a0: c9ab 5dbe c506 c93d 76c8 ee3e 280e eebe
000000b0: 4b53 80bc 2fe4 d13e 85a6 f43e 8a59 efbd

linear_relu_stack2.0.bias f4 [12]
0.12604098 0.41112307 0.0034111608 -0.20842099 -0.23062715 -0.18545231 0.3947908 0.19402368
0.079894274 -0.30482918 0.2170685 0.056661177
00000000: e310 013e b97e d23e c88d 5f3b 506c 55be
00000010: 8629 6cbe 36e7 3dbe 0522 ca3e 25ae 463e
00000020: 9c9f a33d 9212 9cbe 3447 5e3e 8d15 683d

linear_relu_stack2.2.weight f4 [12, 12]
0.16092785 0.25258765 0.18130392 0.2172952 0.12777954 -0.16052683 -0.033005085 0.064754255
0.08457245 -0.26194346 -0.13191809 0.088179626 0.26386607 0.20941544 0.10697642 0.18375903
-0.15357804 -0.22272569 0.017039478 0.23018026 0.16995358 -0.22933993 0.1048502 -0.109446704
0.14920196 0.20186202 -0.2046358 0.052968167 0.043604214 -0.120742135 -0.044131104 0.2523728
0.117516294 0.23891483 -0.14738484 -0.06659796 0.18242675 0.25374368 -0.26615766 0.07499695
-0.021403706 0.1268641 0.10718089 0.21799833 0.035033386 -0.28195456 -0.23878877 -0.10480524
-0.1244718 -0.011540353 -0.0037082434 0.18075535 -0.1484736 0.099529356 -0.16149844 -0.027587265
-0.24910876 -0.1545544 0.2192285 -0.10637686 -0.24862792 -0.33480042 0.14773418 0.27182826
-0.046157833 -0.027182065 0.33980346 -0.19445503 0.04455056 0.0435559 -0.25531614 -0.063421234
0.18366155 0.12533492 -0.18745016 0.08923922 -0.2706049 -0.26758972 0.13282076 -0.05793145
-0.12417795 0.3042245 -0.23760305 -0.08198642 -0.22858584 -0.20123091 -0.018121094 0.15680477
0.20186824 0.16750121 -0.18122986 -0.24528402 -0.2723657 -0.26301998 0.10449734 -0.13690482
0.09544887 -0.09507997 0.2556936 0.19302785 0.069283105 -0.122906186 0.16393869 -0.27214894
-0.13139398 -0.27016574 -0.04807684 0.26494506 -0.032586653 -0.17877704 -0.1637268 -0.025194772
-0.13195954 0.06768857 0.003093898 0.18107252 0.09149367 0.27002868 0.12598945 0.08097856
0.022211587 0.15518588 0.15673701 -0.26443064 0.22038889 -0.040864788 0.17670636 0.011416242
0.13971949 0.16391642 0.16662729 -0.13040249 0.33023044 0.16850238 -0.17873982 -0.075639226
0.0983458 0.21027829 0.065155566 -0.059188772 -0.08623682 -0.26276606 0.062399518 0.12351704
00000000: 45ca 243e 2b53 813e bca7 393e a282 5e3e
00000010: a4d8 023e 2561 24be 5730 07bd e19d 843d
00000020: 5234 ad3d 741d 86be 8915 07be 8597 b43d
00000030: 7419 873e 0071 563e 7416 db3d 542b 3c3e
00000040: 9043 1dbe 3412 64be 6096 8b3c 60b4 6b3e
00000050: 5008 2e3e 16d8 6abe b4bb d63d 9825 e0bd
00000060: 66c8 183e ebb4 4e3e 0c8c 51be 26f5 583d
00000070: 559a 323d a747 f7bd d1c2 34bd 0237 813e
00000080: 62ac f03d 17a6 743e 0dec 16be 8364 88bd
00000090: 14ce 3a3e b1ea 813e d145 88be 0098 993d
000000a0: d356 afbc aae8 013e a881 db3d f43a 5f3e
000000b0: 2b7f 0f3d 595c 90be 0b85 74be 21a4 d6bd
000000c0: 12eb febd c013 3dbc 0006 73bb ee17 393e
000000d0: 7709 18be 0cd6 cb3d d95f 25be b0fe e1bc
000000e0: 5e16 7fbe 8243 1ebe 707d 603e 1cdc d9bd
000000f0: 5198 7ebe f66a abbe a147 173e 132d 8b3e
00000100: ff0f 3dbd ecac debc b8fa ad3e 381f 47be
00000110: a67a 363d ac67 323d ccb8 82be fee2 81bd
00000120: c611 3c3e cc57 003e eff2 3fbe 0dc3 b63d
00000130: ba8c 8abe 8501 89be 2a02 083e 8749 6dbd
00000140: 0251 febd 50c3 9b3e 374e 73be 7fe8 a7bd
00000150: 6812 6abe 7a0f 4ebe b072 94bc 6e91 203e
00000160: 8cb6 4e3e 7085 2b3e 5294 39be bc2b 7bbe
00000170: 8473 8bbe 8eaa 86be b402 d63d c730 0cbe
00000180: b27a c33d 4ab9 c2bd 46ea 823e 18a9 453e
00000190: 4de4 8d3d 3db6 fbbd 8bdf 273e 1b57 8bbe
000001a0: 258c 06be 2a53 8abe 38ec 44bd e1a6 873e
000001b0: 9579 05bd 5411 37be 00a8 27be 4465 cebc
000001c0: 6720 07be 4ea0 8a3d ffc2 4a3b 136b 393e
000001d0: 0961 bb3d 3341 8a3e 6103 013e 16d8 a53d
000001e0: 13f5 b53c 0ce9 1e3e ab7f 203e 7463 87be
000001f0: a0ad 613e d661 27bd 83f2 343e 310b 3b3c
00000200: a012 0f3e b5d9 273e 58a0 2a3e 3b88 05be
00000210: f713 a93e e38b 2c3e 9207 37be bde8 9abd
00000220: 8669 c93d 3153 573e 4870 853d ed6f 72bd
00000230: ee9c b0bd 4689 86be a396 7f3d 80f6 fc3d

linear_relu_stack2.2.bias f4 [12]
0.2473184 -0.25231984 0.16673242 0.14851432 -0.20990282 0.03633329 -0.052527294 0.21913481
-0.27461064 -0.11949853 -0.11724544 0.10956866
00000000: 0941 7d3e 1130 81be e7bb 2a3e 2314 183e
00000010: c4f0 56be 37d2 143d dc26 57bd e064 603e
00000020: c499 8cbe a5bb f4bd 611e f0bd 8965 e03d

linear_relu_stack2.4.weight f4 [7, 12]
0.26010215 -0.14335254 0.02228047 -0.21526286 0.10702878 -0.27285323 -0.0025903836 -0.0039025545
-0.042355858 -0.063316785 -0.12323808 0.05100493 -0.047088034 0.11247781 -0.020411965 0.22292216
-0.120210916 0.18264465 -0.13488887 0.26957768 -0.09266417 0.22473826 -0.14090508 -0.004192195
0.07951093 -0.22544858 -0.13914472 0.14385164 0.083999276 -0.14623344 -0.12327364 -0.10856736
-0.24991053 0.0059822174 -0.092378385 0.07719679 -0.04496016 0.15098166 -0.266987 0.22861695
-0.2324725 0.10959847 -0.18304105 0.22697347 -0.09929961 -0.050433505 0.21637554 0.1470978
-0.16259524 -0.28312644 0.2500669 -0.1013473 0.18724105 -0.31269273 -0.2793536 0.127105
-0.28352985 -0.12620407 -0.14225397 0.21488695 0.13480361 0.12025827 0.014388495 0.08736937
0.015729755 0.21086094 0.06589288 0.00037941337 -0.061705627 0.08202843 -0.089648336 -0.22497664
0.09966266 -0.1119629 0.082236156 0.20665278 0.27839267 -0.2346952 -0.29999644 0.09361732
0.2322002 -0.29341444 0.24014924 0.3334482
00000000: 1c2c 853e 02cb 12be 8885 b63c de6d 5cbe
00000010: e831 db3d 6bb3 8bbe 6dc3 29bb 00c2 7fbb
00000020: 567d 2dbd 3bac 81bd 3f64 fcbd 8cea 503d
00000030: 62df 40bd c45a e63d fe36 a7bc b545 643e
00000040: 2431 f6bd 3307 3b3e 4f20 0abe 1606 8a3e
00000050: b6c6 bdbd c921 663e 6c49 10be ae5e 89bb
00000060: a0d6 a23d fedb 66be f47b 0ebe d84d 133e
00000070: d007 ac3d 38be 15be e476 fcbd 9058 debd
00000080: 8ce8 7fbe 7a06 c43b e130 bdbd 5a19 9e3d
00000090: 2528 38bd f09a 1a3e 85b2 88be 901a 6a3e
000000a0: 450d 6ebe 2a75 e03d 1d6f 3bbe bc6b 683e
000000b0: 985d cbbd 5d93 4ebd 8d91 5d3e cea0 163e
000000c0: 5e7f 26be f3f5 90be c508 803e 2c8f cfbd
000000d0: 1ebc 3f3e 4319 a0be 6f07 8fbe d027 023e
000000e0: d32a 91be a43b 01be 06ab 11be 530b 5c3e
000000f0: f509 0a3e f849 f63d b9bd 6b3c b6ee b23d
00000100: b0db 803c eeeb 573e d9f2 863d 00ec c639
00000110: 0abf 7cbd 86fe a73d 8c99 b7bd 4760 66be
00000120: f01b cc3d ce4c e5bd 6e6b a83d c99c 533e
00000130: 7c89 8e3e f053 70be 2299 99be 70ba bf3d
00000140: e4c5 6d3e 6b3a 96be afe9 753e b9b9 aa3e

linear_relu_stack2.4.bias f4 [7]
-0.10495973 0.30882162 -0.21990037 0.1987332 0.023700936 -0.2691057 0.20652053
00000000: 20f5 d6bd de1d 9e3e 902d 61be b780 4b3e
00000010: 7728 c23c 39c8 89be 1e7a 533e
