Results/QCNN_demonstration/Real device/Mock/Model3.pt (torch, 3663 bytes, 4 tensors)

layer1.0.weight f4 [1, 1, 3, 3]
00000000: 1ac3 0b3d e974 3e3e 7fe2 25bd 73bf aabe
00000010: 3e17 c23e 0fa5 9c3e c7a6 583d 6d11 a63e
00000020: ddb4 48bd
0.03412161 0.18599285 -0.040499207 -0.3334919 0.37908357 0.3059468 0.052893426 0.3243517
-0.04900061

layer2.0.weight f4 [1, 1, 3, 3]
00000000: 9d73 843e 273f 49be 5887 8dbe 21b1 9d3e
00000010: 2565 463d 5965 98be 6234 b53e a5c1 953e
00000020: bb18 233e
0.25869456 -0.19652997 -0.27642322 0.307992 0.048436303 -0.29764822 0.35391527 0.29249302
0.15927403

fc.weight f4 [7, 49]
00000000: e31b b3bd 111f 09bb dfe6 98bd 5d64 e73d
00000010: 1898 8e3d 10f6 ce3d e9a5 383d 20c5 463d
00000020: ca95 103d b663 d5bd ee6a 573c cf21 2dbd
00000030: ff5d b9bd a1da 103d 8fb2 0f3e f9b0 053c
00000040: dc5c abbb eac6 9c3c 6c35 99bd 154d e73d
00000050: 92d2 7bbd 430b 99bd 1262 993d d070 793d
00000060: 2ec7 b1bb 5155 e4bd c23d 123e 7442 2d3d
00000070: b119 35bd 45e4 ae3b ce7d 3bbd 693b 4d3d
00000080: 75ab 8cbc 04b6 83bc 70c9 ea3d 30ec d63d
00000090: dcc1 df3d 8091 c23b 0865 e1bc f7e0 893d
000000a0: 2f3a efbb dade 76bc 5c96 91bd cfde b8bc
000000b0: 76ec 0abe 27a5 bc3d 61b4 08be 01f0 853d
000000c0: 40e3 093e a66e d2bd 7a94 8b3d 39c0 80bd
000000d0: c2fc c73d 3375 a03d 4653 d73d d6a8 093e
000000e0: 0944 5abd 3514 af3d e31e 0f3e 25f7 a0bc
000000f0: 2680 53bd 4b12 8bbd 128c bf3c 29e6 ac3d
00000100: 21b4 99bd 756a 59bd 40e7 1b3c acf6 1d3d
00000110: 3583 c6bd 89b5 f5bd 5b4e 49bd 2100 8b3d
00000120: c39c a1bb 9f83 883d 98b0 103d f50d 4bbe
00000130: 3e86 e5bc 24a4 803d 7d99 11bd a38a 33be
00000140: cf08 0abc ac99 893c 49fd d0bd aa64 d03d
00000150: 2cec be3d 9134 d73d c13c 7e3d 07e2 843d
00000160: a9f7 3ebd fdf5 05be d8e9 86bd 40cc 80bb
00000170: 832c 41bc da05 b9bd 3655 97bd b6fa 04be
00000180: d618 103e 8274 c7bd a445 34bd 07bf 253b
00000190: 7580 f13d b4da bdbd f3a7 64bd 2f16 3d3d
000001a0: c8ba 8e3d abda e3bd e435 443d 108c 843b
000001b0: 8a5c 41bd c5c3 e73c 0f01 883d acec 89bd
000001c0: e758 9fbc 884a bf3c 3d78 05be 3641 ba3d
000001d0: 8f31 c53c d8ad 1e3d 7d73 5a3d 9312 053e
000001e0: 53ae f1bd eb0a 8dbd 196d e43c 3849 783d
000001f0: e358 163e 832a f73c 1f0d 483c e314 2d3d
00000200: 4819 0d3d a0fb b0bd 5a0b 9ebd 3243 94bd
00000210: ab8a 053d 940a 00be 32ba 8abd ff39 b5bd
00000220: 6ea7 333d b22b 393d 17e8 3ebb 0ab7 a13d
00000230: b099 1bbc 13b6 88bd 3bec b7bd fddb 0bbe
00000240: 5665 0abc e470 1f3d 6b08 96bd 55b4 b13c
00000250: c361 b93d 5eb5 ea3c 4af3 ab3c e43b 923d
00000260: b9f0 38bc c575 e83d 8a64 07be 621b e73d
00000270: d5f1 e5bd 4e13 bebd 4609 cb3d 5d30 053d
00000280: 16e1 b4bc c7b5 e13d b7ed 803d 07ec 49bd
00000290: ac0a a53d 3143 cdbd 5888 a2bd da00 463d
000002a0: 9832 f4bd 806a 9c3c 183c ce3d b109 a0bc
000002b0: 9388 653d 7553 0a3d 8fb8 9a3d 8553 dd3d
000002c0: 58d0 0f3d c157 22bd 020c 283d 212b eabd
000002d0: 71c2 543d dab8 a43d 19f4 18bd b294 e0bd
000002e0: 7abc 23bd 3d96 3e3d b64c 383d 1353 df3b
000002f0: ef45 79bd c05d dcbc d38d 15bd 01d7 d93d
00000300: 26e6 043d d5d1 e33d 4d3b 9bbc aa62 b4bd
00000310: 94bd dc3c 6138 1b3d 3758 9d3d 3237 2b3d
00000320: 8d4e b93d cab0 82bd bf14 dd3d 0493 06be
00000330: 31c1 f5bd 1cff 55bd ab91 7d3d d96d 5f3d
00000340: a52b 183e 3fbe 733c bb43 b43d 7d3e a6bd
00000350: 5393 ef3d b369 b13c 54f3 9abb e062 613d
00000360: 13db 113e 9e30 f5bd 1409 a1bd 0052 a43d
00000370: f3a7 f43b 9b7e 233d ed71 153d 2ca8 a33d
00000380: ee1e f93d 04d4 b2bd 3f72 3a3e 3bc8 95bd
00000390: e917 07be 8e6a 933b 1a58 d43d 3f1f fa3d
000003a0: 60af ea3d 7dc5 1e3c 6182 ea3c 2273 833d
000003b0: 5bc3 993d 8119 c73d 3809 8e3d 7cb0 9fbd
000003c0: 5aa2 afbc d126 2fbc 31e9 003e 299c dfbc
000003d0: 723e 133d f91b 48bd 4921 3cbd 3a09 ebbd
000003e0: b40c 0c3c c310 c43d a105 38bc 9012 a4bd
000003f0: d8a1 0b3e e8db febc 12c5 f03d 13fa a93d
-0.08745553 -0.0020923058 -0.0746591 0.1129844 0.06962603 0.101055264 0.0450801 0.048527837
0.0352991 -0.10419409 0.013148053 -0.04226857 -0.090511315 0.03536475 0.14032958 0.008159869
-0.0052295756 0.019137818 -0.074808925 0.11293999 -0.061480112 -0.07472851 0.074894086 0.060898602
-0.0054253554 -0.11149085 0.14281371 0.042299703 -0.044213954 0.0053372704 -0.045774274 0.050105486
-0.0171716 -0.016078003 0.114642024 0.10494268 0.109256476 0.005937755 -0.027513996 0.06732362
-0.007300637 -0.01506778 -0.07108757 -0.02256718 -0.13566765 0.09211188 -0.13350059 0.06539918
0.13465595 -0.10275011 0.06815429 -0.062866636 0.097650066 0.07834854 0.1051393 0.13443312
-0.05328754 0.08548776 0.13976626 -0.019649098 -0.051635884 -0.067905985 0.02338222 0.08442337
-0.0750506 -0.05308004 0.0095155835 0.038565323 -0.096929945 -0.11997516 -0.04914699 0.06787134
-0.0049320175 0.0666573 0.035324663 -0.19829543 -0.028018113 0.06281307 -0.03554677 -0.17533354
-0.008424952 0.01679691 -0.1020456 0.1017545 0.0932239 0.10508073 0.06206966 0.06488424
-0.046622906 -0.13082118 -0.06587571 -0.0039305985 -0.011790398 -0.09034319 -0.073892996 -0.12986264
0.14071974 -0.09739019 -0.044011727 0.0025290863 0.11792079 -0.0927023 -0.05582423 0.046163734
0.069692194 -0.11125692 0.047902957 0.004045017 -0.047207393 0.028291592 0.06640827 -0.06734595
-0.019451572 0.023350969 -0.13034149 0.09094469 0.024071483 0.03874001 0.053332794 0.12995367
-0.11800828 -0.06886848 0.027884053 0.0606167 0.14682345 0.030171638 0.01221016 0.042256247
0.03444794 -0.08641744 -0.07717009 -0.07239379 0.032602947 -0.12504035 -0.06773795 -0.088489525
0.043860845 0.045207687 -0.0029130036 0.0789624 -0.009497091 -0.06675353 -0.08980604 -0.13658138
-0.008447012 0.03892602 -0.07325824 0.021692434 0.0905185 0.028650936 0.020990033 0.071403295
-0.0112878615 0.11350588 -0.13221946 0.1128452 -0.112277664 -0.09281026 0.09913878 0.032516826
-0.022079986 0.110209994 0.062953405 -0.04929736 0.08058676 -0.10022581 -0.07936162 0.048340656
-0.119237125 0.019093752 0.10070056 -0.019535871 0.05603845 0.033770997 0.07554733 0.10806946
0.0351108 -0.03963447 0.041027077 -0.114340074 0.051943246 0.0804307 -0.037342165 -0.109658614
-0.039974667 0.046529997 0.044995032 0.006815323 -0.06085771 -0.026900172 -0.036512207 0.10636712
0.03244605 0.11124007 -0.018949175 -0.08807881 0.026945867 0.037895564 0.07682841 0.041800685
0.090481855 -0.06381376 0.10794973 -0.1314202 -0.11999739 -0.052245244 0.061906498 0.05454812
0.14860399 0.014876901 0.08801981 -0.081173874 0.11698022 0.021656847 -0.004728714 0.055025935
0.14243726 -0.119721636 -0.0786306 0.08023453 0.00746631 0.039915662 0.0364856 0.079910606
0.121641025 -0.08731845 0.18207644 -0.073135816 -0.13192715 0.0044987863 0.103683665 0.12212991
0.114592314 0.00969064 0.028626623 0.06418444 0.07507964 0.09721661 0.06935352 -0.077973336
-0.02143972 -0.010690407 0.12588955 -0.027296143 0.035948224 -0.0488548 -0.04593018 -0.11476369
0.008547951 0.095735095 -0.011231811 -0.08011353 0.13635957 -0.031110719 0.11756338 0.08299651

fc.bias f4 [7]
00000000: 14f3 02be 67a5 8c3c 141b debd 0d3e d9bd
00000010: f281 2bbd cb1a a53d d0a8 d63c
-0.1278804 0.017168714 -0.108450085 -0.10607538 -0.041871972 0.08061751 0.026203543
