Other Experiments/Noisy_Fashion/NQE0.pt (torch, 3647 bytes, 4 tensors)

layer1.0.weight f4 [1, 1, 3, 3]
0	0xbe31b31a	-0.17353478
1	0x3e28073d	0.16409011
2	0x3e7e4efe	0.2483482
3	0x3d0a8ffd	0.033828724
4	0x3e851d66	0.25998992
5	0x3e3cb4ef	0.18428396
6	0xbe945f43	-0.2897893
7	0x3d239af3	0.039942693
8	0xbb1e3183	-0.0024138398

layer2.0.weight f4 [1, 1, 3, 3]
0	0x3ea3ec03	0.32016
1	0x3e114a7f	0.14188574
2	0xbe12ca8d	-0.1433508
3	0xbe7d8b4d	-0.2476017
4	0x3e1c5bb4	0.15269357
5	0xbdf4e3e5	-0.1195753
6	0xbe879ca5	-0.26486698
7	0xbe11b0e9	-0.14227642
8	0x3e88c328	0.26711392

fc.weight f4 [7, 49]
0	0x3dfe9448	0.12430626
1	0xbd0d3d44	-0.034482256
2	0xbd5e756f	-0.054311212
3	0xbdd2d94d	-0.10295353
4	0x3bd7f9d5	0.0065910616
5	0xbd3643fc	-0.04449843
6	0xbdf8783a	-0.121323064
7	0x3d098df7	0.033582654
8	0xbdedfad2	-0.11620106
9	0xbd389a68	-0.04506913
10	0xbdfccf69	-0.12344248
11	0xbd6f4d9b	-0.05842362
12	0x3bc22f9d	0.005926086
13	0x3e096787	0.13418399
14	0xbd624487	-0.055241134
15	0xbdf3470b	-0.11878785
16	0x3b8f3a21	0.004370943
17	0xbda52e66	-0.080654904
18	0xbd291d6f	-0.041287836
19	0xbd8b6353	-0.06806054
20	0x3d92b64b	0.07163676
21	0xbdeb93b6	-0.11502783
22	0xbdd2269f	-0.10261273
23	0xbe01f33d	-0.12690444
24	0x3d802d7e	0.06258677
25	0x3b1acaeb	0.0023619484
26	0x3d3c6961	0.045998935
27	0x3d0b57ce	0.034019284
28	0x3d58b166	0.052903555
29	0xbd9a6a99	-0.07539863
30	0x3dd25b67	0.1027134
31	0xbca84420	-0.020540297
32	0xbd8b1c16	-0.06792466
33	0xbddc9859	-0.107712455
34	0x3dfa217a	0.122134164
35	0x3df9f71f	0.12205338
36	0xbd1b3379	-0.037890885
37	0x3d37f8cf	0.044915017
38	0x3d95ab3f	0.07308053
39	0xbb139226	-0.0022517531
40	0x3db66923	0.08906772
41	0x3cab0b0f	0.020879297
42	0x3b590d51	0.003311951
43	0xbe0bc4c3	-0.13649277
44	0xbe0b558c	-0.13606852
45	0x3d907b34	0.07054749
46	0xbaa050bb	-0.0012231091
47	0xbd9fbd2f	-0.07799756
48	0x3cebe7b4	0.028797008
49	0x3d8a0408	0.0673905
50	0xbdc50609	-0.09620292
51	0x3dc30269	0.09521944
52	0xbdba17d8	-0.09086579
53	0x3e01da43	0.12680916
54	0xbd874a53	-0.06605973
55	0xbd9e0410	-0.077156186
56	0xba25fe25	-0.0006332121
57	0x3dad82b2	0.08472194
58	0x3df65522	0.120279565
59	0x3db08266	0.086186215
60	0x3d47ab8d	0.048747588
61	0x3db0981d	0.08622763
62	0x3e0fd792	0.14047077
63	0xbdc93eaf	-0.09826409
64	0xbdd8093c	-0.10548636
65	0x3cbdc8c5	0.023167023
66	0x3ca4e250	0.020127445
67	0xbd9cfa5a	-0.07664938
68	0x3c807483	0.015680557
69	0x3d85619e	0.065127596
70	0xbe080876	-0.13284478
71	0xbca91bcf	-0.020643143
72	0xbdcb99a9	-0.09941418
73	0xbe00bcd8	-0.12572038
74	0x3c169cc3	0.009192648
75	0x3cdd914d	0.027046824
76	0xbc9a16d0	-0.018809706
77	0xbdb70f97	-0.089385204
78	0xbdb98cec	-0.09060082
79	0xbdf704f3	-0.12061491
80	0x3e0c6e1a	0.13713875
81	0x3db71b05	0.089407004
82	0x3b4acf9c	0.0030946499
83	0x3dd888be	0.105729565
84	0xbe0decc9	-0.13859858
85	0x3d7df280	0.061998844
86	0x3e06591c	0.1311993
87	0x3e023e4b	0.12719075
88	0xbbe4df4f	-0.0069846283
89	0xbd07c5ca	-0.03314761
90	0x3d5d32b0	0.054003417
91	0xbd74fbd8	-0.05981049
92	0xbc036bf2	-0.008021342
93	0xbda2cfc7	-0.07949787
94	0xbcf4ecd9	-0.029898094
95	0xbbf402b5	-0.0074466118
96	0xbd82d45b	-0.0638816
97	0x3d7552bb	0.05989335
98	0xbd1567c6	-0.03647592
99	0xbd945620	-0.072429895
100	0x3d2d3164	0.04228343
101	0xbe0e5243	-0.13898568
102	0x3e0c7674	0.13717061
103	0xbcca6fdc	-0.024711542
104	0xbe097072	-0.134218
105	0x3caa3fb7	0.020782335
106	0xbd795dbe	-0.060880415
107	0xbb0a26f4	-0.0021080347
108	0xbdb7a250	-0.089665055
109	0xbdfb2f87	-0.122649245
110	0x3d2fce67	0.04292145
111	0x3d1f2ddc	0.038862094
112	0xbde82c6f	-0.113366
113	0xbd730f73	-0.059340905
114	0x3d625807	0.05525973
115	0xbddfcd46	-0.10927825
116	0x3e09975d	0.13436647
117	0xbe090939	-0.13382424
118	0xbddc11d3	-0.10745587
119	0xbe0dd81b	-0.13851969
120	0x3d1e4f94	0.03865011
121	0x3d52a139	0.051423285
122	0xbe0d8130	-0.13818812
123	0x3d7a898d	0.061166335
124	0xbd984259	-0.0743453
125	0xbdb91037	-0.09036296
126	0x3dca28aa	0.09871037
127	0xbd326555	-0.04355367
128	0x3d8ad57f	0.067790024
129	0x3de2bf9e	0.11071704
130	0xbdd877e5	-0.10569743
131	0xbdcf2321	-0.10114122
132	0xbda0db9a	-0.07854386
133	0xbe0dfb2f	-0.1386535
134	0x3d07dd40	0.033169985
135	0xbd107b08	-0.03527358
136	0x3c3e4944	0.011614148
137	0xbe0eec4a	-0.13957325
138	0xbde4661e	-0.1115229
139	0xbd8eb99e	-0.069689974
140	0x3cf5f5cd	0.030024434
141	0x3db6fc23	0.0893481
142	0xbd7bbda5	-0.061460156
143	0x3dc2ed67	0.09517937
144	0xbd06e833	-0.032936286
145	0xbd9f448e	-0.07776748
146	0x3e0955c3	0.13411622
147	0x3cb75ac1	0.022382142
148	0x3d7a1301	0.06105328
149	0xbdf96403	-0.12177279
150	0x3d950ba6	0.072776124
151	0x3da050c8	0.07827908
152	0xbdd3442a	-0.10315736
153	0x3de5c773	0.112196825
154	0xbc0683e2	-0.008210154
155	0x3d9e3753	0.07725396
156	0x3dfce7bf	0.123488896
157	0xbc318c0a	-0.010836611
158	0xbdd89d85	-0.105769195
159	0x3de6d3d8	0.11270875
160	0xbdfa8acc	-0.12233505
161	0xbda6071e	-0.08106826
162	0x3de222f4	0.11041823
163	0xbcaf1dc1	-0.021376492
164	0x3c9b0fc8	0.018928424
165	0xbd6524b8	-0.05594322
166	0x3d921524	0.071329385
167	0x3df4855f	0.11939501
168	0xbb568613	-0.0032733723
169	0x3cca3404	0.024683006
170	0xbdb7c624	-0.08973339
171	0x3d8bc0da	0.06823893
172	0x3dba5d48	0.09099823
173	0x3e10175e	0.14071414
174	0xbd8674b9	-0.06565232
175	0xbd56fae8	-0.052485377
176	0x3dae2ae5	0.08504275
177	0x3d310aed	0.04322331
178	0x3e0336d3	0.12813883
179	0x3da2832c	0.07935175
180	0x3da9969e	0.08280681
181	0xbd5f0938	-0.05445215
182	0xbd92ec66	-0.07173996
183	0xbd820be4	-0.06349924
184	0xbdebfc52	-0.11522736
185	0x3e02e688	0.12783253
186	0x3d48af29	0.04899517
187	0xbe017a3e	-0.12644288
188	0x3b9562cf	0.004558898
189	0x3cbe8d3f	0.02326071
190	0x3df1c221	0.11804605
191	0xbdc56f1d	-0.09640334
192	0x3e1056a1	0.14095546
193	0x3c959c40	0.018262982
194	0x3dbf71e0	0.09347892
195	0x3d40202d	0.046905685
196	0xbd1c85ff	-0.038213726
197	0xbde90121	-0.113771684
198	0x3dbee3f5	0.09320823
199	0x3d741c11	0.05959708
200	0xbddf699c	-0.10908815
201	0xbd6b706e	-0.05748027
202	0xbd4b0eb7	-0.04957458
203	0x3cd07e13	0.025450742
204	0x3ca4b0b0	0.020103782
205	0xbc25da94	-0.010122914
206	0x3d3e9e6d	0.046537805
207	0x3d2e4385	0.04254486
208	0xbc910bf1	-0.01770589
209	0xbd94358c	-0.07236776
210	0xbdc35985	-0.09538559
211	0x3be1d6cd	0.0068920613
212	0x3daee4c6	0.08539729
213	0xbd0ea080	-0.034821033
214	0x3cdc18af	0.026867239
215	0x3dc71aeb	0.09721931
216	0x3dfa1787	0.12211519
217	0xbbe6c5f1	-0.0070426394
218	0xbbd9ee40	-0.006650716
219	0x3d95b5e3	0.07310083
220	0x3e1167d7	0.14199768
221	0x3d8d9f77	0.06915181
222	0x3db8e5fa	0.090282395
223	0x3e0f3021	0.13983203
224	0xbcb25bcc	-0.021772288
225	0x3d5ea8de	0.054360263
226	0xbc634793	-0.013872045
227	0x3dbc8c31	0.09206427
228	0xbb820073	-0.0039673387
229	0x3dc8a304	0.09796718
230	0xbd8d29f3	-0.06892767
231	0xbdae09a5	-0.08497933
232	0xbdddfdeb	-0.10839447
233	0xbd69b6cf	-0.057059105
234	0x3dadd67c	0.08488175
235	0x3caede43	0.021346217
236	0x3d837465	0.06418685
237	0x3dfa7c18	0.122307
238	0x3d4113af	0.047137912
239	0x3dc0db59	0.09416837
240	0xbd04b174	-0.032395795
241	0xbe052d5f	-0.13005589
242	0xbdec373d	-0.11533973
243	0xbd683589	-0.05669168
244	0xbb9a6507	-0.0047117504
245	0x3d8b96e4	0.068158895
246	0xbdfc1799	-0.123091884
247	0x3e0cbca4	0.13743836
248	0x3d9c44e1	0.07630325
249	0xbcb61f15	-0.022231618
250	0x3da1deec	0.07903847
251	0xbc87ec80	-0.016592264
252	0x3d2c30fc	0.042038903
253	0xbda5c2a9	-0.08093769
254	0xbd79f0ce	-0.061020665
255	0xbe11f0cc	-0.14252013

fc.bias f4 [7]
0	0xbd55209f	-0.052033063
1	0xbddff8af	-0.109361045
2	0x3d178039	0.036987517
3	0xbc8537ac	-0.016261898
4	0x3d56d32f	0.052447494
5	0x3d850266	0.06494598
6	0xbd76a818	-0.0602189
