Results/QCNN_demonstration/Real device/Real/Model2 pre-train/Model2_21.pt (torch, 3559 bytes, 6 tensors)

linear_relu_stack2.0.weight f4 [12, 4]
0	0xbd4cb2fa	-0.049975373
1	0xbd45d0d0	-0.048294842
2	0x3e84a63a	0.2590807
3	0x3db8784a	0.09007318
4	0xbee3e948	-0.44513917
5	0x3dda6683	0.10664084
6	0x3eedad63	0.46421346
7	0xbd88ea59	-0.06685323
8	0xbdae6306	-0.08514981
9	0xbeba2928	-0.36359525
10	0xbe4b3633	-0.19844894
11	0x3ec9218f	0.39283416
12	0xbd9e239f	-0.07721638
13	0x3eb928a3	0.36163816
14	0x3e0c43c7	0.1369773
15	0xbe6366d8	-0.222072
16	0xbec6891d	-0.38776484
17	0x3eb26a5f	0.3484678
18	0x3e9efe75	0.3105351
19	0xbdc54cc3	-0.09633782
20	0xbeed3613	-0.46330318
21	0x3ed3476c	0.41265428
22	0x3ec465b2	0.38358837
23	0x3ee9eded	0.45689335
24	0x3eb51473	0.35367164
25	0x3eacaaa7	0.33723947
26	0x3df137b1	0.117782004
27	0x3dc7249c	0.097237796
28	0x3cf1242c	0.029436193
29	0x3d248b61	0.040171985
30	0xbed46c33	-0.414888
31	0xbe0ab00b	-0.13543718
32	0xbe81f002	-0.25378424
33	0x3e8324a3	0.2561389
34	0xbec15d07	-0.37766287
35	0xbef9e06c	-0.48804033
36	0x3f181369	0.5940462
37	0x3e00ef25	0.12591226
38	0x3eab6803	0.33477792
39	0x3e98934b	0.29799876
40	0xbe5cb608	-0.21553814
41	0x3dc109ab	0.09425672
42	0x3eef146e	0.46695274
43	0xbeef5328	-0.4674313
44	0xbc972484	-0.01845003
45	0x3ed6cfbc	0.41955364
46	0x3eef2bf0	0.4671321
47	0xbe06a755	-0.1314977

linear_relu_stack2.0.bias f4 [12]
0	0x3e044f02	0.12920764
1	0x3ed10cb2	0.40829998
2	0x3c02d027	0.007984198
3	0xbe568c97	-0.20952068
4	0xbe6cb753	-0.23116808
5	0xbe3ba63c	-0.18325132
6	0x3ec86757	0.39141342
7	0x3e484c92	0.1956046
8	0x3da299de	0.07939504
9	0xbe9e14ab	-0.30875143
10	0x3e5ddfdb	0.21667425
11	0x3d5e60d4	0.05429156

linear_relu_stack2.2.weight f4 [12, 12]
0	0x3e1ffeae	0.15624496
1	0x3e7fb1b6	0.24970135
2	0x3e384680	0.17995644
3	0x3e626b54	0.22111255
4	0x3e0542f6	0.13013825
5	0xbe2daa1d	-0.16959424
6	0xbd14e5cd	-0.036351968
7	0x3d8494d0	0.06473696
8	0x3dad9e00	0.08477402
9	0xbe8a4678	-0.27006888
10	0xbe01c309	-0.12672056
11	0x3db48e1a	0.08816166
12	0x3e871974	0.26386607
13	0x3e567100	0.20941544
14	0x3ddb1674	0.10697642
15	0x3e3c2b54	0.18375903
16	0xbe1d4390	-0.15357804
17	0xbe641234	-0.22272569
18	0x3c8b9660	0.017039478
19	0x3e6bb460	0.23018026
20	0x3e2e0850	0.16995358
21	0xbe6ad816	-0.22933993
22	0x3dd6bbb4	0.1048502
23	0xbde02598	-0.109446704
24	0x3e1c884c	0.15286368
25	0x3e492c61	0.19645835
26	0xbe50d874	-0.2039507
27	0x3d37d9b1	0.04488534
28	0x3d1883f8	0.03723523
29	0xbe0f4dfd	-0.13994594
30	0xbd5e6940	-0.054299593
31	0x3e80653c	0.25077236
32	0x3df03faa	0.11730893
33	0x3e7ab3f1	0.24482705
34	0xbe150a54	-0.14554721
35	0xbda06700	-0.07832146
36	0x3e3265de	0.17421672
37	0x3e7e3b47	0.248273
38	0xbe8bdc03	-0.27316293
39	0x3dadec9a	0.08492394
40	0xbc649b8c	-0.013953101
41	0x3dffacdc	0.12484142
42	0x3df4ee71	0.119595416
43	0x3e60be7f	0.21947668
44	0x3d13cbeb	0.036083143
45	0xbe901f62	-0.28148943
46	0xbe729e3d	-0.23693176
47	0xbdbfc61c	-0.09363958
48	0xbdfeeb12	-0.1244718
49	0xbc3d13c0	-0.011540353
50	0xbb730600	-0.0037082434
51	0x3e3917ee	0.18075535
52	0xbe180977	-0.1484736
53	0x3dcbd60c	0.099529356
54	0xbe255fd9	-0.16149844
55	0xbce1feb0	-0.027587265
56	0xbe7f165e	-0.24910876
57	0xbe1e4382	-0.1545544
58	0x3e607d70	0.2192285
59	0xbdd9dc1c	-0.10637686
60	0xbe7befe9	-0.24603237
61	0xbea43a35	-0.32075658
62	0x3e12a620	0.14321184
63	0x3e8d4dbd	0.27598372
64	0xbd2661c6	-0.040620588
65	0xbc81f498	-0.015863702
66	0x3ea56729	0.32305267
67	0xbe468faf	-0.19390748
68	0x3d3651de	0.04451167
69	0x3cbc21ed	0.022965396
70	0xbe833976	-0.25629777
71	0xbd5c926e	-0.053850584
72	0x3e4d291e	0.20035216
73	0x3e0d2792	0.13784626
74	0xbe3c793c	-0.18405622
75	0x3daf1c9b	0.08550378
76	0xbe8af41f	-0.27139375
77	0xbe8b3e7b	-0.27196106
78	0x3dff5a6a	0.12468417
79	0xbd75ab8b	-0.05997805
80	0xbdfe6b46	-0.124228045
81	0x3ea40f18	0.32042766
82	0xbe70d85d	-0.23520036
83	0xbda1aac3	-0.07893898
84	0xbe6a1268	-0.22858584
85	0xbe4e0f7a	-0.20123091
86	0xbc9472b0	-0.018121094
87	0x3e20916e	0.15680477
88	0x3e4eb68c	0.20186824
89	0x3e2b8570	0.16750121
90	0xbe399452	-0.18122986
91	0xbe7b2bbc	-0.24528402
92	0xbe8b7384	-0.2723657
93	0xbe86aa8e	-0.26301998
94	0x3dd602b4	0.10449734
95	0xbe0c30c7	-0.13690482
96	0x3dc59f40	0.09649515
97	0xbdbe5538	-0.09293598
98	0x3e82ea46	0.2556936
99	0x3e464d13	0.19365339
100	0x3d90d273	0.0707139
101	0xbdf85ead	-0.12127433
102	0x3e2864a8	0.16444647
103	0xbe8b99b2	-0.27265698
104	0xbe06bf51	-0.13158919
105	0xbe899a62	-0.26875597
106	0xbd3c9555	-0.04604085
107	0x3e88d38a	0.26723891
108	0xbd1c052b	-0.038090866
109	0xbe3cdac0	-0.18442822
110	0xbe28cafc	-0.16483682
111	0xbcedbde2	-0.029021207
112	0xbe0fb08d	-0.14032193
113	0x3d7ae3fa	0.06125257
114	0xbcbfeded	-0.023428882
115	0x3e394b1d	0.1809506
116	0x3dba1803	0.09086611
117	0x3e74fd86	0.23924837
118	0x3de8f128	0.11374122
119	0x3d8bdc30	0.06829107
120	0x3cc6a248	0.024247304
121	0x3e20db33	0.15708618
122	0x3e1e0cf9	0.15434636
123	0xbe844f3a	-0.25841695
124	0x3e698a1a	0.22806588
125	0xbd428229	-0.04748741
126	0x3e4bb0ce	0.19891664
127	0x3c3b286a	0.01142321
128	0x3e0f3157	0.13983665
129	0x3e425873	0.18979053
130	0x3e38c0b3	0.18042259
131	0xbdede0cd	-0.11615143
132	0x3ea049f3	0.3130642
133	0x3e1ed6e9	0.15511669
134	0xbe4777d9	-0.19479312
135	0xbd5c096e	-0.05371993
136	0x3de626bc	0.11237857
137	0x3e394c42	0.18095496
138	0x3db18531	0.08667982
139	0xbd688116	-0.05676373
140	0xbdae79e9	-0.08519346
141	0xbe854a62	-0.26033312
142	0x3dab93dd	0.08377812
143	0x3e18335f	0.14863347

linear_relu_stack2.2.bias f4 [12]
0	0x3e7ab92b	0.24484698
1	0xbe813011	-0.25231984
2	0x3e26ff36	0.16308293
3	0x3e17fdc9	0.14842905
4	0xbe56f0c4	-0.20990282
5	0x3cb3097c	0.021855108
6	0xbd6c6f5d	-0.05772339
7	0x3e6064e0	0.21913481
8	0xbe8c738d	-0.27431908
9	0xbe0a651e	-0.13515136
10	0xbdde614e	-0.10858403
11	0x3ddbb05e	0.10726999

linear_relu_stack2.4.weight f4 [7, 12]
0	0x3e8726a8	0.2639668
1	0xbe12cb02	-0.14335254
2	0x3c944edf	0.018104015
3	0xbe604c68	-0.21904147
4	0x3ddb31e8	0.10702878
5	0xbe889de4	-0.2668296
6	0xbab4638c	-0.0013762577
7	0xbb7fc200	-0.0039025545
8	0xbd2bd727	-0.041953232
9	0xbd81dc41	-0.06340838
10	0xbe032e58	-0.12810647
11	0x3d3c41c2	0.04596115
12	0xbd51ace1	-0.05119026
13	0x3de65ac4	0.11247781
14	0xbd39bcaf	-0.04534596
15	0x3e664253	0.22486238
16	0xbdf63124	-0.120210916
17	0x3e34d4b6	0.17659268
18	0xbe278c06	-0.16362008
19	0x3e8a0616	0.26957768
20	0xbdbccca2	-0.09218718
21	0x3e5ad256	0.213693
22	0xbe2f7512	-0.17134503
23	0xbc3c25f4	-0.011483658
24	0x3da7b42c	0.08188662
25	0xbe66dbfe	-0.22544858
26	0xbe1d57e3	-0.15365557
27	0x3e1352aa	0.14387003
28	0x3dac07d0	0.083999276
29	0xbe125b71	-0.14292695
30	0xbe137366	-0.1439949
31	0xbdde5890	-0.10856736
32	0xbe7f06c6	-0.24904928
33	0xba532487	-0.0008054454
34	0xbdd961bd	-0.10614345
35	0x3da660f1	0.08123959
36	0xbd28d975	-0.04122301
37	0x3e1a9af0	0.15098166
38	0xbe8cb902	-0.274849
39	0x3e6c764d	0.23092003
40	0xbe6e0d45	-0.2324725
41	0x3df8cd41	0.12148524
42	0xbe47ad1f	-0.19499634
43	0x3e686bbc	0.22697347
44	0xbdc8afcb	-0.09799155
45	0xbd53cf34	-0.051711276
46	0x3e58ffe0	0.21191359
47	0x3e228eb1	0.15874745
48	0xbe2705c3	-0.16310792
49	0xbe90f5f3	-0.28312644
50	0x3e767782	0.24069026
51	0xbde1d8b9	-0.11027665
52	0x3e3fbc1e	0.18724105
53	0xbe9f62e6	-0.3113014
54	0xbe957c69	-0.2919648
55	0x3e0227d0	0.127105
56	0xbe914ed7	-0.28380463
57	0xbe04da66	-0.12973937
58	0xbe1b8aaf	-0.15189622
59	0x3e52d6db	0.20589773
60	0x3e0861d2	0.13318565
61	0x3df649f8	0.12025827
62	0x3c1800bc	0.009277519
63	0x3dbcb423	0.09214046
64	0x3c80dbb0	0.015729755
65	0x3e499538	0.19685829
66	0x3d651ba7	0.055934574
67	0x39c6ec00	0.00037941337
68	0xbd7dfa14	-0.06200607
69	0x3d9b2aaf	0.075765006
70	0xbdc782c4	-0.097417384
71	0xbe6507a2	-0.22366193
72	0x3ddca0f2	0.107728854
73	0xbde54cce	-0.1119629
74	0x3daa350d	0.083109
75	0x3e4132b3	0.18866996
76	0x3e8e897c	0.27839267
77	0xbe50728a	-0.20356193
78	0xbe944eaf	-0.2896628
79	0x3dbfba70	0.09361732
80	0x3e70380d	0.23458882
81	0xbe9124da	-0.28348428
82	0x3e7a03f7	0.24415575
83	0x3ea44c3d	0.32089415

linear_relu_stack2.4.bias f4 [7]
0	0xbdd8407a	-0.10559173
1	0x3e918ec0	0.28429222
2	0xbe672696	-0.22573313
3	0x3e50c790	0.20388627
4	0x3c010966	0.007875776
5	0xbe8dc947	-0.27692625
6	0x3e537a1e	0.20652053
