Results/QCNN_demonstration/Real device/Real/Model2 pre-train/Model2_19.pt (torch, 3559 bytes, 6 tensors)

linear_relu_stack2.0.weight f4 [12, 4]
00000000: 76f2 4ebd b23f 21bd e127 853e c382 c53d
00000010: 96d5 e3be 6bb2 ec3d 60b8 ed3e 98ae 78bd
00000020: 2403 b0bd ae7d babe 4b4f 4bbe 5a83 c83e
00000030: 2fd5 90bd 0613 bb3e 38d4 103e faf9 64be
00000040: c703 c8be 4f10 b23e c6f9 9c3e 9dda c1bd
00000050: 210c efbe f1ee d23e 3c04 c33e bacd eb3e
00000060: 922a b83e 2431 b03e dc65 fa3d 7055 cb3d
00000070: 938c ef3c ec00 293d 5d6d d4be 5182 0abe
00000080: 1810 82be 68a4 823e 075d c1be 81f6 f9be
00000090: c276 1a3f 2cb1 003e 0abd ad3e 874e 973e
000000a0: 0b05 61be e169 b73d c546 ec3e 1a58 efbe
000000b0: 2e8e a9bc 65a7 d63e 3bab ee3e d4ab 06be
-0.050524198 -0.039367385 0.26006988 0.096440814 -0.4449889 0.11557468 0.4642973 -0.06071338
-0.08594349 -0.3642401 -0.19854467 0.39162713 -0.070719115 0.3653795 0.14143455 -0.22360983
-0.39065382 0.34778067 0.30659312 -0.09465525 -0.4668894 0.41197923 0.38089168 0.46055394
0.3596998 0.3441249 0.122264594 0.09928405 0.029241836 0.041260645 -0.41489688 -0.13526274
-0.25402904 0.25516057 -0.37766287 -0.4882088 0.6033746 0.12567586 0.33933288 0.295521
-0.2197458 0.08955742 0.46147743 -0.46746904 -0.02069768 0.41924587 0.46615013 -0.13151485

linear_relu_stack2.0.bias f4 [12]
00000000: 695b 073e e199 d23e 03cc f43b d5e3 54be
00000010: 1d14 6dbe c7c2 3bbe 229f c93e aba3 483e
00000020: 9af6 a13d 94b1 9dbe 7734 5c3e 1765 5d3d
0.13218464 0.41133025 0.007470609 -0.20790036 -0.23152204 -0.1833602 0.3937922 0.19593684
0.07908364 -0.30799544 0.21504389 0.054051485

linear_relu_stack2.2.weight f4 [12, 12]
00000000: 28ce 1f3e 86ec 7f3e c13b 383e 547f 633e
00000010: 9b4c 053e 3516 30be 211a 11bd 1f11 853d
00000020: 735a ae3d f835 8abe 27f9 febd 8c4c b73d
00000030: 7419 873e 0071 563e 7416 db3d 542b 3c3e
00000040: 9043 1dbe 3412 64be 6096 8b3c 60b4 6b3e
00000050: 5008 2e3e 16d8 6abe b4bb d63d 9825 e0bd
00000060: a22e 1c3e 6d50 483e 4b25 51be 4239 383d
00000070: 3fc5 173d 55d0 0fbe bdc4 5bbd ae6b 803e
00000080: 60de ef3d 0e77 7b3e 8816 16be 39fc a0bd
00000090: 132f 343e c502 813e 28d2 8bbe de0b b33d
000000a0: 5c17 30bc 8eb4 083e 92b8 023e bf49 613e
000000b0: d126 163d c158 8dbe 0535 72be c18f b2bd
000000c0: 12eb febd c013 3dbc 0006 73bb ee17 393e
000000d0: 7709 18be 0cd6 cb3d d95f 25be b0fe e1bc
000000e0: 5e16 7fbe 8243 1ebe 707d 603e 1cdc d9bd
000000f0: 6b44 7bbe 312c a4be f60c 123e 152f 8e3e
00000100: 96cc 26bd 596b a6bc 27d2 a73e 06ca 46be
00000110: 95c8 313d cd01 f53c e6d9 81be 0c03 4dbd
00000120: 1ad4 503e b12d 123e 5543 3cbe f57f bb3d
00000130: 8f07 89be a2b8 88be 1baa 143e e799 72bd
00000140: 466b febd a4fe ad3e 4852 6bbe 90a1 83bd
00000150: 6812 6abe 7a0f 4ebe b072 94bc 6e91 203e
00000160: 8cb6 4e3e 7085 2b3e 5294 39be bc2b 7bbe
00000170: 8473 8bbe 8eaa 86be b402 d63d c730 0cbe
00000180: 8619 c73d fdb8 bbbd 46ea 823e 2702 473e
00000190: 4590 923d 0821 f6bd d0ad 293e e0b2 8bbe
000001a0: a90b 07be 37d3 88be 3117 37bd 04c6 893e
000001b0: ef23 1abd ea9a 3cbe 5c86 28be 90bb e5bc
000001c0: 041a 10be daf2 6e3d 15a2 a9bc 8811 393e
000001d0: d9a7 b83d 3cfa 783e 2a54 ee3d 0c85 903d
000001e0: 6770 c93c 9a77 213e 5fed 1d3e c35a 84be
000001f0: fd40 6a3e 44ba 36bd 0ad1 4c3e d075 3d3c
00000200: cf67 0f3e 80dd 423e 9173 373e 0dfa ecbd
00000210: bf68 a03e eac8 213e fa78 47be 33e5 54bd
00000220: ebdd ec3d 876b 443e c911 bc3d ec14 63bd
00000230: 02a5 abbd cf9d 85be 039f a53d a62e 1b3e
0.15605986 0.2499257 0.17991544 0.2221654 0.13017504 -0.17195971 -0.03542531 0.06497406
0.085133456 -0.269943 -0.12449866 0.08950147 0.26386607 0.20941544 0.10697642 0.18375903
-0.15357804 -0.22272569 0.017039478 0.23018026 0.16995358 -0.22933993 0.1048502 -0.109446704
0.15252164 0.1956193 -0.20424382 0.04497648 0.037053343 -0.14044316 -0.05365442 0.25082153
0.117123365 0.24557135 -0.14657032 -0.07860608 0.17596082 0.25197425 -0.27308774 0.08742498
-0.010747757 0.13350126 0.1276572 0.22000788 0.036658112 -0.27606776 -0.23653038 -0.08718825
-0.1244718 -0.011540353 -0.0037082434 0.18075535 -0.1484736 0.099529356 -0.16149844 -0.027587265
-0.24910876 -0.1545544 0.2192285 -0.10637686 -0.24537818 -0.32064965 0.14262757 0.27770296
-0.040722452 -0.02031486 0.3277752 -0.19413003 0.04340418 0.029908085 -0.25361556 -0.050051734
0.2039341 0.14275242 -0.1838506 0.09155265 -0.2676358 -0.26703364 0.14518015 -0.059228804
-0.124228045 0.33983338 -0.22980607 -0.064273 -0.22858584 -0.20123091 -0.018121094 0.15680477
0.20186824 0.16750121 -0.18122986 -0.24528402 -0.2723657 -0.26301998 0.10449734 -0.13690482
0.09721665 -0.09166143 0.2556936 0.19434415 0.071564235 -0.12018019 0.1657021 -0.27284908
-0.13188042 -0.26723644 -0.04469985 0.26908886 -0.037631925 -0.1841847 -0.16457504 -0.028043538
-0.14072424 0.05833707 -0.02070717 0.18073094 0.090163894 0.24314207 0.11637147 0.07056627
0.02458973 0.1576828 0.15422581 -0.25850496 0.22876354 -0.04461123 0.20001617 0.011563733
0.14004444 0.19029808 0.17915179 -0.11571131 0.31329915 0.15799299 -0.19479743 -0.051976394
0.11565765 0.19181643 0.0918308 -0.055439875 -0.08381082 -0.2609696 0.0808697 0.15154514

linear_relu_stack2.2.bias f4 [12]
00000000: 5873 7b3e 1130 81be 87e1 263e 4121 1c3e
00000010: c4f0 56be a320 b63c 3075 49bd e064 603e
00000020: dc38 8cbe 0ec1 09be 19c9 dcbd f642 e33d
0.24555719 -0.25231984 0.1629697 0.1524706 -0.20990282 0.02223236 -0.049184024 0.21913481
-0.2738713 -0.13452551 -0.10780544 0.11096756

linear_relu_stack2.4.weight f4 [7, 12]
00000000: 067b 883e 02cb 12be 997f 893c d21e 61be
00000010: e831 db3d 94e2 89be 7537 96bb 00c2 7fbb
00000020: 3dcc 26bd 87da 84bd e481 03be 8dec 423d
00000030: ceaa 4cbd c45a e63d 4a2a 47bd 3e05 683e
00000040: 2431 f6bd d33d 313e a627 2ebe 1606 8a3e
00000050: 2503 bcbd 97ee 573e 830b 32be 00b0 0ebc
00000060: 275f a93d fedb 66be 3d59 1fbe 1e7a 163e
00000070: d007 ac3d 5b20 14be 27d9 18be 9058 debd
00000080: 499f 7fbe ae08 4bbb 9c03 ddbd b3e6 ac3d
00000090: 2e2d 25bd f09a 1a3e 8b80 8dbe b5a3 6f3e
000000a0: 450d 6ebe 3345 f63d 162f 4cbe bc6b 683e
000000b0: 43be c9bd 2de5 5bbd cedc 573e 4ff4 253e
000000c0: a4bf 26be f3f5 90be 9e64 743e 8380 d9bd
000000d0: 1ebc 3f3e 4ee7 9fbe 10df 97be d027 023e
000000e0: 59d5 91be 5912 07be da2d 1ebe 1783 553e
000000f0: af08 073e f849 f63d 4fc4 333c cc68 b73d
00000100: b0db 803c d48d 4b3e 234c 773d 00ec c639
00000110: 8f28 7fbd 5edd 9e3d 3ae0 c5bd 2275 69be
00000120: 3ba0 e03d ce4c e5bd 9d75 a53d 07e3 463e
00000130: 7c89 8e3e f310 52be 03a5 97be 70ba bf3d
00000140: 8f5b 6f3e ecc4 92be ae5c 773e 1dce a63e
0.2665636 -0.14335254 0.016784476 -0.21984413 0.10702878 -0.26930678 -0.0045842477 -0.0039025545
-0.04072212 -0.06486993 -0.12842518 0.047588874 -0.04996758 0.11247781 -0.048624314 0.2265825
-0.120210916 0.1730874 -0.17007312 0.26957768 -0.09180287 0.21087109 -0.17387204 -0.008708954
0.08270102 -0.22544858 -0.15561385 0.14695022 0.083999276 -0.14465468 -0.14926587 -0.10856736
-0.24963106 -0.0030980515 -0.10791704 0.0844244 -0.04032629 0.15098166 -0.27637133 0.23402293
-0.2324725 0.120249175 -0.19939837 0.22697347 -0.09850743 -0.053685356 0.21080324 0.16206478
-0.16284043 -0.28312644 0.23866507 -0.10620215 0.18724105 -0.3123116 -0.2966237 0.127105
-0.28483084 -0.13190593 -0.15447178 0.20850788 0.13186906 0.12025827 0.010972097 0.08955535
0.015729755 0.19878322 0.060375344 0.00037941337 -0.06229454 0.07757066 -0.096619084 -0.22798589
0.109680615 -0.1119629 0.080790736 0.19422542 0.27839267 -0.20514278 -0.2961808 0.09361732
0.2337477 -0.28665864 0.24156448 0.32579127

linear_relu_stack2.4.bias f4 [7]
00000000: 28b6 d8bd 9e77 903e ebf8 67be 7417 513e
00000010: adb5 e03b d92b 8ebe 1e7a 533e
-0.105816185 0.2821626 -0.22653548 0.20419103 0.006857595 -0.27767828 0.20652053
