Results/QCNN_demonstration/Real device/Real/Model2 pre-train/Model2_39.pt (torch, 3559 bytes, 6 tensors)

linear_relu_stack2.0.weight f4 [12, 4]
00000000: 2ad1 95bd 39de 79bd e44c 873e fadf d83d
00000010: 1f73 e7be 4337 c63d 5210 f43e 3184 2bbd
00000020: 2214 a1bd 63ee bcbe 02de 4ebe 8d9c c33e
00000030: 2873 99bd be2f bc3e 2b19 0e3e d280 62be
00000040: 5f74 c9be 1abc ab3e b20a a23e 385a a4bd
00000050: 2769 eebe 27cc c33e 3f5d ce3e 4315 ef3e
00000060: c282 b63e 9910 a93e 340a e43d 1531 c43d
00000070: fe28 ea3c 9121 113d 549e d4be 17c0 0cbe
00000080: 19d9 81be 969c 833e ac54 c1be cac4 f9be
00000090: 0365 193f c674 2c3e 3036 9b3e 3250 8b3e
000000a0: 215e 61be 10b2 bf3d ec31 ee3e 841f eebe
000000b0: 77f8 6dbc 959a d33e 2134 f43e f908 efbd
-0.073152855 -0.061002944 0.2642585 0.10589595 -0.45205018 0.09678509 0.476687 -0.041874114
-0.07865168 -0.36900625 -0.20201877 0.38205376 -0.074926674 0.36755174 0.13876788 -0.22119454
-0.39346597 0.33541948 0.31648785 -0.0802502 -0.465646 0.38241693 0.40305516 0.4669591
0.35646635 0.33020476 0.111347586 0.09579674 0.028584 0.035432402 -0.41527045 -0.13745151
-0.25360945 0.25705403 -0.37759912 -0.4878295 0.59919757 0.1684142 0.3031478 0.27209622
-0.22008564 0.093601346 0.46522462 -0.4650842 -0.014524571 0.41328874 0.4769602 -0.11671633

linear_relu_stack2.0.bias f4 [12]
00000000: 4a62 013e 319d d23e 7da6 b23b 8f7f 54be
00000010: 0dac 6bbe e376 3cbe eaaa c93e cd2f 463e
00000020: ec31 a33d 1144 9dbe 6bcf 5c3e afe6 6a3d
0.1263515 0.41135553 0.005451976 -0.20751785 -0.23014851 -0.18404727 0.3938821 0.19354172
0.07968506 -0.30715993 0.21563499 0.057348903

linear_relu_stack2.2.weight f4 [12, 12]
00000000: e50c 233e 9cb5 803e 6296 383e b80f 5f3e
00000010: ce6b 033e 0f9c 27be 22de 10bd 3b23 843d
00000020: cd5f ac3d d1d7 87be 04d1 05be 36c8 b23d
00000030: 7419 873e 0071 563e 7416 db3d 542b 3c3e
00000040: 9043 1dbe 3412 64be 6096 8b3c 60b4 6b3e
00000050: 5008 2e3e 16d8 6abe b4bb d63d 9825 e0bd
00000060: 9ae0 1a3e 4f9a 4e3e 903c 50be 50cf 4f3d
00000070: 01f1 2e3d ae7a febd bf46 3cbd d7fb 803e
00000080: 5ace f03d 93db 773e e716 15be 149e 8dbd
00000090: df73 393e c813 823e b2ce 89be debb 9d3d
000000a0: b289 97bc 2eae 003e a98e dc3d 5034 5f3e
000000b0: 220c 0f3d 2ba6 90be 8d59 72be 6dd3 cfbd
000000c0: 12eb febd c013 3dbc 0006 73bb ee17 393e
000000d0: 7709 18be 0cd6 cb3d d95f 25be b0fe e1bc
000000e0: 5e16 7fbe 8243 1ebe 707d 603e 1cdc d9bd
000000f0: 382a 80be a6ad a9be 9872 143e 7345 8d3e
00000100: 9186 33bd 456f cdbc 0f57 ad3e 8b14 46be
00000110: b69e 393d cba2 133d 015f 82be a28a 69bd
00000120: 4e12 3b3e fe56 013e dda8 41be 9e1d b93d
00000130: 01e0 8abe f4aa 8bbe d4ea 003e 8f5a 6bbd
00000140: de36 febd 27d8 973e 7034 73be 3f83 a6bd
00000150: 6812 6abe 7a0f 4ebe b072 94bc 6e91 203e
00000160: 8cb6 4e3e 7085 2b3e 5294 39be bc2b 7bbe
00000170: 8473 8bbe 8eaa 86be b402 d63d c730 0cbe
00000180: b9b5 c53d 4de7 bdbd 46ea 823e be81 473e
00000190: 9a52 913d 1da3 f5bd 3189 2c3e 8943 8bbe
000001a0: 6474 06be b351 88be 6ba3 3dbd b9f3 893e
000001b0: 8f95 1abd d76d 3dbe 2de4 28be a38b d2bc
000001c0: efba 0bbe adb4 843d 265a 17bb 1939 3a3e
000001d0: 992e bc3d 47e1 843e 0dce ef3d a65c 9b3d
000001e0: 4291 c43c 593a 223e b8ac 1e3e 2795 86be
000001f0: 8bb8 653e 346f 2dbd b53f 383e d316 363c
00000200: 22f8 0e3e 41a6 2d3e c24f 313e 9a30 00be
00000210: c1d1 a83e 0b1a 2f3e cadb 3bbe 8787 8ebd
00000220: 9f47 d63d b5c8 513e 2a11 913d 9bd0 71bd
00000230: 801e b1bd 69f9 83be 4d92 953d 83a8 093e
0.15922888 0.25138557 0.18026116 0.2178334 0.12834093 -0.16368125 -0.035368092 0.06452032
0.0841671 -0.26531842 -0.13068014 0.087295935 0.26386607 0.20941544 0.10697642 0.18375903
-0.15357804 -0.22272569 0.017039478 0.23018026 0.16995358 -0.22933993 0.1048502 -0.109446704
0.15124741 0.20176052 -0.20335603 0.050734818 0.042710308 -0.12425743 -0.045965906 0.2519214
0.117581084 0.24204855 -0.14559518 -0.06914917 0.18110608 0.25405717 -0.26915509 0.077018484
-0.018498275 0.12566444 0.10769398 0.217973 0.03492368 -0.28251776 -0.23666973 -0.10147748
-0.1244718 -0.011540353 -0.0037082434 0.18075535 -0.1484736 0.099529356 -0.16149844 -0.027587265
-0.24910876 -0.1545544 0.2192285 -0.10637686 -0.2503221 -0.33140296 0.14496839 0.27592048
-0.043829504 -0.025077472 0.33855483 -0.19343774 0.045317374 0.036043923 -0.25463107 -0.057016976
0.18268701 0.12630841 -0.18912072 0.09038852 -0.27124026 -0.27278864 0.1258958 -0.05745941
-0.12412809 0.296571 -0.23750472 -0.08130502 -0.22858584 -0.20123091 -0.018121094 0.15680477
0.20186824 0.16750121 -0.18122986 -0.24528402 -0.2723657 -0.26301998 0.10449734 -0.13690482
0.096538015 -0.09272633 0.2556936 0.19483086 0.07095833 -0.11994002 0.1684921 -0.27199963
-0.13130337 -0.26624832 -0.046298426 0.26943758 -0.037740286 -0.18498932 -0.16493292 -0.02570135
-0.13645528 0.06479774 -0.0023094504 0.18185844 0.09188575 0.25953123 0.11709223 0.07586031
0.023995046 0.1584257 0.15495574 -0.2628567 0.22433679 -0.04234238 0.17993052 0.01111384
0.13961843 0.16957952 0.17315581 -0.1251854 0.3297253 0.17099778 -0.18345562 -0.069594435
0.104628794 0.2048672 0.07083352 -0.059036832 -0.086483955 -0.25776222 0.07303295 0.13443188

linear_relu_stack2.2.bias f4 [12]
00000000: c382 7b3e 1130 81be 7094 2a3e cf72 163e
00000010: c4f0 56be 4878 0b3d ddc1 6bbd e064 603e
00000020: 8076 8bbe 6328 febd b1b2 edbd 4084 e03d
0.245616 -0.25231984 0.16658187 0.14692234 -0.20990282 0.034050256 -0.05755793 0.21913481
-0.27238846 -0.12410047 -0.11606348 0.10962725

linear_relu_stack2.4.weight f4 [7, 12]
00000000: da2c 853e 02cb 12be 62b5 a43c 1b0f 5ebe
00000010: e831 db3d 1eea 8abe 1321 34bb 00c2 7fbb
00000020: ec7e 2ebd 4bc8 82bd 5622 01be 8958 473d
00000030: 5f0f 4abd c45a e63d ad74 c0bc 669a 643e
00000040: 2431 f6bd 4749 3c3e c328 0cbe 1606 8a3e
00000050: 8a20 bebd 0e94 653e af08 16be d5ee eebb
00000060: 13d8 a23d fedb 66be 440f 10be d3ec 123e
00000070: d007 ac3d 60ad 15be 1ba5 00be 9058 debd
00000080: 9ffa 7fbe 6c93 aa3b 9909 c0bd fb59 9f3d
00000090: 8309 34bd f09a 1a3e a5a7 88be 7caa 6a3e
000000a0: 450d 6ebe 43da e33d 756d 3cbe bc6b 683e
000000b0: 9b55 cbbd 1945 4cbd a8ee 5d3e 6be9 1a3e
000000c0: 76e0 25be f3f5 90be 1ee1 803e 92de d3bd
000000d0: 1ebc 3f3e 8711 a0be e1d4 8ebe d027 023e
000000e0: af49 91be e870 00be 29d0 0dbe 5f99 5c3e
000000f0: 7828 093e f849 f63d 05d6 4e3c 744f b53d
00000100: b0db 803c 1b2f 563e f453 833d 00ec c639
00000110: 1948 7cbd 66c9 a43d 0d5b bdbd 1b13 68be
00000120: ec44 d33d ce4c e5bd 0b6a b03d 3628 4e3e
00000130: 7c89 8e3e 27ee 6abe 45f0 96be 70ba bf3d
00000140: 2c0f 6e3e b94d 94be 774f 7c3e 1274 ab3e
0.26010782 -0.14335254 0.020106021 -0.2168545 0.10702878 -0.27131742 -0.0027485534 -0.0039025545
-0.04260151 -0.06385859 -0.12610754 0.048668418 -0.049331065 0.11247781 -0.023493135 0.22324523
-0.120210916 0.18387328 -0.13687424 0.26957768 -0.0928355 0.2241976 -0.1465175 -0.0072916546
0.07951369 -0.22544858 -0.14068323 0.14348154 0.083999276 -0.14616919 -0.12562983 -0.10856736
-0.24997948 0.0052055623 -0.093768306 0.07780834 -0.043954384 0.15098166 -0.26690403 0.22916597
-0.2324725 0.111256145 -0.1840113 0.22697347 -0.09928437 -0.049870584 0.21673071 0.15128104
-0.16198906 -0.28312644 0.2517175 -0.10345186 0.18724105 -0.31263372 -0.2789679 0.127105
-0.2837653 -0.1254307 -0.13848938 0.21542881 0.13394344 0.12025827 0.012624268 0.08853045
0.015729755 0.20916407 0.06412497 0.00037941337 -0.061592195 0.08046226 -0.09245882 -0.22663538
0.1031588 -0.1119629 0.08613976 0.20132527 0.27839267 -0.2294241 -0.29480186 0.09361732
0.23247975 -0.28965548 0.24639688 0.33486992

linear_relu_stack2.4.bias f4 [7]
00000000: 0dc2 dabd b16a 9c3e da36 62be d7e9 4c3e
00000010: 42f0 c33c aa63 8abe 1e7a 533e
-0.106815435 0.3055015 -0.22091237 0.20011078 0.023918275 -0.27029163 0.20652053
