Results/QCNN_demonstration/Real device/Real/Model2 pre-train/Model2_13.pt (torch, 3559 bytes, 6 tensors)

linear_relu_stack2.0.weight f4 [12, 4]
-0.039762914 -0.037762996 0.25809667 0.08578566 -0.44312486 0.112331584 0.45863178 -0.07796451
-0.09365372 -0.3622072 -0.19562352 0.39767578 -0.07726347 0.35770932 0.13997583 -0.22698578
-0.3868289 0.35376424 0.30649412 -0.10032187 -0.46275643 0.42448348 0.37548983 0.4554514
0.35829636 0.35233414 0.12914985 0.111432716 0.0314567 0.045387086 -0.4146964 -0.13460864
-0.25428227 0.25486952 -0.37766287 -0.4882425 0.5848565 0.10324877 0.34369892 0.3037387
-0.21390432 0.09195642 0.4684494 -0.4648135 -0.016856423 0.4214058 0.46485034 -0.13756664
00000000: 70de 22bd 5fad 1abd 3f25 843e 64b0 af3d
00000010: 43e1 e2be 1a0e e63d c9d1 ea3e dbab 9fbd
00000020: 86cd bfbd 3973 b9be 8851 48be 299c cb3e
00000030: 4f3c 9ebd ad25 b73e d355 0f3e f66e 68be
00000040: 700e c6be 9620 b53e ccec 9c3e 8d75 cdbd
00000050: 69ee ecbe e655 d93e 3440 c03e ed30 e93e
00000060: 9f72 b73e 2465 b43e dc3f 043e d636 e43d
00000070: bed8 003d cfe7 393d 1653 d4be d9d6 09be
00000080: 4931 82be 427e 823e 075d c1be ecfa f9be
00000090: 28b9 153f 1774 d33d 4ef9 af3e a483 9b3e
000000a0: bc09 5bbe a653 bc3d 9ad8 ef3e 09fc edbe
000000b0: 7b16 8abc 80c2 d73e dd00 ee3e 45de 0cbe

linear_relu_stack2.0.bias f4 [12]
0.13062163 0.40607193 0.00863177 -0.21049558 -0.23189753 -0.18307868 0.3958717 0.19725889
0.078990996 -0.31295633 0.21785668 0.054180607
00000000: adc1 053e a9e8 cf3e 446c 0d3c 278c 57be
00000010: 8c76 6dbe fa78 3bbe b2af ca3e 3cfe 493e
00000020: 08c6 a13d d03b a0be d215 5f3e 7cec 5d3d

linear_relu_stack2.2.weight f4 [12, 12]
0.15430123 0.24787661 0.17980212 0.22266729 0.1286742 -0.17992318 -0.03900172 0.06497406
0.085133456 -0.2740783 -0.12218937 0.08729974 0.26386607 0.20941544 0.10697642 0.18375903
-0.15357804 -0.22272569 0.017039478 0.23018026 0.16995358 -0.22933993 0.1048502 -0.109446704
0.15374391 0.19610012 -0.20509663 0.044987164 0.03839935 -0.14075033 -0.05368668 0.25075036
0.11712008 0.24862461 -0.14584199 -0.07778123 0.17369787 0.2480555 -0.27547714 0.090284914
-0.010910246 0.13474385 0.14003654 0.22118682 0.03665569 -0.26835337 -0.23911989 -0.082046516
-0.1244718 -0.011540353 -0.0037082434 0.18075535 -0.1484736 0.099529356 -0.16149844 -0.027587265
-0.24910876 -0.1545544 0.2192285 -0.10637686 -0.2382209 -0.30838594 0.14727166 0.27760407
-0.03524328 0.0031815558 0.32915986 -0.19548537 0.04340756 0.03252751 -0.25354552 -0.04576578
0.20741536 0.14593257 -0.17966047 0.08685266 -0.26691508 -0.26701573 0.12939796 -0.06166792
-0.12422239 0.3340617 -0.2309753 -0.07553436 -0.22858584 -0.20123091 -0.018121094 0.15680477
0.20186824 0.16750121 -0.18122986 -0.24528402 -0.2723657 -0.26301998 0.10449734 -0.13690482
0.09845621 -0.08903249 0.2556936 0.19559081 0.07356398 -0.11660179 0.168726 -0.2728
-0.13187982 -0.2648776 -0.043012172 0.2725681 -0.040544946 -0.1867717 -0.16491783 -0.030692834
-0.14240728 0.047473792 -0.037612442 0.17957778 0.09016831 0.22844264 0.11723289 0.06049018
0.026148783 0.16133049 0.15102945 -0.25416708 0.23375688 -0.03906506 0.21018286 0.012155391
0.14004155 0.19874206 0.18302356 -0.10482938 0.31023228 0.15285191 -0.20250235 -0.04579274
0.117717616 0.18356958 0.11077129 -0.053602066 -0.08381638 -0.2464295 0.08514281 0.16400386
00000000: 2401 1e3e 5ed3 7d3e 0c1e 383e e502 643e
00000010: 2bc3 033e c83d 38be 44c0 1fbd 1f11 853d
00000020: 735a ae3d fe53 8cbe 6c3e fabd 35ca b23d
00000030: 7419 873e 0071 563e 7416 db3d 542b 3c3e
00000040: 9043 1dbe 3412 64be 6096 8b3c 60b4 6b3e
00000050: 5008 2e3e 16d8 6abe b4bb d63d 9825 e0bd
00000060: 0b6f 1d3e 78ce 483e da04 52be 7644 383d
00000070: a348 1d3d db20 10be 90e6 5bbd 5a62 803e
00000080: a7dc ef3d 7397 7e3e 9a57 15be c44b 9fbd
00000090: dbdd 313e 4302 7e3e 570b 8dbe 4ce7 b83d
000000a0: e3c0 32bc 4bfa 093e bd65 0f3e cc7e 623e
000000b0: 4724 163d 9d65 89be d8db 74be 0108 a8bd
000000c0: 12eb febd c013 3dbc 0006 73bb ee17 393e
000000d0: 7709 18be 0cd6 cb3d d95f 25be b0fe e1bc
000000e0: 5e16 7fbe 8243 1ebe 707d 603e 1cdc d9bd
000000f0: 2ef0 73be c3e4 9dbe 62ce 163e 1f22 8e3e
00000100: 425b 10bd a681 503b a487 a83e 512d 48be
00000110: 20cc 313d 913b 053d b8d0 81be e674 3bbd
00000120: b164 543e 596f 153e eaf8 37be cfdf b13d
00000130: 18a9 88be 49b6 88be e680 043e 8097 7cbd
00000140: 4f68 febd 230a ab3e ca84 6cbe c2b1 9abd
00000150: 6812 6abe 7a0f 4ebe b072 94bc 6e91 203e
00000160: 8cb6 4e3e 7085 2b3e 5294 39be bc2b 7bbe
00000170: 8473 8bbe 8eaa 86be b402 d63d c730 0cbe
00000180: 69a3 c93d ab56 b6bd 46ea 823e f548 483e
00000190: b6a8 963d ebcc eebd 82c6 2c3e 71ac 8bbe
000001a0: 810b 07be 099e 87be 882d 30bd 0c8e 8b3e
000001b0: 7512 26bd 1541 3fbe 38e0 28be 8a6f fbbc
000001c0: 37d3 11be e173 423d 810f 1abd 3de3 373e
000001d0: 2aaa b83d deec 693e cc17 f03d 8dc4 773d
000001e0: f935 d63c d233 253e 77a7 1a3e 3022 82be
000001f0: f75d 6f3e af02 20bd 2d3a 573e 6827 473c
00000200: 0d67 0f3e 0a83 4b3e 876a 3b3e c9b0 d6bd
00000210: c4d6 9e3e 3685 1c3e c75c 4fbe 2b91 3bbd
00000220: ef15 f13d aaf9 3b3e 0fdc e23d d78d 5bbd
00000230: eca7 abbd 0458 7cbe 5b5f ae3d a1f0 273e

linear_relu_stack2.2.bias f4 [12]
0.24416001 -0.25231984 0.16202377 0.15533267 -0.20990282 0.025288807 -0.05512423 0.21913481
-0.27234066 -0.14269526 -0.105566286 0.1137131
00000000: 1505 7a3e 1130 81be 8fe9 253e 870f 1f3e
00000010: c4f0 56be 792a cf3c f2c9 61bd e064 603e
00000020: 3c70 8bbe b51e 12be 2333 d8bd 6ae2 e83d

linear_relu_stack2.4.weight f4 [7, 12]
0.26818717 -0.14335254 0.019564882 -0.22813264 0.10702878 -0.26581827 0.0044462564 -0.0039025545
-0.040505417 -0.063281335 -0.13013862 0.034126382 -0.05289161 0.11247781 -0.053149212 0.22036612
-0.120210916 0.17528793 -0.17123248 0.26957768 -0.092141606 0.21019001 -0.18504135 -0.025491923
0.08325806 -0.22544858 -0.15850493 0.14774019 0.083999276 -0.14211774 -0.15282059 -0.10856736
-0.2494007 -0.0037768586 -0.11098108 0.086995445 -0.040579733 0.15098166 -0.276747 0.23328274
-0.2324725 0.12606455 -0.19796628 0.22697347 -0.09834396 -0.052491948 0.20915832 0.16140102
-0.16469218 -0.28312644 0.23816775 -0.10690586 0.18724105 -0.3080043 -0.29614 0.127105
-0.28537193 -0.13047856 -0.15664628 0.20815857 0.13166144 0.12025827 0.007908951 0.09299065
0.015729755 0.19344094 0.053667393 0.00037941337 -0.062388103 0.07482661 -0.09798197 -0.22466266
0.11013936 -0.1119629 0.08403777 0.19105004 0.27839267 -0.19535242 -0.28726542 0.09361732
0.23407649 -0.28192583 0.24283095 0.32626206
00000000: d44f 893e 02cb 12be 8846 a03c 9a9b 69be
00000010: e831 db3d 5519 88be e7b1 913b 00c2 7fbb
00000020: 02e9 25bd a599 81bd 0f43 05be 1bc8 0b3d
00000030: dfa4 58bd c45a e63d fdb2 59bd a8a7 613e
00000040: 2431 f6bd ae7e 333e 9157 2fbe 1606 8a3e
00000050: bdb4 bcbd 0d3c 573e 7b7b 3dbe 70d4 d0bc
00000060: 3483 aa3d fedb 66be 1e4f 22be 3449 173e
00000070: d007 ac3d 5087 11be 007d 1cbe 9058 debd
00000080: e662 7fbe 2c85 77bb 0c4a e3bd ab2a b23d
00000090: ef36 26bd f09a 1a3e c8b1 8dbe ace1 6e3e
000000a0: 450d 6ebe 1117 013e acb7 4abe bc6b 683e
000000b0: 8f68 c9bd cc01 57bd 992d 563e 4f46 253e
000000c0: 11a5 28be f3f5 90be 3fe2 733e 76f1 dabd
000000d0: 1ebc 3f3e bdb2 9dbe a99f 97be d027 023e
000000e0: 451c 92be 2c9c 05be e267 20be 8527 553e
000000f0: 42d2 063e f849 f63d 8b94 013c e271 be3d
00000100: b0db 803c 6215 463e 57d2 5b3d 00ec c639
00000110: ab8a 7fbd b23e 993d c5aa c8bd f80d 66be
00000120: bf90 e13d ce4c e5bd ff1b ac3d 9fa2 433e
00000130: 7c89 8e3e 770a 48be 7414 93be 70ba bf3d
00000140: bfb1 6f3e 9558 90be ada8 783e d20b a73e

linear_relu_stack2.4.bias f4 [7]
-0.106258005 0.27452734 -0.22573383 0.2067233 0.004758368 -0.27802652 0.20652053
00000000: cc9d d9bd d98e 8c3e c526 67be 46af 533e
00000010: 15ec 9b3b 7e59 8ebe 1e7a 533e
