Results/QCNN_demonstration/Real device/Real/Model2 pre-train/Model2_40.pt (torch, 3559 bytes, 6 tensors)

linear_relu_stack2.0.weight f4 [12, 4]
-0.07390755 -0.059471507 0.26295164 0.10825309 -0.45264322 0.09911299 0.4758443 -0.037653662
-0.07799883 -0.36935362 -0.20190497 0.38184828 -0.073813766 0.3677873 0.13987978 -0.22152059
-0.39404494 0.33584362 0.3154327 -0.077491865 -0.46628323 0.38137335 0.403467 0.46798402
0.35828584 0.33103058 0.110649504 0.09707818 0.027736492 0.035486367 -0.4153578 -0.13732496
-0.2536319 0.25674832 -0.37762204 -0.4878295 0.6010465 0.16921243 0.30291262 0.26925156
-0.2202481 0.09342933 0.46510273 -0.46509686 -0.014076529 0.41214007 0.47752124 -0.11686045
00000000: d75c 97bd 6598 73bd 99a1 863e ccb3 dd3d
00000010: dac0 e7be c0fb ca3d dda1 f33e ba3a 1abd
00000020: dabd 9fbd eb1b bdbe 2dc0 4ebe 9e81 c33e
00000030: ac2b 97bd 9e4e bc3e a53c 0f3e 4bd6 62be
00000040: 42c0 c9be b2f3 ab3e 6580 a13e 0eb4 9ebd
00000050: adbc eebe 5e43 c33e 3a93 ce3e 9a9b ef3e
00000060: 3e71 b73e d77c a93e 359c e23d edd0 c63d
00000070: a437 e33c 275a 113d c7a9 d4be ea9e 0cbe
00000080: 0adc 81be 8474 833e ad57 c1be cac4 f9be
00000090: 2fde 193f 0646 2d3e 5d17 9b3e 57db 893e
000000a0: b888 61be e057 bf3d f221 ee3e 2d21 eebe
000000b0: 3ea1 66bc 0604 d33e aa7d f43e 8854 efbd

linear_relu_stack2.0.bias f4 [12]
0.1266378 0.41231334 0.005441012 -0.2071294 -0.22988506 -0.18415232 0.39443755 0.1934089
0.07958775 -0.30715176 0.21561301 0.057320524
00000000: 57ad 013e bc1a d33e 844a b23b bb19 54be
00000010: fd66 6bbe 6d92 3cbe b8f3 c93e fc0c 463e
00000020: e7fe a23d ff42 9dbe a8c9 5c3e edc8 6a3d

linear_relu_stack2.2.weight f4 [12, 12]
0.15950054 0.25224066 0.18010709 0.21823397 0.12895487 -0.16317679 -0.034910265 0.06456651
0.084337145 -0.26513374 -0.12989475 0.08825682 0.26386607 0.20941544 0.10697642 0.18375903
-0.15357804 -0.22272569 0.017039478 0.23018026 0.16995358 -0.22933993 0.1048502 -0.109446704
0.15038678 0.20118734 -0.2033065 0.051174268 0.042180806 -0.122569405 -0.045444276 0.2519947
0.1176471 0.24070495 -0.146828 -0.0688674 0.1813065 0.25446087 -0.26897925 0.077206075
-0.018199483 0.1268463 0.10852829 0.21800435 0.035033386 -0.28197646 -0.23672733 -0.10092279
-0.1244718 -0.011540353 -0.0037082434 0.18075535 -0.1484736 0.099529356 -0.16149844 -0.027587265
-0.24910876 -0.1545544 0.2192285 -0.10637686 -0.25009272 -0.33194777 0.14498535 0.2755443
-0.044377353 -0.026122741 0.34119186 -0.19324347 0.044747803 0.039726436 -0.25496957 -0.057017315
0.18230535 0.12637539 -0.189414 0.09148576 -0.27110097 -0.2724122 0.12946504 -0.056993432
-0.12407204 0.29882395 -0.23733062 -0.07939804 -0.22858584 -0.20123091 -0.018121094 0.15680477
0.20186824 0.16750121 -0.18122986 -0.24528402 -0.2723657 -0.26301998 0.10449734 -0.13690482
0.09616037 -0.09364588 0.2556936 0.19443561 0.07022259 -0.121328495 0.16775557 -0.27198622
-0.13127287 -0.26678512 -0.046714284 0.2684053 -0.037247498 -0.1844382 -0.16564736 -0.025351333
-0.13584839 0.060963027 -0.0012035078 0.18197711 0.09150791 0.26235342 0.11957581 0.07678988
0.023377918 0.15760496 0.15536639 -0.26319224 0.22359847 -0.040427268 0.17863248 0.011047508
0.1397772 0.16711384 0.17126152 -0.12638396 0.33017975 0.17137662 -0.18248022 -0.06998855
0.10479987 0.2094793 0.07300024 -0.058862932 -0.085922286 -0.25645673 0.07093412 0.13447681
00000000: 1c54 233e b025 813e fe6d 383e ba78 5f3e
00000010: bf0c 043e d117 27be 11fe 0ebd 723b 843d
00000020: f4b8 ac3d 9cbf 87be 2103 05be febf b43d
00000030: 7419 873e 0071 563e 7416 db3d 542b 3c3e
00000040: 9043 1dbe 3412 64be 6096 8b3c 60b4 6b3e
00000050: 5008 2e3e 16d8 6abe b4bb d63d 9825 e0bd
00000060: fefe 193e 0e04 4e3e 942f 50be 1c9c 513d
00000070: c8c5 2c3d ab05 fbbd c723 3abd 7305 813e
00000080: f6f0 f03d 5c7b 763e 145a 16be 5a0a 8dbd
00000090: 69a8 393e b248 823e a6b7 89be 381e 9e3d
000000a0: 1517 95bc ffe3 013e 1544 de3d 883c 5f3e
000000b0: 2b7f 0f3d 385f 90be a668 72be 9cb0 cebd
000000c0: 12eb febd c013 3dbc 0006 73bb ee17 393e
000000d0: 7709 18be 0cd6 cb3d d95f 25be b0fe e1bc
000000e0: 5e16 7fbe 8243 1ebe 707d 603e 1cdc d9bd
000000f0: 270c 80be 0ff5 a9be 0a77 143e 2414 8d3e
00000100: 07c5 35bd 5cff d5bc b3b0 ae3e 9ee1 45be
00000110: 7949 373d 30b8 223d 5f8b 82be fd8a 69bd
00000120: 41ae 3a3e 8d68 013e bef5 41be e35c bb3d
00000130: bfcd 8abe 9d79 8bbe 7c92 043e f271 69bd
00000140: 7b19 febd 74ff 983e cc06 73be 719b a2bd
00000150: 6812 6abe 7a0f 4ebe b072 94bc 6e91 203e
00000160: 8cb6 4e3e 7085 2b3e 5294 39be bc2b 7bbe
00000170: 8473 8bbe 8eaa 86be b402 d63d c730 0cbe
00000180: baef c43d 69c9 bfbd 46ea 823e 211a 473e
00000190: dcd0 8f3d 137b f8bd 1ec8 2b3e c741 8bbe
000001a0: 656c 06be 0f98 88be 7a57 3fbd 6b6c 893e
000001b0: d590 18bd 5edd 3cbe 769f 29be 99ad cfbc
000001c0: d71b 0bbe 5eb4 793d 05bf 9dba 3558 3a3e
000001d0: 8068 bb3d 3053 863e 2ae4 f43d 0344 9d3d
000001e0: 0c83 bf3c 3263 213e 5e18 1f3e 22c1 86be
000001f0: fff6 643e 1097 25bd 6feb 363e 9b00 353c
00000200: c121 0f3e e41f 2b3e 2e5f 2f3e cc6a 01be
00000210: 520d a93e 5a7d 2f3e 18dc 3abe 2856 8fbd
00000220: 50a1 d63d be81 563e 2681 953d 421a 71bd
00000230: 06f8 afbd 4c4e 83be e845 913d 4ab4 093e

linear_relu_stack2.2.bias f4 [12]
0.246001 -0.25231984 0.1667311 0.14745302 -0.20990282 0.035184074 -0.055930384 0.21913481
-0.27281308 -0.123739384 -0.116667 0.11119403
00000000: b0e7 7b3e 1130 81be 8fbb 2a3e edfd 163e
00000010: c4f0 56be 2d1d 103d 4217 65bd e064 603e
00000020: 28ae 8bbe 136b fdbd 1cef eebd b2b9 e33d

linear_relu_stack2.4.weight f4 [7, 12]
0.26164138 -0.14335254 0.021419808 -0.21625857 0.10702878 -0.27303293 -0.0019096329 -0.0039025545
-0.042399786 -0.06387942 -0.123882204 0.050843652 -0.04772268 0.11247781 -0.021009995 0.22328614
-0.120210916 0.18350123 -0.13408504 0.26957768 -0.09259403 0.22503372 -0.1432062 -0.005447918
0.07999127 -0.22544858 -0.13965252 0.14408045 0.083999276 -0.14708789 -0.12474028 -0.10856736
-0.24996133 0.0053981626 -0.092175804 0.0790403 -0.04364785 0.15098166 -0.26666093 0.22936863
-0.2324725 0.10963623 -0.18376835 0.22697347 -0.09925107 -0.050194997 0.21750154 0.15152025
-0.16255851 -0.28312644 0.25079793 -0.102735564 0.18724105 -0.3129465 -0.28021303 0.127105
-0.2838558 -0.12586209 -0.13940683 0.21554066 0.1337661 0.12025827 0.013291993 0.08786003
0.015729755 0.21031514 0.06539477 0.00037941337 -0.06161885 0.08116698 -0.09203707 -0.22753176
0.10247329 -0.1119629 0.084523834 0.20307893 0.27839267 -0.23146969 -0.29771355 0.09361732
0.23233181 -0.29094487 0.24510668 0.33593544
00000000: dcf5 853e 02cb 12be 9878 af3c e372 5dbe
00000010: e831 db3d f9ca 8bbe a64c faba 00c2 7fbb
00000020: 66ab 2dbd 37d3 82bd f4b5 fdbd 6f41 503d
00000030: db78 43bd c45a e63d 271d acbc 1fa5 643e
00000040: 2431 f6bd bfe7 3b3e 974d 09be 1606 8a3e
00000050: f0a1 bdbd 3d6f 663e a5a4 12be 7384 b2bb
00000060: 77d2 a33d fedb 66be 1201 0fbe d389 133e
00000070: d007 ac3d 359e 16be d577 ffbd 9058 debd
00000080: ddf5 7fbe 12e3 b03b abc6 bcbd e1df a13d
00000090: 17c8 32bd f09a 1a3e c887 88be 9cdf 6a3e
000000a0: 450d 6ebe f688 e03d c52d 3cbe bc6b 683e
000000b0: 2544 cbbd 4599 4dbd b9b8 5e3e 2028 1b3e
000000c0: bd75 26be f3f5 90be 9668 803e 0667 d2bd
000000d0: 1ebc 3f3e 863a a0be 1578 8fbe d027 023e
000000e0: 8c55 91be fee1 00be aac0 0ebe b1b6 5c3e
000000f0: fbf9 083e f849 f63d a9c6 593c f6ef b33d
00000100: b0db 803c da5c 573e b1ed 853d 00ec c639
00000110: 0c64 7cbd e03a a63d ee7d bcbd 16fe 68be
00000120: 84dd d13d ce4c e5bd d51a ad3d ecf3 4f3e
00000130: 7c89 8e3e 6406 6dbe e96d 98be 70ba bf3d
00000140: 64e8 6d3e baf6 94be 3ffd 7a3e bbff ab3e

linear_relu_stack2.4.bias f4 [7]
-0.10638517 0.30709103 -0.22010817 0.19929756 0.024198255 -0.27001116 0.20652053
00000000: 78e0 d9bd 093b 9d3e 0964 61be a914 4c3e
00000010: 6b3b c63c e73e 8abe 1e7a 533e
