Additional Experiments/Noiseless_Kuzushiji/PCA-NQE500.pt (torch, 3631 bytes, 6 tensors)

linear_relu_stack2.0.weight f4 [12, 4]
000000 89 1a 36 3d 89 dd ca be b7 23 f7 3e 8d dd 1b 3e
       0.0444589 -0.39622143 0.48269436 0.15221234
000010 e6 7a 8f be 40 f2 c1 3e 45 e0 47 3d fa 69 7b 3e
       -0.28023452 0.37880135 0.048797864 0.24552146
000020 55 36 00 3f 66 ac 9c 3e c8 e1 ab 3d fe c2 dd be
       0.50082904 0.3060028 0.08392674 -0.4331283
000030 60 f5 e7 be b6 97 db be 4a 02 a3 3e 23 36 37 3d
       -0.45304394 -0.42889184 0.31837684 0.044729363
000040 b0 44 d1 be cf 4c 92 3e 2c 44 56 3c 74 74 eb 3e
       -0.40872717 0.28574225 0.013077777 0.45987284
000050 b7 90 6d 3e c7 5f 7a be d8 cb c2 be dd 14 a4 be
       0.23199736 -0.24450599 -0.38046145 -0.32047167
000060 c5 05 6e be 78 c3 d3 3e 70 22 f9 bd 38 83 86 3e
       -0.23244388 0.41360068 -0.121647716 0.26271987
000070 4a c6 fd be e1 65 b6 3e c3 97 cf 3e 04 2c e1 3e
       -0.49565345 0.35624602 0.40545473 0.43978894
000080 aa 63 b5 3e e3 12 56 be 5b 53 98 be 63 b9 51 3e
       0.354276 -0.20905642 -0.29751095 0.20480876
000090 d0 95 d7 3e 21 89 71 bc a7 ff a6 3e eb cb d4 3d
       0.42106485 -0.014742167 0.32616922 0.10390457
0000a0 9a 22 ff be 40 1f 08 bc 70 90 23 be 58 ac bf bd
       -0.49831086 -0.008308232 -0.15973067 -0.09359044
0000b0 ba 4a b5 be 4d 90 33 3e a7 f2 2a be f1 01 99 3d
       -0.35408574 0.17535515 -0.16694127 0.074710734

linear_relu_stack2.0.bias f4 [12]
000000 83 c6 49 3e 3b 27 50 bd 6e e9 46 bd 00 e9 18 3e
       0.19704632 -0.050818663 -0.04856246 0.14932632
000010 d4 d5 44 bd 95 25 c3 bd 5f 50 a9 be 7b 89 8d 3d
       -0.048055485 -0.095286526 -0.3306913 0.06910988
000020 b3 6a 57 bd 76 21 d7 be c0 76 ed be a8 ff f9 3e
       -0.05259199 -0.42017716 -0.46379662 0.48827863

linear_relu_stack2.2.weight f4 [12, 12]
000000 1b 9c ac 3c de 72 23 3e 7d b1 5f 3d a3 51 9a 3e
       0.02107053 0.15961787 0.054612625 0.3014041
000010 30 b2 c9 bd 75 5a b4 bd be f6 af 3d f0 aa cd 3d
       -0.0984844 -0.08806316 0.08591984 0.10042369
000020 ff 10 52 3e 3e 7d e7 bd 0f 44 74 3e 78 39 0f 3e
       0.20514296 -0.11303185 0.23854087 0.13986766
000030 79 12 12 3e 25 5c d0 3d 4c ad a4 3d a7 fa 29 be
       0.1426486 0.10173825 0.08040866 -0.16599523
000040 84 9f 74 3e 4b 31 11 be f0 65 f5 3c 31 6d 6e 3d
       0.23888975 -0.1417896 0.029955834 0.0582096
000050 44 17 2e be 45 89 17 be 37 08 86 3d df b8 42 3e
       -0.17001063 -0.14798458 0.065445356 0.19015835
000060 8d d0 b4 3d 61 77 6e 3e f4 0c 04 3e 5a 04 7c bc
       0.088288404 0.23287727 0.12895566 -0.015381897
000070 8e 51 e2 bd e4 86 5b be d2 15 33 be 93 f9 0f 3e
       -0.110507116 -0.21438175 -0.17488793 0.14060049
000080 22 6a 5c 3e 93 1e 1d be cc ff a7 3d 19 dc 20 3d
       0.21524861 -0.15343694 0.08203086 0.0392724
000090 b4 0f 32 bd 32 6c e2 bd 84 c7 b3 3d 1b e6 f7 3d
       -0.043472007 -0.11055793 0.08778289 0.12104436
0000a0 42 51 d4 bd 14 bb 00 3e d8 a4 b7 bd 11 e2 0d be
       -0.10367061 0.12571365 -0.08966988 -0.13855769
0000b0 e3 9b c6 bc f5 36 ef 3d 34 30 11 be 98 93 8c 3e
       -0.024244254 0.11680404 -0.14178544 0.27456355
0000c0 3d 56 46 ba e1 df ca 3d 22 6a 06 be a8 7a 54 be
       -0.0007565951 0.09905983 -0.13126424 -0.20749915
0000d0 6c 3e 88 be 2a a7 49 3e 5d aa 63 3e 85 fa 85 be
       -0.26610124 0.19692674 0.22232957 -0.26167694
0000e0 f1 d7 fa 3c 27 3d bd 3d f5 c1 1a bd 9b 7c 96 bd
       0.030620547 0.092401795 -0.037782628 -0.07347985
0000f0 0a b3 d3 bd 39 62 e2 3d 39 0e 26 bc d1 b6 67 3e
       -0.10336883 0.11053891 -0.010135227 0.22628333
000100 8f 15 91 3d 3c 6b ea 3d 7d f4 5f be 5e 1b 86 3e
       0.0708419 0.114462346 -0.21870609 0.26192755
000110 99 33 42 3b 39 a2 29 3e 1a 43 6a bc a7 57 6a be
       0.0029632805 0.1656579 -0.014298225 -0.22884999
000120 18 41 c7 bd b8 79 6a be c6 b7 c2 bc e2 2d 02 3d
       -0.097292125 -0.22897995 -0.02376927 0.03178204
000130 f5 28 9b bd 75 91 65 3e 2f 37 90 be be 63 53 be
       -0.07576171 0.22418769 -0.28167102 -0.20643517
000140 2a a6 df 3d ec 8a c6 bd fa e9 b7 bd ed 69 80 bd
       0.10920365 -0.09694466 -0.08980174 -0.06270204
000150 90 f5 f7 bd f9 61 d7 bd 19 32 0c 3e a6 2c 1a be
       -0.12107384 -0.10516734 0.13690986 -0.15056095
000160 0b b4 94 bc 64 ee 7b be 69 0b 00 be 0d d0 41 be
       -0.018152257 -0.24602658 -0.12504353 -0.18927021
000170 77 cb aa 3c ad bb 2f bd cd d4 1d be 6d 3f 17 3e
       0.020848973 -0.04290359 -0.15413208 0.14770289
000180 f9 95 52 3e 55 66 47 3e d3 c1 1b be fe 63 4d be
       0.20565023 0.1947263 -0.15210657 -0.20057675
000190 10 54 3a 3d e6 de 84 be 2d 89 1b 3e fc 65 4b 3e
       0.045490324 -0.25951308 0.15189047 0.19863123
0001a0 dd 2d d7 bd 53 1a 1b be 84 e7 30 3e c2 0d 74 be
       -0.105067946 -0.1514676 0.17275816 -0.23833373
0001b0 86 26 4d be 8f 5f 1c 3d c5 e3 0b 3e b7 a2 41 bd
       -0.20034227 0.03817707 0.13661106 -0.047274318
0001c0 b5 ae 85 be 8e 2a 13 3e 67 85 05 3e f9 54 8b be
       -0.26109853 0.14371702 0.1303917 -0.27213266
0001d0 3f d3 21 3d 7c 6a 8f bd 79 46 3f be ed e0 91 3d
       0.0395081 -0.07002732 -0.18679227 0.07122979
0001e0 ca ec 26 3e 58 7c 4c 3e ac 12 40 3d 3f 19 ea bd
       0.16301265 0.19969308 0.046892807 -0.114305966
0001f0 57 c8 7c 3e 29 1b 4d 3e c8 7e 8e 3e 2c 06 3b be
       0.24685799 0.20029892 0.278311 -0.18264073
000200 30 c0 90 3e dd 11 20 3e 90 5b fb bd 3a 2f 08 be
       0.28271627 0.15631814 -0.122733235 -0.13299266
000210 4d 50 86 be ad 5a 6c be 5c 97 34 be 9a e8 0e 3e
       -0.2623314 -0.23081465 -0.17635864 0.13955918
000220 c6 d3 0f 3e 08 15 8a 3e cf 18 96 3d 30 5f 93 be
       0.14045629 0.2696917 0.073289506 -0.2878356
000230 03 bc 43 3d 54 4a ab 3c 57 08 05 bd 52 6d 40 be
       0.047786724 0.020909466 -0.032478657 -0.18791702

linear_relu_stack2.2.bias f4 [12]
000000 22 f8 8c 3e be 96 88 3e 17 48 33 3e 0f a8 bc bd
       0.2753306 0.26677507 0.17507969 -0.09211742
000010 e2 1b a1 3d 75 62 c3 bd 2b fc 3f be 75 39 51 bd
       0.07866646 -0.095402636 -0.18748538 -0.051080186
000020 6e 94 3c 3e 30 fd 81 be d8 f7 7c bd 51 aa e0 bd
       0.18415996 -0.2538848 -0.0617598 -0.10969985

linear_relu_stack2.4.weight f4 [8, 12]
000000 26 07 7a 3e 94 85 09 3e a7 77 25 3e a9 eb 42 bd
       0.2441679 0.13429862 0.16158925 -0.047588024
000010 5f f7 2c 3e 37 c2 36 3e c0 d8 7c 3e 8a 10 2e bd
       0.1689124 0.17847525 0.24692059 -0.04249624
000020 aa 99 1a 3e 51 cf 4e bd 5b 3c 65 be cc 02 85 3e
       0.1509768 -0.05049068 -0.22386305 0.25978696
000030 fb c0 5d 3c 65 3a 6b 3e 4c 63 4d 3e 63 fa 95 3d
       0.01353478 0.22971494 0.2005741 0.07323148
000040 f2 ea 8a bd 4a bd 81 3e 39 5d 31 3e d8 90 8d be
       -0.067830935 0.2533973 0.17320718 -0.2764957
000050 a0 0e 60 bd a3 4c 8d be 5a 55 24 3e 14 0f dd 3d
       -0.054701447 -0.27597532 0.16048184 0.107938915
000060 15 81 10 be 3e b2 5a be 1e 23 71 bd 9b ed 5d 3e
       -0.14111741 -0.21357056 -0.05887138 0.2167267
000070 dc da 92 be e3 96 e9 bd cb 9b 90 be 0c 19 68 be
       -0.286826 -0.114057325 -0.2824386 -0.22665805
000080 53 40 89 3e 6f aa ad 3d a2 9c 25 be 11 d0 90 3e
       0.26806888 0.08479773 -0.16173032 0.28283742
000090 31 a9 3c 3e c0 ae e7 3d ee b4 a7 3d 0f 99 80 be
       0.18423916 0.11312628 0.081888065 -0.25116774
0000a0 fa 3f aa bc c6 11 59 be b1 07 87 3c c1 53 6c be
       -0.02078246 -0.21198186 0.01648316 -0.23078825
0000b0 3e 75 83 bc d9 ea 13 3e ba 0e e6 bd ac c5 31 bd
       -0.016047116 0.14445056 -0.112332776 -0.043401405
0000c0 3f 7e c5 bd c9 38 2c 3e 13 41 a2 3d e0 52 77 be
       -0.0964322 0.16818537 0.07922568 -0.24152708
0000d0 c3 b7 ae bd 99 e2 32 3e 4f 10 e3 3d 28 b6 0f be
       -0.085311435 0.17469253 0.11087095 -0.14034331
0000e0 48 df 28 bd ea 4e 6e 3c 89 87 8e be b7 ec 82 be
       -0.041228563 0.014545182 -0.2783778 -0.25571224
0000f0 7b 32 74 3e 9c 2c 28 bd 2b c6 aa bd a0 50 7e bc
       0.23847382 -0.041058168 -0.08338579 -0.015522152
000100 8b a9 89 3c dc fa 76 bc 32 4e 18 bc ac 8a 67 3e
       0.016804477 -0.015074458 -0.009295987 0.22611493
000110 1c 2e 87 3e 1d 81 7b bc 0d 3a a7 bd 63 2a 88 3e
       0.26402366 -0.015350607 -0.08165369 0.26594839
000120 1b 5f 85 3e dd 6d 6d bd 8f 4c ee bd d9 9e 41 3e
       0.26049122 -0.057966102 -0.11635696 0.18908252
000130 f8 19 80 3e 72 b0 ac bd 68 49 88 be 0a ed 8f be
       0.25019813 -0.08432092 -0.26618505 -0.28110534
000140 12 e1 81 3e 7a b1 bf 3c 93 d1 a0 bd e5 4b 7c 3e
       0.25367028 0.023400057 -0.07852473 0.24638326
000150 1c 95 bd bc 74 cd 3a 39 7a a6 9c 3c 4f 96 b6 bd
       -0.02314239 0.0001781488 0.019122351 -0.08915388
000160 3a bf 9c 3c f0 52 85 3b db c0 88 be 4d 08 83 3e
       0.019134153 0.004068725 -0.26709637 0.2559227
000170 7e 0f 3f be 60 27 2f be 7a e1 77 bd ab fd 10 3e
       -0.18658254 -0.17104864 -0.060517766 0.14159267

linear_relu_stack2.4.bias f4 [8]
000000 cb ab cd 3b 14 06 0b 3c 59 f3 43 be 3b e0 65 3e
       0.006276583 0.008485336 -0.19135799 0.22448818
000010 7e 5e 94 3e 7d a9 08 3e 71 a6 6d bd 4a eb 6c be
       0.28978342 0.13345905 -0.05802006 -0.2313663
