Results/QCNN_demonstration/Noiseless/Model 1/Four_Model1_HSinner.pt (torch, 2743 bytes, 6 tensors)

linear_relu_stack1.0.weight f4 [6, 4]
00000000: 2fc5 4f3e 3245 f13d 6358 6a3e 0a03 fcbb
00000010: 3454 7fbe c849 fdbd 24b9 013e d0db 1bbd
00000020: c69a 5dbe b5ba 773d 8f2e 883e c069 223c
00000030: 7aec d53d b2f9 f0be 6242 1c3c 31b9 b5be
00000040: c382 c0be 369c ccbe bb76 763e d445 cebe
00000050: a3f9 cabd 4a05 7ebe 5af8 b4be dcb3 c8be
0.20290063 0.11780776 0.2288528 -0.007690792 -0.24934465 -0.12367588 0.12668282 -0.038051426
-0.21641073 0.060480792 0.2659802 0.009912908 0.10445495 -0.47065502 0.009537311 -0.35492852
-0.37599763 -0.3996293 0.2406873 -0.4028765 -0.09910896 -0.24806705 -0.35345727 -0.39199722

linear_relu_stack1.0.bias f4 [6]
00000000: f426 dcbd 14d0 f1be 687d 113e 1a79 8abe
00000010: 89b5 37be 9fe2 f43e
-0.10749617 -0.47229064 0.14207995 -0.27045518 -0.17940344 0.47829148

linear_relu_stack1.2.weight f4 [6, 6]
00000000: a917 86be 1008 5e3e 8568 8b3e 9e4b 1d3e
00000010: b2fe 743e ecf6 cfbe 6239 b83e e68c ce3e
00000020: 5238 203e 236e 6f3e e17d 723e ef11 0e3d
00000030: bde9 a8be a83f 21bd a949 c4be 5343 a4be
00000040: 3e66 44be f9ad 7ebe 1914 35be 4497 f4bd
00000050: 2f81 1bbc 7250 7c3e 20e7 953d c60b 4dbe
00000060: fff3 bbbe 4026 dd3c 7317 913e 76ab 19be
00000070: baa8 6abe ab00 723e 5066 913e b0e3 1d3e
00000080: 971a b8be 8ea7 16bc df30 a8be 3976 83be
-0.26189926 0.21682763 0.2722818 0.15360877 0.23925284 -0.40618074 0.3598128 0.40341872
0.15646484 0.23381858 0.23680831 0.03468507 -0.32990828 -0.039367348 -0.38337448 -0.32082614
-0.19179627 -0.24871053 -0.17683448 -0.11942914 -0.009491249 0.24640062 0.07319474 -0.20024022
-0.36709592 0.026995778 0.28338203 -0.15006813 -0.22915927 0.23633067 0.2839837 0.15418887
-0.35957786 -0.009195222 -0.32849786 -0.25676134

linear_relu_stack1.2.bias f4 [6]
00000000: e7a6 3a3d 7621 cb3d 8e48 ab3e 0aa6 b93e
00000010: e3a9 ac3e a6f9 14be
0.045569327 0.099184915 0.33453792 0.3625949 0.33723363 -0.14548358

linear_relu_stack1.4.weight f4 [4, 6]
00000000: a14b 77be 3e8f 38be cc5a 7b3e d560 91be
00000010: edb4 31be 97c3 a93e 25ab 513c 5091 67be
00000020: 2d25 553c c9a6 80be df24 46be 254e 10be
00000030: d745 f6bc bb6a 9abe e5fd 9b3e a5c7 93be
00000040: 86d6 cebe 35aa 9c3e 243b b43e 914e b03c
00000050: 5358 203c 2ad8 953c 0350 0dbe e2cb 4ebe
-0.24149944 -0.18023393 0.24546355 -0.2839419 -0.17354174 0.33157036 0.012797152 -0.22614026
0.013009352 -0.25127247 -0.19350003 -0.1409231 -0.0300626 -0.30159554 0.30467144 -0.28863254
-0.40398043 0.30598608 0.3520137 0.021521838 0.009786683 0.018291552 -0.13800053 -0.20194963

linear_relu_stack1.4.bias f4 [4]
00000000: 10b0 bebe bb17 57be 6720 b63e 0613 a53e
-0.372437 -0.21005146 0.35571596 0.32241076
