Results/QCNN_demonstration/Real device/Real/Model3 pre-train/Model3_35.pt (torch, 3687 bytes, 4 tensors)

layer1.0.weight f4 [1, 1, 3, 3]
0	0x3e500d36	0.2031754
1	0x3e7cdfa4	0.24694687
2	0x3ea612f9	0.3243635
3	0xbdc987d1	-0.09840358
4	0xbced8d44	-0.028998025
5	0x3e97202f	0.29516742
6	0x3cac1be8	0.0210094
7	0x3e2daeaa	0.1696116
8	0x3e057b30	0.13035274

layer2.0.weight f4 [1, 1, 3, 3]
0	0xbe609621	-0.2193227
1	0x3e22e50d	0.15907688
2	0x3e185e91	0.14879824
3	0x3df1ae08	0.11800772
4	0x3eb502e0	0.35353756
5	0x3e785464	0.24250942
6	0x3df7cc2e	0.12099491
7	0xbe5c07ad	-0.21487303
8	0x3e0f54c7	0.13997184

fc.weight f4 [7, 49]
0	0x3e04d46b	0.12971656
1	0x3dc0b3f9	0.09409327
2	0x3d1e0438	0.038578242
3	0xbe0781c4	-0.13233095
4	0xbc5a6115	-0.01332881
5	0x3ba826fd	0.005131601
6	0x3d7e41b7	0.06207439
7	0x3e004f65	0.12530287
8	0x3da44870	0.08021629
9	0xbd59dcca	-0.053189076
10	0x3cabcd38	0.02097188
11	0x3da27f01	0.0793438
12	0xbd08122f	-0.033220466
13	0x3d5fd4e4	0.054646388
14	0x3dd6bb56	0.1048495
15	0xbdfcf50c	-0.123514265
16	0x3c48220c	0.012215149
17	0x3cd343cd	0.025789166
18	0xbd2030f4	-0.039109185
19	0x3d35527d	0.04426812
20	0xbcb98f3b	-0.022651305
21	0xbcbcb5e2	-0.023035947
22	0x3dfd53e0	0.123695135
23	0xbba9fd64	-0.005187677
24	0xbd11f21c	-0.035631284
25	0x3cce8ff7	0.025215132
26	0x3d64fb02	0.055903442
27	0xbd054432	-0.03253574
28	0x3db072dd	0.086156584
29	0x3d82f107	0.063936286
30	0xbc9bd596	-0.019022744
31	0x3dabbcf8	0.08385652
32	0xbd4d0648	-0.05005482
33	0xbda8150b	-0.08207139
34	0xbc305f4d	-0.010764909
35	0xbe0c2e47	-0.13689528
36	0x3de9a172	0.114077464
37	0x3d621fe9	0.055206213
38	0x3c19d1b7	0.009388379
39	0xbdbe8653	-0.09302964
40	0x3dd67763	0.1047199
41	0xbdb87872	-0.09007348
42	0x3ae3aaf4	0.0017369674
43	0xbda73a93	-0.08165469
44	0xbcf86ead	-0.030326212
45	0x3dc7f9e6	0.09764461
46	0x3d958ad2	0.073018685
47	0x3dc3d980	0.09562969
48	0x3dd9ee1f	0.10641121
49	0xbde88b40	-0.11354685
50	0xbdb8b7d0	-0.090194345
51	0xbd4e797a	-0.050408818
52	0xbe14602f	-0.14489816
53	0xbe0b1a88	-0.1358434
54	0xbde11e58	-0.10992116
55	0xbc7d0c8c	-0.015444886
56	0x3a2348ea	0.00062288216
57	0x3dd00542	0.10157253
58	0xbdcb1b4c	-0.09917316
59	0xbdec8db7	-0.115504675
60	0xbdd47f15	-0.103758015
61	0x3b164d25	0.0022934165
62	0x3c2795da	0.0102285985
63	0xbdeb3b87	-0.11485963
64	0xbd2c4fd2	-0.04206831
65	0xbe15185a	-0.1456007
66	0x3ce62fe4	0.028099008
67	0xbe141716	-0.14461932
68	0x3d812c43	0.063072704
69	0x3dc0762c	0.093975395
70	0x3d929eab	0.0715917
71	0xbe35ebad	-0.17765684
72	0xbdf3cc33	-0.11904182
73	0xbd6ecf9f	-0.05830347
74	0x3d85991e	0.065233454
75	0xbe292e49	-0.16521563
76	0xbe10bcc7	-0.14134513
77	0xbe3427db	-0.17593329
78	0xbe5b8997	-0.21439205
79	0x3be33493	0.0069337576
80	0x3dfe57ea	0.12419112
81	0xbd39d66b	-0.0453705
82	0xbdb1c229	-0.08679611
83	0x3d8c2584	0.06843093
84	0x3d796fd2	0.060897656
85	0xbad080de	-0.0015907546
86	0xbd13afc7	-0.036056306
87	0xbdd2ddc0	-0.10296202
88	0xbd8c0b12	-0.06838049
89	0x3d605d57	0.054776516
90	0x3d95a568	0.07306939
91	0xbdb528ea	-0.08845694
92	0xbd30c56c	-0.043157026
93	0xbd875fbb	-0.06610056
94	0xbd67a292	-0.056551524
95	0xbdf33b91	-0.11876596
96	0xbde29b31	-0.11064757
97	0x3d8e5804	0.069503814
98	0x3d72c330	0.059268177
99	0xbde8f53d	-0.113749005
100	0x3c357298	0.011074685
101	0x3d345ef5	0.04403587
102	0xbdfc46cb	-0.1231819
103	0xbd088d7a	-0.033338048
104	0xbb966031	-0.0045891036
105	0xbd2e87e1	-0.042610053
106	0x3ba44638	0.0050132535
107	0xbcf5c2ef	-0.030000178
108	0x3da9a00a	0.08282478
109	0x3ccb0bce	0.024785902
110	0xbdccae70	-0.09994209
111	0x3e01862a	0.12648836
112	0xbe112eba	-0.14177981
113	0x3dd1fa21	0.102527864
114	0xbd536c76	-0.05161711
115	0xbd941ce9	-0.07232077
116	0x3da4a810	0.08039868
117	0x3d4d7910	0.050164282
118	0xbc1877da	-0.009305919
119	0xbd046995	-0.032327253
120	0xbd00960d	-0.0313931
121	0x3dc83691	0.09776033
122	0xbd03688e	-0.032082133
123	0xbdbb700b	-0.0915223
124	0xbb995c99	-0.004680228
125	0xbd1740d7	-0.03692707
126	0x3df78e7c	0.120877236
127	0xbddf429f	-0.10901379
128	0x3c73dad7	0.014883718
129	0xbb7c9d43	-0.0038545884
130	0x3d2434c9	0.040089402
131	0xbca5d836	-0.020244699
132	0xbc22f343	-0.009945693
133	0x3de33d20	0.11095643
134	0xbdbab7fc	-0.091171235
135	0xbdfcb1a3	-0.12338569
136	0x3d577292	0.052599497
137	0xbd4c8534	-0.04993172
138	0xbdecf372	-0.11569871
139	0x3c782aa7	0.015146888
140	0x3df239f8	0.11827463
141	0xbd1b6cf5	-0.037945706
142	0x3d85f7bc	0.06541392
143	0xbde33e14	-0.11095825
144	0xbb61511f	-0.0034380627
145	0xbc84d0df	-0.016212879
146	0xbd689ee1	-0.056792144
147	0xbc847ecc	-0.016173743
148	0xbd90e8b3	-0.07075634
149	0x3deee148	0.11664063
150	0xbdb25db9	-0.087092824
151	0xbdbc061c	-0.09180853
152	0x3dd6b526	0.1048377
153	0x3e12d6a4	0.14339691
154	0x3e0702bc	0.13184637
155	0x3d980045	0.074219264
156	0x3dca3702	0.09873773
157	0x3e1d55b8	0.1536473
158	0x3d936ec0	0.07198858
159	0xbd029c6b	-0.031887453
160	0xbd5d80f3	-0.054078054
161	0x3dbb725b	0.09152671
162	0xbc858a75	-0.016301373
163	0xbc9688c2	-0.018375758
164	0xbd6d7318	-0.05797109
165	0x3e30018c	0.1718809
166	0xbc4e6f24	-0.01259974
167	0xbddb2ae2	-0.107015386
168	0x3dc63688	0.0967837
169	0x3cdd0040	0.026977658
170	0x3d4a2e63	0.049360644
171	0xbe449c97	-0.1920036
172	0x3c8af96c	0.016964637
173	0x3d501cfe	0.0508089
174	0xbd990b6f	-0.07472884
175	0xbcb5d6dc	-0.02219718
176	0x3e13479f	0.1438279
177	0xbcc61037	-0.024177654
178	0xbda6cbd0	-0.08144343
179	0x3e38525f	0.18000172
180	0x3e2f8544	0.1714068
181	0x3c95fb99	0.018308448
182	0x3dc5ac49	0.096520014
183	0x3e1ec719	0.15505637
184	0xbdea697c	-0.11445901
185	0x3e1026e9	0.14077343
186	0x3d933d14	0.07189384
187	0xbdaaa81c	-0.083328456
188	0x3ce997b8	0.028514728
189	0xbca77050	-0.020439297
190	0xbdeb34a9	-0.114846535
191	0x3d4d672b	0.050147217
192	0x3e024ce5	0.12724645
193	0x3b5bee95	0.0033558954
194	0xbd891272	-0.06692971
195	0xbd17d5ae	-0.037069015
196	0x3dfb26da	0.1226327
197	0xbe0bdb40	-0.13657856
198	0x3dc0d430	0.094154716
199	0xbda8c347	-0.08240371
200	0xbd9bf276	-0.07614605
201	0x3cd36fce	0.025810149
202	0x3aac23a6	0.0013133183
203	0x3d0406f9	0.032233212
204	0xbe0a205e	-0.1348891
205	0x3dda0e46	0.10647254
206	0xbd09dc8e	-0.033657603
207	0x3c2991a0	0.010349661
208	0x3dca1b3b	0.09868475
209	0xbd4788b0	-0.04871434
210	0xbd8f7c92	-0.07006182
211	0x3d4d92e2	0.050188906
212	0x3de9016c	0.11377224
213	0xbddcb22d	-0.10776172
214	0x3e087e71	0.13329484
215	0xbdbfdf84	-0.09368804
216	0xbdf3e27a	-0.11908431
217	0xbd1ba3b9	-0.037997935
218	0x3cb14c1d	0.021642739
219	0x3dc10239	0.09424252
220	0x3da480c2	0.08032371
221	0x3d2ea376	0.042636357
222	0x3d3e4153	0.046449017
223	0xbd990fda	-0.074737266
224	0x3da7be42	0.08190586
225	0x3d7cbf20	0.06170571
226	0xbd95a050	-0.07305968
227	0xbdc907a8	-0.098159134
228	0x3dc7b7cf	0.097518556
229	0x3de15c9c	0.11003992
230	0xbc2f919d	-0.010715869
231	0x3cf145a0	0.029452145
232	0x3d189a9c	0.037256822
233	0x3cd97a59	0.026547598
234	0xbdb762fe	-0.08954428
235	0x3bd7945a	0.006578964
236	0x3dc1f814	0.09471145
237	0xbe0ed19b	-0.13947146
238	0xbe045215	-0.12921937
239	0xbdd813db	-0.10550662
240	0xbdf3573a	-0.118818715
241	0x3d03513b	0.03205989
242	0xbdc49297	-0.09598272
243	0x3dffbf9f	0.12487721
244	0xbcc9dae5	-0.02464051
245	0xbdb89469	-0.09012682
246	0xbd5f2275	-0.05447622
247	0x3decb632	0.115581885
248	0xbd9309a9	-0.07179577
249	0xbe04d16f	-0.12970518
250	0x3daf0af8	0.08547014
251	0xbdd0827e	-0.101811394
252	0xbd140b27	-0.03614345
253	0x3dc9a164	0.09845236
254	0xbc279975	-0.010229458
255	0xbccae480	-0.02476716

fc.bias f4 [7]
0	0xbd3f6e10	-0.046735823
1	0xbc9ba3de	-0.018999036
2	0xbdc36254	-0.09540239
3	0xbdb9ce48	-0.09072548
4	0xbe066f26	-0.13128337
5	0xbd5000c7	-0.05078199
6	0xbdbd881a	-0.09254475
