Results/QCNN_demonstration/Real device/Real/Model3 pre-train/Model3_2.pt (torch, 3679 bytes, 4 tensors)

layer1.0.weight f4 [1, 1, 3, 3]
0	0x3e1d5890	0.15365815
1	0x3e2d721d	0.16938062
2	0x3e7b291a	0.24527398
3	0xbe1347a3	-0.14382796
4	0xbdcc51c7	-0.09976535
5	0x3e63d3c3	0.2224875
6	0xbcde390d	-0.027126813
7	0x3dfa346a	0.122170284
8	0x3daff55d	0.08591721

layer2.0.weight f4 [1, 1, 3, 3]
0	0xbe828711	-0.25493672
1	0x3d013d94	0.031552866
2	0x3ca55ef6	0.020186882
3	0x3d96579f	0.07340931
4	0x3e63f7cb	0.22262494
5	0x3de4e40a	0.111763075
6	0x3dcc2bf8	0.09969324
7	0xbe9968ec	-0.29962862
8	0x3d37a601	0.044836048

fc.weight f4 [7, 49]
0	0x3e04632b	0.12928455
1	0x3dbef5ce	0.09324227
2	0x3d0bc16d	0.034120012
3	0xbe09b200	-0.13446808
4	0xbc78cee1	-0.0151860425
5	0x3c0bbcf8	0.00852894
6	0x3d7d16c7	0.0617893
7	0x3dff1916	0.12455957
8	0x3d961de2	0.073299184
9	0xbdb39743	-0.08769085
10	0x3c24cef9	0.010059112
11	0x3dca9259	0.09891195
12	0xbc83f676	-0.016108733
13	0x3d60e3bd	0.05490469
14	0x3dd19535	0.10233537
15	0xbe0fcb76	-0.14042458
16	0xbbf1330e	-0.0073608225
17	0x3d07233b	0.032992583
18	0xbcf87a8d	-0.030331874
19	0x3d61ffbf	0.05517554
20	0xbcef8d07	-0.029242052
21	0xbcec3932	-0.028835867
22	0x3de47855	0.11155764
23	0xbb909fc6	-0.0044135777
24	0xbc547ded	-0.012969476
25	0x3d1c1d9f	0.038114186
26	0x3d471033	0.048599433
27	0xbd145e1e	-0.03622257
28	0x3dafb574	0.08579531
29	0x3d84a104	0.06476024
30	0x3a013594	0.0004928943
31	0x3de61023	0.112335466
32	0xbd806507	-0.062692694
33	0xbdc13866	-0.09434585
34	0xbc499806	-0.012304312
35	0xbe09b2f3	-0.1344717
36	0x3df0134a	0.11722429
37	0x3d9b6513	0.07587638
38	0xba0c4d2c	-0.00053520757
39	0xbdfca058	-0.12335271
40	0x3dc8f4cf	0.098123185
41	0xbdb7f074	-0.0898141
42	0x3b4322d1	0.002977539
43	0xbd96cd1b	-0.073633395
44	0xbd037164	-0.03209056
45	0x3db5f1d9	0.088840194
46	0x3d848bec	0.064720005
47	0x3dc1b5d2	0.094585076
48	0x3dd97457	0.10617893
49	0xbdd5e59f	-0.104441874
50	0xbda3f857	-0.080063514
51	0xbd2ee5f4	-0.04269977
52	0xbe0f0787	-0.13967715
53	0xbe052734	-0.13003236
54	0xbdca0f05	-0.09866146
55	0xbbb5a56c	-0.0055434015
56	0x3c1ff5d3	0.009763199
57	0x3deec7bb	0.11659189
58	0xbdc12385	-0.09430603
59	0xbdc9e4f3	-0.09858122
60	0xbd668936	-0.0562832
61	0x3d2357b1	0.03987855
62	0x3cd4b566	0.025965404
63	0xbdcff335	-0.1015381
64	0xbbf3ce73	-0.007440382
65	0xbdf30972	-0.11867036
66	0x3d35e2a0	0.04440558
67	0xbda5d168	-0.08096582
68	0x3dea521f	0.114414446
69	0x3dddd253	0.10831132
70	0x3dc11376	0.0942754
71	0xbdeec869	-0.11659319
72	0xbdd81b69	-0.10552103
73	0xbd97acd1	-0.07406009
74	0x3e0ad3f3	0.13557415
75	0xbdf56b7a	-0.1198339
76	0xbe0728a5	-0.13199098
77	0xbe13c419	-0.14430274
78	0xbe105b32	-0.14097288
79	0x3c2ca621	0.010537655
80	0x3e0762a9	0.1322123
81	0x3cc1cf70	0.023658484
82	0xbd614405	-0.05499651
83	0x3d9ea17e	0.07745646
84	0x3db4aed6	0.0882241
85	0x3d96befb	0.073606454
86	0xbb658bfd	-0.0035026066
87	0xbdb2364f	-0.08701765
88	0xbcfba6f1	-0.030719252
89	0x3d89efdb	0.06735202
90	0x3da9009e	0.08252071
91	0xbd9c25e3	-0.07624414
92	0xbc2d1c25	-0.010565792
93	0xbd68beb7	-0.056822505
94	0xbd78a5ff	-0.06070518
95	0xbde83609	-0.113384314
96	0xbdcfb09e	-0.10141109
97	0x3da14b07	0.078756385
98	0x3d79df52	0.06100399
99	0xbde5b371	-0.11215866
100	0x3c4bdc65	0.012442683
101	0x3d394fa3	0.045241963
102	0xbdfa84b5	-0.12232343
103	0xbd016ff5	-0.03160091
104	0xbb45bfca	-0.003017413
105	0xbd287d58	-0.041135162
106	0x3bb472b5	0.005506838
107	0xbcea0495	-0.028566638
108	0x3db8fcd3	0.090325974
109	0x3cf1a84d	0.029499197
110	0xbdcb0ade	-0.09914182
111	0x3e02d590	0.1277678
112	0xbe105e2f	-0.14098428
113	0x3dd88d22	0.10573794
114	0xbd293255	-0.041307766
115	0xbd86f49a	-0.06589623
116	0x3dacf8ba	0.08445878
117	0x3d583b4e	0.052790932
118	0xbbfbedcf	-0.007688261
119	0xbcf469de	-0.029835638
120	0xbcb3c6ea	-0.021945436
121	0x3dd33409	0.10312659
122	0xbd0c17f5	-0.034202535
123	0xbdb1efcb	-0.08688315
124	0x3aa59e16	0.0012635614
125	0xbd120ff4	-0.035659745
126	0x3e01f6c1	0.12691785
127	0xbdcf041f	-0.10108208
128	0x3c374991	0.011186973
129	0x39a0b691	0.000306536
130	0x3d50e154	0.05099614
131	0xbc84eeaf	-0.016227094
132	0xbc0beebe	-0.008540807
133	0x3dee180e	0.11625682
134	0xbdb8a89b	-0.09016534
135	0xbdf759fc	-0.1207771
136	0x3d81272e	0.06306301
137	0xbd3065f9	-0.043066
138	0xbdee4111	-0.11633504
139	0x3c8b402e	0.016998377
140	0x3df6c3e7	0.12049084
141	0xbd1b1fa5	-0.037871975
142	0x3d8d1e3b	0.06890532
143	0xbdde8b1a	-0.10866375
144	0xbb331b24	-0.002732941
145	0xbc6fe6a2	-0.0146423895
146	0xbd6141ee	-0.054994516
147	0xbc8958e9	-0.016766028
148	0xbd91fb2c	-0.07127985
149	0x3deea4e5	0.11652545
150	0xbdad3f88	-0.08459383
151	0xbdba07b8	-0.090835035
152	0x3dd3c741	0.10340739
153	0x3e118d48	0.14214051
154	0x3e067582	0.13130763
155	0x3d8b7627	0.06809645
156	0x3dac5c1a	0.084160045
157	0x3e0c9f1a	0.13732567
158	0x3d3e6f7a	0.04649303
159	0xbd530381	-0.051517013
160	0xbd7a48e8	-0.061104685
161	0x3db0b3b3	0.08628025
162	0xbd5f1457	-0.054462757
163	0xbd5b1985	-0.053491134
164	0xbd5a7b9d	-0.053340543
165	0x3e00f6e9	0.12594189
166	0xbd458a60	-0.048227668
167	0xbdf0b03a	-0.117523625
168	0x3d9e3c98	0.07726401
169	0xbd38954f	-0.045064267
170	0x3d2eb556	0.042653404
171	0xbe0866e2	-0.13320497
172	0xbd1d5a41	-0.03841615
173	0x3b98c851	0.0046625515
174	0xbda0506f	-0.078278415
175	0xbd5313bc	-0.051532492
176	0x3d8b0a27	0.06789046
177	0x3c01722a	0.007900754
178	0xbd315c6b	-0.043301027
179	0x3dd505aa	0.10401471
180	0x3e0f537e	0.13996693
181	0x3c8fabbc	0.017537944
182	0x3d9a7160	0.07541156
183	0x3daae766	0.08344917
184	0xbde59d6c	-0.112116665
185	0x3e0b35eb	0.13594787
186	0x3c921cc0	0.017835975
187	0xbdc00570	-0.09376037
188	0x3ce40247	0.027833117
189	0xbcbf1f90	-0.02333048
190	0xbe07460b	-0.13210313
191	0x3d63b9a8	0.055596977
192	0x3e0cbbab	0.13743465
193	0xbb1e8632	-0.0024188873
194	0xbd8d72f9	-0.06906695
195	0xbd1af655	-0.037832577
196	0x3dfb6e17	0.12276857
197	0xbe0be383	-0.13661008
198	0x3dc0ec8a	0.09420116
199	0xbda6a97f	-0.081377976
200	0xbd98bf4f	-0.07458364
201	0x3cccd627	0.02500446
202	0x3ae0a644	0.0017139395
203	0x3d048bab	0.03235976
204	0xbe0aca4a	-0.1355373
205	0x3ddb70ef	0.107149
206	0xbd58c0a9	-0.05291811
207	0xbc113fce	-0.00886531
208	0x3dbc9012	0.09207167
209	0xbd4af444	-0.049549356
210	0xbd914084	-0.070923835
211	0x3d322d3d	0.043500174
212	0x3dcb7e6b	0.09936222
213	0xbe019580	-0.12654686
214	0x3de3cff3	0.111236475
215	0xbdd21cb2	-0.102593794
216	0xbdf5cc34	-0.12001839
217	0xbd2643e0	-0.040592074
218	0x3b3989fd	0.0028311007
219	0x3da7fd57	0.082026176
220	0x3d9cafba	0.07650705
221	0x3c8a53a8	0.016885594
222	0x3d165017	0.036697473
223	0xbd973ab4	-0.073842436
224	0x3d9a6759	0.07539243
225	0x3d18e391	0.0373264
226	0xbda73aa4	-0.08165482
227	0xbde760a2	-0.11297728
228	0x3d9273e5	0.071510114
229	0x3dd81a34	0.10551873
230	0xbc216d13	-0.0098526655
231	0x3cc5f2ff	0.024163721
232	0x3c880f75	0.016608933
233	0x3c4de7dc	0.012567487
234	0xbddf6b4b	-0.109091364
235	0xbbc7b390	-0.0060944036
236	0x3dc79198	0.09744567
237	0xbe0f1e89	-0.13976492
238	0xbe05568d	-0.13021298
239	0xbde95b4c	-0.113943666
240	0xbe03661b	-0.12831919
241	0x3ccec216	0.025239032
242	0xbdc29300	-0.09500694
243	0x3dfeecd5	0.12447516
244	0xbccaed13	-0.024771249
245	0xbdb90eb7	-0.0903601
246	0xbd5e9c43	-0.05434824
247	0x3ded6ff1	0.11593617
248	0xbd95a1e8	-0.07306272
249	0xbe070261	-0.13184501
250	0x3dace756	0.08442561
251	0xbdd0f9f4	-0.10203925
252	0xbd153254	-0.03642495
253	0x3dcb179a	0.09916611
254	0xbc342bfe	-0.010996817
255	0xbd0462ed	-0.032320905

fc.bias f4 [7]
0	0xbd4258ee	-0.04744809
1	0x3bc88c3a	0.006120232
2	0xbdb91818	-0.09037799
3	0xbdbebab2	-0.09312953
4	0xbe040430	-0.12892222
5	0xbd4e19f6	-0.050317727
6	0xbdbd881a	-0.09254475
