Other Experiments/Noisy_Kuzushiji/NQE1000.pt (torch, 9999 bytes, 6 tensors)

layer1.0.weight f4 [1, 1, 3, 3]
0.3113006 0.0814388 0.36012313 -0.032522846 0.39216825 0.18635672 0.09878732 0.063297085
0.32945374
00000000: cb62 9f3e 63c9 a63d 0f62 b83e ad36 05bd
00000010: 47ca c83e 4cd4 3e3e 0251 ca3d e7a1 813d
00000020: 29ae a83e

layer2.0.weight f4 [1, 1, 3, 3]
-0.20822093 -0.3626994 -0.04832547 -0.34239522 -0.033341885 -0.4628091 0.35030335 -0.16532046
-0.06605122
00000000: de37 55be bcb3 b9be eef0 45bd 6d4e afbe
00000010: 8091 08bd 50f5 ecbe f65a b33e c449 29be
00000020: dd45 87bd

fc1.weight f4 [32, 49]
0.115191795 0.04298292 0.0035663687 -0.07989465 0.011968937 -0.117162764 0.020109769 0.13921276
0.10412432 0.0913057 -0.0665533 0.004753358 0.06425372 -0.05057233 0.10932514 0.161229
-0.02304226 -0.10575943 -0.09660549 -0.09956948 -0.06251284 0.09076829 0.11837396 -0.10394089
-0.15472142 -0.052528013 0.06270436 0.1506374 0.1655791 0.048752643 0.11119214 -0.08808195
0.0019845213 0.01344958 0.09516194 -0.107657716 0.107088685 -0.111050144 -0.008083571 0.01653558
0.113708586 -0.026733264 -0.1201088 0.07399538 -0.12489011 0.10796405 -0.0957868 -0.14373796
-0.14171745 0.11828866 -0.12907034 0.01936391 0.09971388 -0.06685839 -0.010020898 0.019079862
-0.072541736 0.015553474 -0.099021874 0.14637181 -0.08932692 -0.07723393 0.13786797 -0.107792094
0.12229383 0.037422616 -0.09733604 0.04514565 -0.05935509 -0.0412561 0.028873654 0.09974137
0.13236772 0.03363677 0.089876585 -0.008452033 -0.13559976 0.07253056 -0.1125972 0.10406775
-0.06990521 0.038894888 -0.14723146 -0.11950346 -0.088072516 -0.0005759155 -0.02870749 -0.022710318
-0.11477858 -0.08201945 0.092279464 -0.10471877 0.024166867 -0.10963484 0.018856335 -0.049031314
-0.03439216 -0.08851361 0.095360324 -0.0053980597 -0.07606643 0.017894847 -0.075821914 0.053835835
-0.07930089 0.032031946 -0.12044142 0.048844106 0.057844404 0.07985639 0.082438014 0.1215599
0.020424448 -0.025477776 -0.09809045 0.09677616 -0.121265866 -0.057200532 0.13311933 0.060123865
0.0074121202 -0.045151856 -0.1328891 0.0076555843 -0.1397877 0.056229442 0.10859576 0.13727355
0.1368913 0.01784902 0.11032689 0.09498845 0.11380509 -0.08174219 0.06278941 0.12019879
0.12610249 -0.04470239 0.020699732 0.015325341 -0.09114403 0.005095882 0.0872097 0.08683788
-0.105420835 -0.03566618 -0.112396166 0.1455769 0.06217755 -0.028890608 0.051857375 -0.119245045
0.08125419 -0.03754308 -0.0708246 0.14260639 -0.010393753 -0.01591985 0.117681704 0.09050885
0.11858842 -0.028156122 -0.07023104 -0.11453071 0.00011996998 0.12639563 -0.0810279 -0.09091712
-0.09083058 -0.0816198 0.12711266 -0.12537673 0.031169808 0.06308475 0.08057031 -0.095027246
-0.13522841 0.11731946 -0.041124813 0.12441066 -0.049547635 -0.06820062 0.026120897 0.024440069
-0.05278766 -0.10525185 -0.11497923 -0.06443382 -0.06499129 0.10959818 0.074053325 0.120498426
-0.07460607 0.10491675 0.079636425 0.07484258 0.0060687987 -0.110114284 0.06479879 0.028183065
-0.026140299 -0.047876503 -0.014160721 -0.07526323 -0.09170695 0.02014586 -0.061679266 -0.08922081
-0.024343109 0.08117304 0.08561931 -0.0037492306 -0.13409181 -0.034993004 0.0048910896 0.0732509
-0.07659621 0.08327341 0.08447671 0.012287776 -0.1322256 -0.10418909 0.06167573 0.13122258
-0.016087342 0.1348436 0.1168997 -0.071642056 -0.11390811 0.0005341649 0.110624395 0.056575455
-0.114059284 -0.04762007 0.14186817 0.045287166 -0.00940019 -0.06287699 -0.17869927 -0.085314654
-0.03550694 -0.072698906 -0.06726336 -0.014038526 -0.076286614 0.1375656 -0.011648199 0.073354855
-0.036002595 0.12048683 -0.116603844 0.14778884 -0.04234825 0.05845944 -0.020835543 -0.044584576
00000000: ade9 eb3d dc0e 303d bdb9 693b ce9f a3bd
00000010: 5c19 443c 08f3 efbd 3ebd a43c ca8d 0e3e
00000020: 223f d53d 7cfe ba3d 194d 88bd 0fc2 9b3b
00000030: 7497 833d ee24 4fbd dce5 df3d 3719 253e
00000040: 1fc3 bcbc 6698 d8bd 19d9 c5bd 15eb cbbd
00000050: bb06 80bd bae4 b93d 0c6e f23d f6de d4bd
00000060: 4b6f 1ebe 9d27 57bd 256b 803d b140 1a3e
00000070: 918d 293e dab0 473d b4b8 e33d 4f64 b4bd
00000080: be0e 023b a15b 5c3c 43e4 c23d a67b dcbd
00000090: 5051 db3d 426e e3bd f470 04bc a075 873c
000000a0: 0ce0 e83d b8ff dabc 9afb f5bd e48a 973d
000000b0: 63c6 ffbd 411c dd3d df2b c4bd 0b30 13be
000000c0: 611e 11be 5341 f23d 042b 04be 10a1 9e3c
000000d0: ca36 cc3d 0ded 88bd b12e 24bc 5f4d 9c3c
000000e0: c390 94bd 00d4 7e3c fbcb cabd 7ee2 153e
000000f0: 08f1 b6bd d32c 9ebd 432d 0d3e 1ac2 dcbd
00000100: 3075 fa3d 7548 193d 1e58 c7bd a5ea 383d
00000110: 531e 73bd 28fc 28bd 7188 ec3c 3445 cc3d
00000120: 678b 073e b6c6 093d 3711 b83d 657a 0abc
00000130: aada 0abe e78a 943d 5c99 e6bd 7921 d53d
00000140: 762a 8fbd 3f50 1f3d d8c3 16be 3bbe f4bd
00000150: 5d5f b4bd 09f9 16ba f82b ebbc fd0a babc
00000160: 0811 ebbd d0f9 a7bd 04fd bc3d cb76 d6bd
00000170: 98f9 c53c 3b88 e0bd 9a78 9a3c 0fd5 48bd
00000180: cbde 0cbd a046 b5bd 464c c33d 35e2 b0bb
00000190: b7c8 9bbd 3798 923c 8548 9bbd f782 5c3d
000001a0: 8168 a2bd ee33 033d fea9 f6bd c210 483d
000001b0: 41ee 6c3d bf8b a33d 43d5 a83d 66f4 f83d
000001c0: 2c51 a73c c5b6 d0bc a5e3 c8bd 9432 c63d
000001d0: 3d5a f8bd 1b4b 6abd 6f50 083e 7144 763d
000001e0: 5fe1 f23b 27f1 38bd 1514 08be b2db fa3b
000001f0: 8224 0fbe d850 663d 7467 de3d 7091 0c3e
00000200: 3c2d 0c3e 1c38 923c 11f3 e13d 4e89 c23d
00000210: a512 e93d 7368 a7bd bc97 803d c92a f63d
00000220: 0321 013e da19 37bd 7c92 a93c 2417 7b3c
00000230: b9a9 babd 5bfb a63b 009b b23d 0fd8 b13d
00000240: e1e6 d7bd b316 12bd f62f e6bd 1c12 153e
00000250: e3ad 7e3d ffab ecbc 6668 543d bf36 f4bd
00000260: 9968 a63d c6c6 19bd 7d0c 91bd 6907 123e
00000270: 8f4a 2abc 586a 82bc 1b03 f13d b45c b93d
00000280: 7cde f23d aba7 e6bc 4bd5 8fbd 148f eabd
00000290: 6498 fb38 db6d 013e f5f1 a5bd c132 babd
000002a0: 6205 babd 4828 a7bd d229 023e c262 00be
000002b0: d357 ff3c 9432 813d 0c02 a53d a59d c2bd
000002c0: 5179 0abe 2f45 f03d 7e72 28bd 04cb fe3d
000002d0: 76f2 4abd c4ac 8bbd 7efb d53c 8a36 c83c
000002e0: e037 58bd 488e d7bd 3b7a ebbd e1f5 83bd
000002f0: 271a 85bd 0375 e03d 45a9 973d e1c7 f63d
00000300: 11cb 98bd 98de d63d 6c18 a33d 1147 993d
00000310: c6dc c63b 9983 e1bd 3ab5 843d 2ce0 e63c
00000320: 2e24 d6bc 271a 44bd 5e02 68bc 9c23 9abd
00000330: dad0 bbbd ee08 a53c 66a3 7cbd 66b9 b6bd
00000340: 336b c7bc 0d3e a63d 2d59 af3d a7b5 75bb
00000350: 5d4f 09be d354 0fbd 6f45 a03b 9104 963d
00000360: 79de 9cbd 408b aa3d 2002 ad3d ab52 493c
00000370: 2666 07be 1761 d5bd b19f 7c3d 365f 063e
00000380: 9ac9 83bc 7114 0a3e 1c69 ef3d 12b9 92bd
00000390: a848 e9bd 3307 0c3a 0b8f e23d aabb 673d
000003a0: ea97 e9bd 430d 43bd e445 113e 097f 393d
000003b0: 4103 1abc a7c5 80bd f1fc 36be 73b9 aebd
000003c0: ba6f 11bd 2ae3 94bd 5fc1 89bd d901 66bc
000003d0: 283c 9cbd ffdd 0c3e 16d8 3ebc 123b 963d
000003e0: 7577 13bd cdc1 f63d ffcd eebd f555 173e
000003f0: 5c75 2dbd 2a73 6f3d 4daf aabc 519e 36bd

fc1.bias f4 [32]
-0.117400855 -0.05961568 -0.12632322 0.0066051395 0.017466215 0.1357936 -0.08686967 -0.05231936
-0.12721401 0.102989845 -0.10719167 -0.12307046 -0.12253055 -0.13332629 0.09514477 0.026844183
0.09050596 -0.10046738 0.12212907 -0.07999785 0.070339516 0.10570886 -0.06356551 0.1356865
-0.0663016 -0.0030574251 -0.120796405 0.12673436 -0.081952475 0.12507361 0.11497826 -0.12517312
00000000: dc6f f0bd 922f 74bd e05a 01be ed6f d83b
00000010: 4f15 8f3c 7a0d 0b3e bae8 b1bd d34c 56bd
00000020: 6444 02be 57ec d23d 4e87 dbbd 5e0c fcbd
00000030: 4cf1 fabd b086 08be 43db c23d 55e8 db3c
00000040: 305b b93d d7c1 cdbd ce1e fa3d ead5 a3bd
00000050: 2a0e 903d e37d d83d a22e 82bd 67f1 0a3e
00000060: 22c9 87bd 155f 48bb 1b64 f7bd a7c6 013e
00000070: b3d6 a7bd 4c13 003e b979 eb3d 622d 00be

fc2.weight f4 [7, 32]
0.08983548 0.09385534 -0.117588855 0.16226935 -0.13079679 -0.040789712 0.064136334 0.061944414
-0.121407405 -0.019926554 0.039591655 0.06289856 -0.06926018 -0.13848555 -0.02604846 -0.13075475
-0.00451109 -0.06405944 -0.10550276 -0.12852694 -0.03784374 -0.12469047 -0.183324 -0.05367107
-0.01697678 0.09585643 0.14087291 0.013800965 0.116297424 -0.12326241 -0.10197122 0.020198371
-0.07008121 -0.062014364 0.14724825 -0.12014857 0.11078186 -0.043163214 0.022303356 0.14025486
0.109730124 0.09125521 -0.1839143 -0.02955851 0.101556145 -0.0034985053 -0.16669446 0.05122666
0.07371145 -0.0064378143 0.038238704 -0.035536397 -0.041742776 -0.07638631 0.1306737 -0.13738094
0.118248954 0.09784867 -0.15779677 -0.18814737 0.13919172 0.042420406 0.10663771 -0.15719715
-0.030108737 -0.117645085 -0.13403569 -0.04423949 -0.15637396 0.17203307 0.14173003 -0.15573859
0.011400726 0.082165614 0.15145071 0.11699948 -0.18690781 -0.09384497 -0.15152471 -0.161868
-0.04912803 0.10685814 0.040797137 0.0755606 0.12728736 -0.07132245 -0.039205004 -0.15835166
0.077928394 -0.14753558 -0.12789002 -0.013640142 -0.05503894 0.088466614 0.12752666 -0.059094813
0.052270476 -0.09725301 0.12115487 0.13684769 -0.006173044 -0.14151269 0.14963244 -0.1182405
-0.014510746 0.15094188 -0.03729277 0.044131607 -0.0021122165 0.071496084 -0.12231924 0.14586847
0.04362185 -0.04567394 0.088725045 -0.120740496 -0.1367274 0.0072089564 -0.12511222 -0.07943513
0.15841898 0.0315852 0.07822622 -0.041336473 -0.10351353 -0.09483566 -0.1316974 0.08848812
0.022918487 0.16378497 -0.15578175 0.09148975 -0.06454527 0.029199632 0.122076534 -0.08140405
-0.15861954 0.13313186 0.118732065 0.045161854 -0.18200588 0.12950861 0.09199271 0.16600847
-0.057248417 -0.13229345 -0.1238909 0.1519243 -0.13258964 0.014092462 0.114278935 0.0544289
-0.11775586 -0.1192641 0.13737904 0.1481285 0.11213552 -0.14220428 -0.019399684 0.10578251
0.08823333 -0.058585864 -0.06596571 -0.12736556 -0.08254053 0.0053237462 -0.09084066 -0.03953369
-0.0139833875 0.122700065 0.05547138 0.004291442 0.10904832 0.0128776645 -0.02923136 0.03786266
-0.045839038 0.08703304 -0.061397154 0.17798464 -0.114562176 -0.0025765828 0.14156654 0.107441545
-0.16918202 0.10737555 -0.07084684 -0.012622588 0.13513355 -0.07739311 0.13084282 -0.09226106
-0.30091253 0.083849005 -0.047278825 0.10487899 -0.21649031 0.23447067 0.18966036 -0.22467014
0.01679639 -0.12810251 0.17075822 0.017298784 -0.12990202 -0.15135348 0.1483814 0.12699455
0.030295117 0.18698433 -0.2311119 -0.10350015 0.15815578 0.16207518 -0.24468459 -0.080884874
-0.15119341 -0.18401742 -0.19105126 0.13560346 -0.06847717 -0.10810999 -0.0146568045 -0.20186141
00000000: aafb b73d 3a37 c03d 6dd2 f0bd f029 263e
00000010: 98ef 05be 1d13 27bd e959 833d 6db9 7d3d
00000020: 72a4 f8bd 033d a3bc dc2a 223d f6d0 803d
00000030: 48d8 8dbd 28cf 0dbe 9463 d5bc 93e4 05be
00000040: c4d1 93bb 9831 83bd d511 d8bd 919c 03be
00000050: 0a02 1bbd b85d ffbd 49b9 3bbe 32d6 5bbd
00000060: e312 8bbc 6050 c43d fd40 103e 711d 623c
00000070: 582d ee3d 0171 fcbd 49d6 d0bd 0e77 a53c
00000080: bd86 8fbd c602 7ebd 3fc8 163e 7410 f6bd
00000090: 9ae1 e23d e9cb 30bd 87b5 b63c f89e 0f3e
000000a0: 30ba e03d 03e4 ba3d 0854 3cbe b024 f2bc
000000b0: abfc cf3d 2e47 65bb f4b1 2abe 0cd3 513d
000000c0: 07f6 963d 4df4 d2bb 30a0 1c3d 9d8e 11bd
000000d0: 79fa 2abd 6d70 9cbd 54cf 053e 97ad 0cbe
000000e0: 822c f23d e264 c83d 7a95 21be b4a9 40be
000000f0: 4688 0e3e 05c1 2d3d df64 da3d 4af8 20be
00000100: 99a6 f6bc e8ef f0bd a740 09be 7834 35bd
00000110: 7f20 20be 7029 303e ad21 113e f079 1fbe
00000120: 1cca 3a3c 7246 a83d e515 1b3e 6c9d ef3d
00000130: c364 3fbe cb31 c0bd 4b29 1bbe bac0 25be
00000140: 793a 49bd 71d8 da3d e61a 273d 84bf 9a3d
00000150: 9e57 023e 8111 92bd 6d95 20bd f026 22be
00000160: ec98 9f3d 9113 17be 9af5 02be e77a 5fbc
00000170: 8370 61bd fc2d b53d 5996 023e 670d 72bd
00000180: 9119 563d 962c c7bd 0b20 f83d cd21 0c3e
00000190: 3f47 cabb b4e8 10be 3f39 193e 1328 f2bd
000001a0: 7bbe 6dbc 8290 1a3e 4ec0 18bd 58c3 343d
000001b0: 1d6d 0abb 8a6c 923d 8282 fabd 8b5e 153e
000001c0: d3ac 323d 9914 3bbd 7ab5 b53d cb46 f7bd
000001d0: 4402 0cbe 1c39 ec3b 6b1d 00be e3ae a2bd
000001e0: 9638 223e 7c5f 013d 1235 a03d 6f50 29bd
000001f0: e7fe d3bd 3339 c2bd afdb 06be 4239 b53d
00000200: 8dbf bb3c 3fb7 273e 4085 1fbe fa5e bb3d
00000210: 4f30 84bd 1134 ef3c 4303 fa3d 2bb7 a6bd
00000220: 296d 22be b853 083e cc29 f33d a3fb 383d
00000230: c05f 3abe e89d 043e ad66 bc3d 20fe 293e
00000240: 517d 6abd ef77 07be 83ba fdbd 0b92 1b3e
00000250: 94c5 07be 12e4 663c 130b ea3d d7f0 5e3d
00000260: fc29 f1bd bd40 f4bd 17ad 0c3e ffae 173e
00000270: 4fa7 e53d 009e 11be 16ec 9ebc 80a4 d83d
00000280: adb3 b43d bbf7 6fbd 0819 87bd 1e6c 02be
00000290: 020b a9bd d272 ae3b ab0a babd 14ee 21bd
000002a0: 941a 65bc 2c4a fb3d f535 633d 3a9f 8c3b
000002b0: ba54 df3d d7fc 523c 9b76 efbc e015 1b3d
000002c0: b7c1 3bbd 613e b23d 957b 7bbd 9b41 363e
000002d0: 939f eabd e3db 28bb d2f6 103e 500a dc3d
000002e0: 0d3e 2dbe b6e7 db3d 2618 91bd f9ce 4ebc
000002f0: 7360 0a3e 4780 9ebd a9fb 053e 5ef3 bcbd
00000300: 3511 9abe 07b9 ab3d 71a7 41bd ccca d63d
00000310: a3af 5dbe 1419 703e 5336 423e ee0f 66be
00000320: 9598 893c 4e2d 03be 3edb 2e3e 2eb6 8d3c
00000330: 0905 05be 68fc 1abe 4bf1 173e dc0a 023e
00000340: 772d f83c d278 3f3e 99a8 6cbe e3f7 d3bd
00000350: 97f3 213e 09f7 253e 998e 7abe f8a6 a5bd
00000360: 72d2 1abe 106f 3cbe f1a2 43be a2db 0a3e
00000370: c23d 8cbd c568 ddbd 1823 70bc c2b4 4ebe

fc2.bias f4 [7]
-0.17519549 0.028448071 -0.13343073 -0.0510116 0.038060077 0.14741893 -0.051315553
00000000: 7266 33be ee0b e93c 11a2 08be 8af1 50bd
00000010: e2e4 1b3d fdf4 163e 4230 52bd
