Other Experiments/Noisy_Kuzushiji/NQE600.pt (torch, 9989 bytes, 6 tensors)

layer1.0.weight f4 [1, 1, 3, 3]
0	0x3e9ecdbb	0.31016335
1	0x3d9e0b6e	0.07717024
2	0x3eb3c024	0.3510753
3	0xbd204e4b	-0.039137166
4	0x3ecb0e32	0.39659268
5	0x3e438c13	0.19096403
6	0x3da2e132	0.07953109
7	0x3d6e54d8	0.058186382
8	0x3ea98b13	0.33113918

layer2.0.weight f4 [1, 1, 3, 3]
0	0xbe4bbd90	-0.19896531
1	0xbeadd0b5	-0.33948293
2	0xbcf03c78	-0.029325709
3	0xbea3628d	-0.31911126
4	0xbc89bd1d	-0.016813809
5	0xbeed84f7	-0.46390507
6	0x3ec8af81	0.391964
7	0xbe29a885	-0.16568191
8	0xbd8fae94	-0.0701572

fc1.weight f4 [32, 49]
0	0x3df5d5c9	0.12003667
1	0x3d36d4c4	0.044636503
2	0x3c546638	0.012963824
3	0xbd8f0348	-0.06983048
4	0x3c470f1a	0.012149597
5	0xbe00077c	-0.12502855
6	0x3cbe5a2b	0.023236355
7	0x3e0f2a57	0.13980995
8	0x3de63b19	0.11241741
9	0x3db469e5	0.0880926
10	0xbd75b9a1	-0.059991483
11	0x3c328b9b	0.010897542
12	0x3d6a698d	0.057229567
13	0xbd6ed227	-0.058305886
14	0x3debca26	0.11513166
15	0x3e23d006	0.15997323
16	0xbcae40dd	-0.021271164
17	0xbdcc64d8	-0.09980172
18	0xbdad22d5	-0.08453909
19	0xbdc57276	-0.09640972
20	0xbd936cff	-0.07198524
21	0x3dc3afc7	0.09555011
22	0x3deacc1c	0.11464712
23	0xbdd80f71	-0.1054982
24	0xbe28678d	-0.16445751
25	0xbd56f530	-0.052479923
26	0x3d875f6e	0.06609999
27	0x3e154037	0.14575277
28	0x3e1c921f	0.15290116
29	0x3d402b9d	0.046916593
30	0x3df4bca9	0.119500466
31	0xbdb0f5c8	-0.08640629
32	0xbba9fbfe	-0.0051875105
33	0x3b5f2570	0.0034049414
34	0x3daf3989	0.08555896
35	0xbddbe8c3	-0.10737755
36	0x3de3363c	0.11094329
37	0xbde1e296	-0.11029546
38	0xbbe90009	-0.0071106
39	0x3cd3ca0c	0.02585318
40	0x3dee9a18	0.11650485
41	0xbd02e711	-0.031958643
42	0xbdd0a268	-0.101872265
43	0x3da49985	0.08037094
44	0xbe077e64	-0.13231808
45	0x3ddd40ef	0.10803401
46	0xbdb56776	-0.08857624
47	0xbe0aafad	-0.13543577
48	0xbe0ca531	-0.1373489
49	0x3def9a25	0.116993226
50	0xbe0433c4	-0.12910372
51	0x3c6efcd4	0.014586646
52	0x3dc7eca3	0.09761932
53	0xbd88c38e	-0.06677924
54	0xbbdfd0a4	-0.006830292
55	0x3c999ae7	0.018750621
56	0xbd971200	-0.0737648
57	0x3c786327	0.0151603585
58	0xbdd03978	-0.10167211
59	0x3e1013bb	0.14070027
60	0xbdba87eb	-0.091079555
61	0xbd9d1a3f	-0.07671022
62	0x3e0f9554	0.14021808
63	0xbde110c1	-0.10989524
64	0x3dfff5c5	0.12498049
65	0x3d1973df	0.03746402
66	0xbdd105f8	-0.102062166
67	0x3d2fbde2	0.042905696
68	0xbd73b030	-0.059494197
69	0xbd252cfd	-0.040326107
70	0x3cec8059	0.028869795
71	0x3dd4101b	0.103546344
72	0x3e0a711c	0.1351971
73	0x3d151676	0.036398374
74	0x3db77a71	0.08958901
75	0xbbd07fd2	-0.0063628936
76	0xbe07d83e	-0.13266084
77	0x3da0d481	0.07853032
78	0xbde1982f	-0.11015355
79	0x3dd4c79d	0.10389636
80	0xbd92088d	-0.07130537
81	0x3d21f334	0.039538577
82	0xbe13c627	-0.14431058
83	0xbdeb430b	-0.11487397
84	0xbdb2b4df	-0.08725905
85	0xbadc5478	-0.0016809842
86	0xbce8b8cb	-0.028408429
87	0xbca9a917	-0.020710511
88	0xbdf184db	-0.11792918
89	0xbdaca276	-0.084294245
90	0x3dc022c3	0.0938163
91	0xbde4445b	-0.1114585
92	0x3cbb05c6	0.022829901
93	0xbdde65d1	-0.10859264
94	0x3c8e4aa2	0.017369572
95	0xbd4ba9ad	-0.049722362
96	0xbd18d3cd	-0.037311364
97	0xbdb8571e	-0.09000991
98	0x3dc582d1	0.09644092
99	0xbbd4f35b	-0.006498737
100	0xbd92015e	-0.07129167
101	0x3ca004c5	0.019533524
102	0xbd9b6ca0	-0.07589078
103	0x3d4d1db7	0.050077166
104	0xbda44e94	-0.080228
105	0x3d054475	0.03253599
106	0xbdf569ad	-0.11983047
107	0x3d4b8e05	0.049695987
108	0x3d7df4dc	0.062001094
109	0x3da96616	0.082714245
110	0x3dadb2ce	0.0848137
111	0x3df4e863	0.11958387
112	0x3cbe6996	0.023243707
113	0xbce71fc8	-0.028213397
114	0xbdc610ae	-0.0967115
115	0x3dccac0e	0.09993754
116	0xbdfb00a6	-0.12255983
117	0xbd6e74e9	-0.058216963
118	0x3e094137	0.13403784
119	0x3d77b4ee	0.060475282
120	0x3b7ccf64	0.0038575763
121	0xbd3dccd4	-0.046337917
122	0xbe0a8b93	-0.13529806
123	0x3bca43dd	0.0061726407
124	0xbe0fc5a5	-0.14040239
125	0x3d5ad02b	0.05342118
126	0x3dd18c7b	0.10231873
127	0x3e0a7f29	0.1352507
128	0x3e0fe652	0.14052704
129	0x3cb6350e	0.022242095
130	0x3de1d04a	0.11026056
131	0x3dba3c40	0.09093523
132	0x3dded53f	0.10880517
133	0xbdaad25a	-0.083409026
134	0x3d82c2ee	0.06384836
135	0x3dfb92c3	0.12283852
136	0x3dffad06	0.124841735
137	0xbd352aef	-0.044230398
138	0x3c9a344d	0.018823767
139	0x3c52883a	0.012849862
140	0xbdac9486	-0.08426766
141	0x3ba72818	0.005101215
142	0x3db1fa1f	0.08690285
143	0x3db57070	0.088593364
144	0xbddab62c	-0.10679278
145	0xbd0aabbb	-0.03385518
146	0xbde3bf3e	-0.11120461
147	0x3e131163	0.14362101
148	0x3d7d1504	0.06178762
149	0xbd15e271	-0.036592904
150	0x3d44871e	0.04798042
151	0xbdf5aa43	-0.119953655
152	0x3dad0e46	0.08449988
153	0xbd1f1c53	-0.03884537
154	0xbd935fa5	-0.07195977
155	0x3e10bb9a	0.14134064
156	0xbc42b4db	-0.01188394
157	0xbcbb4559	-0.022860216
158	0x3ded783a	0.11595197
159	0x3dbe1bd8	0.092826545
160	0x3df861fd	0.12128065
161	0xbcf44bce	-0.029821303
162	0xbd8ac81c	-0.06776449
163	0xbde98a6a	-0.114033535
164	0xbb41d4cb	-0.0029576297
165	0x3dfb59b3	0.12272968
166	0xbda729c9	-0.08162267
167	0xbdb46562	-0.088084
168	0xbdbb8cdd	-0.09157727
169	0xbd9ec140	-0.07751703
170	0x3e042b2d	0.12907095
171	0xbdfc676c	-0.12324414
172	0x3cf664f7	0.03007744
173	0x3d85b916	0.06529443
174	0x3dade524	0.08490971
175	0xbdb33168	-0.08749658
176	0xbe07c751	-0.13259627
177	0x3dee4b27	0.11635428
178	0xbd2eae4b	-0.042646687
179	0x3e00c41d	0.12574811
180	0xbd3f320e	-0.046678595
181	0xbd80aa07	-0.0628243
182	0x3ceb9bf2	0.028760884
183	0x3cc0e2f3	0.023545718
184	0xbd553133	-0.052048873
185	0xbdd6a9e3	-0.10481622
186	0xbdf6a519	-0.12043209
187	0xbd89ae54	-0.067227036
188	0xbd8081ca	-0.06274755
189	0x3dcf2bd9	0.10115785
190	0x3d947c7d	0.07250307
191	0x3dfddab9	0.12395234
192	0xbd9bdf2e	-0.076109275
193	0x3dceefbc	0.101043195
194	0x3d9a4ada	0.07533808
195	0x3d94e12a	0.07269509
196	0x3c1e9a8c	0.0096804015
197	0xbde2cc4b	-0.11074122
198	0x3d9b6f7c	0.07589623
199	0x3d13f062	0.03611792
200	0xbcd6ba92	-0.02621201
201	0xbd63f789	-0.05565599
202	0xbc4e886c	-0.012605768
203	0xbd9ab74e	-0.07554494
204	0xbdb29414	-0.0871965
205	0x3c947707	0.018123163
206	0xbd5d00e8	-0.053955942
207	0xbdacf7e7	-0.08445721
208	0xbce55f4f	-0.027999548
209	0x3d992be8	0.074790776
210	0x3db99c88	0.09063059
211	0xbbfa033b	-0.0076297796
212	0xbe0751b5	-0.13214763
213	0xbceccbe0	-0.028905809
214	0x3c3738e3	0.011182996
215	0x3d96d7fd	0.07365415
216	0xbda9466d	-0.08265386
217	0x3dafd6cb	0.085858904
218	0x3da079c6	0.078357264
219	0x3c28f59d	0.010312465
220	0xbe0f549b	-0.13997118
221	0xbdd7de1d	-0.105404116
222	0x3d7ee627	0.06223121
223	0x3e003aa5	0.12522371
224	0xbcf53414	-0.02993206
225	0x3e069c3b	0.13145535
226	0x3dffd5c5	0.12491945
227	0xbd89797e	-0.06712626
228	0xbdf42698	-0.11921424
229	0xbc1f5494	-0.009724755
230	0x3dce04de	0.10059522
231	0x3d5df703	0.054190647
232	0xbde3d89d	-0.111253
233	0xbd36c54d	-0.044621754
234	0x3e111c97	0.14171062
235	0x3d5336b6	0.05156585
236	0xbc16ca80	-0.009203553
237	0xbd8bf38c	-0.06833562
238	0xbe260caa	-0.16215768
239	0xbda906aa	-0.08253224
240	0xbd28adf7	-0.04118153
241	0xbd91d113	-0.07119956
242	0xbd824f92	-0.06362833
243	0xbbf82fc8	-0.0075740553
244	0xbd94f8c0	-0.07274008
245	0x3e088ac5	0.13334186
246	0xbc484a37	-0.012224725
247	0x3d83a3f2	0.064277545
248	0xbd364fb7	-0.044509616
249	0x3df69c8e	0.12041579
250	0xbdde5072	-0.108551875
251	0x3e15b068	0.14618075
252	0xbd2edf73	-0.042693567
253	0x3d51e9ef	0.051248487
254	0xbc928fbd	-0.017890805
255	0xbd4f3966	-0.05059185

fc1.bias f4 [32]
0	0xbdefa5fe	-0.11701582
1	0xbd737732	-0.059439845
2	0xbe01d08f	-0.12677215
3	0x3bcfaf94	0.006338069
4	0x3c8c56a3	0.017131155
5	0x3e0b08f4	0.13577634
6	0xbdb2a1ca	-0.08722265
7	0xbd56be67	-0.052427676
8	0xbe0296bf	-0.12752818
9	0x3dd3d81b	0.10343953
10	0xbddae894	-0.10688892
11	0xbdfc1926	-0.12309484
12	0xbdfa4ee9	-0.12222082
13	0xbe084f9c	-0.13311619
14	0x3dc369a2	0.09541632
15	0x3cdf19ec	0.02723404
16	0x3db8e489	0.090279646
17	0xbdcd9767	-0.10038643
18	0x3df90b60	0.12160373
19	0xbda234e7	-0.079202466
20	0x3d8ec1a3	0.06970527
21	0x3dd8a9fe	0.105792984
22	0xbd80e53e	-0.062937245
23	0x3e0b9fee	0.13635227
24	0xbd89c20a	-0.06726463
25	0xbb2fe179	-0.0026837273
26	0xbdf7459f	-0.12073826
27	0x3e0207fc	0.12698358
28	0xbda668f4	-0.08125487
29	0x3dfef948	0.124498904
30	0x3dec2bae	0.11531769
31	0xbe00534c	-0.12531775

fc2.weight f4 [7, 32]
0	0x3dc6dbce	0.09709893
1	0x3dbf8bd0	0.09352839
2	0xbdf457b6	-0.11930792
3	0x3e267012	0.16253689
4	0xbe015147	-0.12628661
5	0xbd2d4fe9	-0.042312536
6	0x3d7807f1	0.06055445
7	0x3d8b32d0	0.06796801
8	0xbdf255a3	-0.1183274
9	0xbc86b12f	-0.01644191
10	0x3d113a46	0.035455965
11	0x3d83d3aa	0.06436856
12	0xbd859dcd	-0.06524239
13	0xbe0eb7f4	-0.1393736
14	0xbcc40080	-0.02392602
15	0xbe099e47	-0.13439284
16	0xbbc724ae	-0.0060773706
17	0xbd8702f7	-0.065923624
18	0xbdd11fef	-0.10211169
19	0xbe026fb4	-0.12737924
20	0xbd29b0f0	-0.041428506
21	0xbe02d25b	-0.12775557
22	0xbe3756f9	-0.17904271
23	0xbd588f34	-0.052870944
24	0xbc895639	-0.016764747
25	0x3dcfb180	0.10141277
26	0x3e15125a	0.14557782
27	0x3c2a1db0	0.010383055
28	0x3df2b867	0.11851578
29	0xbdf71767	-0.120650105
30	0xbdc8b09c	-0.097993106
31	0x3cb1b9eb	0.021695098
32	0xbd9c1170	-0.076205134
33	0xbd809353	-0.062781
34	0x3e13cdea	0.14434019
35	0xbdf0f3c2	-0.11765243
36	0x3dd84eb8	0.105618894
37	0xbd2a414a	-0.04156617
38	0x3cdede3c	0.027205579
39	0x3e0f50aa	0.13995615
40	0x3dd9c084	0.106324226
41	0x3db4dca6	0.08831148
42	0xbe3b4280	-0.18287086
43	0xbce6059a	-0.028078843
44	0x3dc51c20	0.09624505
45	0xbc0152d4	-0.007893283
46	0xbe2bea97	-0.16788708
47	0x3d634d6a	0.05549375
48	0x3d9a2107	0.07525831
49	0xbbfde917	-0.0077487337
50	0x3d143f38	0.036193103
51	0xbd17ad36	-0.03703042
52	0xbd1e96d1	-0.03871805
53	0xbd962379	-0.073309846
54	0x3e01872c	0.1264922
55	0xbe114910	-0.14188027
56	0x3df1e824	0.118118554
57	0x3dc56494	0.096383244
58	0xbe25d766	-0.16195449
59	0xbe3e7f39	-0.18603219
60	0x3e10c5c4	0.14137942
61	0x3d1b69f3	0.037942838
62	0x3dd2e370	0.102972865
63	0xbe221ae9	-0.15830578
64	0xbcfb88e6	-0.030704927
65	0xbdf46e09	-0.1193505
66	0xbe05d65a	-0.1307005
67	0xbd545f95	-0.051848967
68	0xbe1f4e31	-0.15557171
69	0x3e2e2250	0.17005277
70	0x3e14dd3a	0.14537516
71	0xbe229af4	-0.15879422
72	0x3c2e13b0	0.010624811
73	0x3da0e3b4	0.07855931
74	0x3e2145fd	0.15749355
75	0x3de990e7	0.11404591
76	0xbe45d9d6	-0.19321379
77	0xbdc95017	-0.09829729
78	0xbe221ee8	-0.15832102
79	0xbe2bcee8	-0.16778147
80	0xbd3af2d1	-0.045641724
81	0x3de6646e	0.11249624
82	0x3d35b905	0.0443659
83	0x3d9ab6b9	0.07554383
84	0x3e055ec4	0.13024431
85	0xbd99c60f	-0.0750848
86	0xbd1228a1	-0.035683278
87	0xbe1e8cbb	-0.15483372
88	0x3d99f7de	0.0751798
89	0xbe1feeba	-0.1561841
90	0xbe018d39	-0.12651528
91	0xbc9e1fb8	-0.019302234
92	0xbd64f921	-0.05590165
93	0x3dc26f23	0.09493854
94	0x3e062740	0.1310091
95	0xbd87b2dd	-0.06625912
96	0x3d58832d	0.052859474
97	0xbdcc847e	-0.099862084
98	0x3e009417	0.12556492
99	0x3e0fb182	0.14032558
100	0xbc070cff	-0.008242845
101	0xbe0fd697	-0.14046703
102	0x3e181201	0.14850618
103	0xbdf338a0	-0.11876035
104	0xbc520480	-0.012818456
105	0x3e188f6a	0.14898458
106	0xbd1f3f92	-0.038878985
107	0x3d3dee8a	0.046370067
108	0x3a6e5e3f	0.0009093023
109	0x3d9e2af8	0.077230394
110	0xbdfc1039	-0.12307782
111	0x3e1c9e65	0.15294798
112	0x3d33fb01	0.043940548
113	0xbd3b4808	-0.04572299
114	0x3db6f175	0.08932773
115	0xbdfc8985	-0.12330917
116	0xbe10043a	-0.14064112
117	0x3be0b9a4	0.0068580676
118	0xbe01a6bb	-0.12661259
119	0xbda9de38	-0.08294338
120	0x3e272809	0.16323866
121	0x3d01d436	0.03169652
122	0x3da1f712	0.07908453
123	0xbd2c5e2e	-0.042082004
124	0xbddbf237	-0.10739558
125	0xbdc85a85	-0.0978289
126	0xbe0bef87	-0.13665591
127	0x3db833b9	0.0899424
128	0x3ccae143	0.024765616
129	0x3e2cd003	0.16876225
130	0xbe2199de	-0.15781352
131	0x3db9be7f	0.09069537
132	0xbd6d57d8	-0.057945102
133	0x3cf5724c	0.029961728
134	0x3dfa7199	0.12228698
135	0xbda027e1	-0.07820106
136	0xbe2430b2	-0.16034201
137	0x3e106ecf	0.1410477
138	0x3dedbe76	0.11608593
139	0x3d358b2f	0.04432219
140	0xbe3656ce	-0.17806551
141	0x3e098a52	0.13431671
142	0x3dc243c0	0.094855785
143	0x3e2a9c51	0.16661192
144	0xbd72b062	-0.059250243
145	0xbe08ee9a	-0.1337227
146	0xbdf8b9e9	-0.121448345
147	0x3e1f8f60	0.15582037
148	0xbe094d8c	-0.13408488
149	0x3c772156	0.0150836315
150	0x3df4d77b	0.11955162
151	0x3d680340	0.056643724
152	0xbdf211af	-0.11819779
153	0xbdeaf189	-0.114718504
154	0x3e135670	0.14388442
155	0x3e17d32b	0.14826648
156	0x3dec2126	0.1152976
157	0xbe103e66	-0.14086303
158	0xbc70a4cc	-0.014687728
159	0x3dd99332	0.106237784
160	0x3db65de1	0.08904625
161	0xbd79b897	-0.060967054
162	0xbd939c72	-0.07207574
163	0xbdfbf356	-0.12302272
164	0xbdb3bdab	-0.08776411
165	0x3c253704	0.0100839175
166	0xbdb8b35b	-0.09018584
167	0xbd24bce8	-0.040219218
168	0xbc756b72	-0.01497923
169	0x3e036a4f	0.12833522
170	0x3d59654d	0.053075124
171	0x3bbfac5f	0.0058494057
172	0x3de75dc0	0.11297178
173	0x3c23bbd4	0.009993512
174	0xbca8d721	-0.020610394
175	0x3d0c5ff7	0.034271207
176	0xbd286abb	-0.04111741
177	0x3dafa486	0.08576302
178	0xbd8c1392	-0.0683967
179	0x3e3b18d8	0.18271196
180	0xbde8b0cc	-0.11361846
181	0xbaa03b77	-0.0012224753
182	0x3e119ec3	0.14220719
183	0x3ddd29e2	0.10799004
184	0xbe2ed521	-0.1707349
185	0x3de52e86	0.11190514
186	0xbd96440c	-0.07337198
187	0xbc0f2094	-0.008735795
188	0x3e08bc81	0.13353159
189	0xbdaadce9	-0.083429165
190	0x3e0bf0f3	0.13666134
191	0xbdb64929	-0.08900673
192	0xbe9312b4	-0.28725207
193	0x3dae5073	0.08511438
194	0xbc3d9801	-0.011571885
195	0x3da67c2d	0.081291534
196	0xbe56337a	-0.20918074
197	0x3e5e358a	0.21700111
198	0x3e34a03b	0.17639248
199	0xbe638765	-0.22219618
200	0x3c42d26f	0.011890992
201	0xbdff8029	-0.124756165
202	0x3e25a0e7	0.1617466
203	0x3c35613f	0.011070549
204	0xbde3fe08	-0.11132437
205	0xbe0a2713	-0.13491468
206	0x3e1f5280	0.15558815
207	0x3e051577	0.1299647
208	0x3d06d449	0.032917295
209	0x3e517cb5	0.20457728
210	0xbe50a046	-0.2037364
211	0xbdf9c923	-0.12196567
212	0x3e176d40	0.1478777
213	0x3e1fb29f	0.15595482
214	0xbe63cb1f	-0.22245453
215	0xbd8a6d4c	-0.06759128
216	0xbe1c90f7	-0.15289675
217	0xbe483ed2	-0.19555214
218	0xbe3e911e	-0.18610045
219	0x3deab148	0.11459595
220	0xbd78e6c8	-0.060766965
221	0xbdb95ceb	-0.09050926
222	0xbba7dbe4	-0.0051226486
223	0xbe6b1e55	-0.2296079

fc2.bias f4 [7]
0	0xbe33211a	-0.17493096
1	0x3ce64151	0.028107317
2	0xbe099796	-0.13436732
3	0xbd526d34	-0.051373675
4	0x3d20c095	0.03924616
5	0x3e1ac583	0.15114407
6	0xbd51c324	-0.05121149
