Other Experiments/Noiseless_Fashion/PCA-NQE50.pt (torch, 3623 bytes, 6 tensors)

linear_relu_stack2.0.weight f4 [12, 4]
0.2224428 -0.2800197 -0.26598877 0.36185354 0.45785287 -0.38218784 -0.2458195 0.36665544
-0.35210893 -0.44612765 -0.47386593 0.19432312 -0.0050248355 0.46727496 0.45200536 0.031869043
0.075068206 0.12090438 0.37224084 0.3664031 -0.16926481 0.18461013 -0.15728381 0.42124927
0.13125493 0.4453889 -0.3544431 0.25045764 -0.08581613 -0.44222635 0.27178788 -0.0008750063
-0.33599657 -0.18706143 -0.20707841 0.33217436 -0.4917851 -0.20422412 -0.3762803 0.4531356
0.34765252 0.12457518 -0.018179588 -0.021021355 -0.30144724 0.19537513 -0.18609159 0.16352226
00000000: 0cc8 633e be5e 8fbe ae2f 88be de44 b93e
00000010: b16b ea3e 20ae c3be 1bb8 7bbe 43ba bb3e
00000020: 9f47 b4be d86a e4be 8e9e f2be a4fc 463e
00000030: 60a7 a4bb aa3e ef3e 3f6d e73e 1d89 023d
00000040: 5cbd 993d b79c f73d 5a96 be3e 3099 bb3e
00000050: c153 2dbe 700a 3d3e 020f 21be fcad d73e
00000060: b167 063e 040a e43e 9179 b5be fc3b 803e
00000070: 5ec0 afbd 7e6b e2be c827 8b3e ae60 65ba
00000080: be07 acbe 088d 3fbe 5d0c 54be c212 aa3e
00000090: 42cb fbbe 2120 51be d0a7 c0be 6401 e83e
000000a0: 83ff b13e 4621 ff3d 5ced 94bc fa34 acbc
000000b0: 4b57 9abe 6b10 483e cb8e 3ebe 6172 273e

linear_relu_stack2.0.bias f4 [12]
0.4929678 -0.17375204 0.04995548 -0.4181712 -0.46964332 -0.07243755 -0.052483715 -0.35852
-0.46813503 0.052750632 0.4608898 -0.22216246
00000000: 4766 fc3e 0eec 31be 1e9e 4c3d 891a d6be
00000010: 1775 f0be 235a 94bd 2af9 56bd ef8f b7be
00000020: 65af efbe 0c11 583d bff9 eb3e 8e7e 63be

linear_relu_stack2.2.weight f4 [12, 12]
-0.067505725 -0.07786523 0.21457797 -0.251221 0.18949999 0.13438044 0.2644397 -0.14912452
-0.034897923 -0.2414402 -0.15551023 0.22012617 0.09452752 -0.126096 -0.03879997 0.04752866
0.012943183 -0.061107952 -0.0897542 0.1297998 0.10516375 -0.24922654 -0.24487616 0.073384434
-0.04808267 0.24002415 -0.24367465 -0.035916682 -0.17218225 -0.03068065 0.27295333 -0.15559866
-0.1830878 0.19388422 -0.0586816 0.19847152 -0.23000166 -0.15424769 -0.114382185 -0.15203318
0.1978797 -0.025285875 0.074534595 -0.12688522 -0.10303019 0.22903104 -0.009177043 -0.10853754
0.16855378 -0.18012972 -0.20575777 -0.20835887 0.29053342 0.2859125 0.014721596 -0.24926871
0.22250591 0.10036103 0.12968999 -0.17971213 -0.0034314892 0.21068111 0.20186603 -0.03300608
0.032947328 -0.09671503 0.021661535 0.25144565 -0.04780092 0.23223858 0.24682653 0.053769127
0.26880613 0.12782115 -0.10154157 0.11499597 -0.09528115 0.078954145 -0.15853833 -0.10101895
-0.17187391 -0.1166142 0.006546929 -0.14770345 0.012233485 -0.01770088 -0.21245144 0.031606548
0.20117608 -0.24905758 -0.012441979 -0.0028521987 -0.22595386 0.09763822 -0.059870694 0.17397961
-0.041244525 0.05208117 -0.1716708 0.20802845 -0.16086479 -0.08644249 0.23277934 -0.2606898
-0.224743 0.15800673 -0.24110484 -0.29437113 0.3041461 -0.05746251 -0.113371044 0.084829606
0.24452813 -0.24496977 0.012347975 0.16290836 0.22118366 -0.023544524 -0.25199515 -0.19599766
-0.18387604 -0.2698346 0.18757021 -0.11180787 -0.047281824 0.14344344 0.16963562 0.020806745
-0.24864477 0.10885241 0.097085595 0.2891282 -0.05750009 0.054286227 -0.20275469 0.14609222
0.08700613 0.13987914 -0.023075677 -0.08663194 0.22472325 0.034479223 -0.008871003 -0.20945549
00000000: 7140 8abd ce77 9fbd 54ba 5b3e 0aa0 80be
00000010: 490c 423e 079b 093e a464 873e 19b4 18be
00000020: 20f1 0ebd 1a3c 77be 133e 1fbe c168 613e
00000030: a597 c13d 4f1f 01be b8ec 1ebd 6aad 423d
00000040: a50f 543c 554c 7abd 0dd1 b7bd 3dea 043e
00000050: 1860 d73d 3e35 7fbe d1c0 7abe 944a 963d
00000060: 55f2 44bd e4c8 753e d985 79be 5f1d 13bd
00000070: 8b50 30be fd55 fbbc 8ac0 8b3e 4155 1fbe
00000080: 5e7b 3bbe 9689 463e 1e5c 70bd 1e3c 4b3e
00000090: 8e85 6bbe 1bf3 1dbe 3541 eabd 96ae 1bbe
000000a0: faa0 4a3e 5324 cfbc 98a5 983d 33ee 01be
000000b0: 7e01 d3bd 1d87 6a3e 4f5b 16bc ee48 debd
000000c0: 5d99 2c3e ed73 38be 2ab2 52be 075c 55be
000000d0: ccc0 943e 2063 923e d932 713c 4c40 7fbe
000000e0: 97d8 633e 158a cd3d 74cd 043e 7506 38be
000000f0: d6e2 60bb cabc 573e f8b5 4e3e 6231 07bd
00000100: c7f3 063d 8812 c6bd 8873 b13c 7cbd 803e
00000110: e6ca 43bd f3cf 6d3e 18c0 7c3e 043d 5c3d
00000120: f5a0 893e 8ce3 023e 07f5 cfbd 0283 eb3d
00000130: c322 c3bd b6b2 a13d df57 22be 06e3 cebd
00000140: b7ff 2fbe 6dd3 eebd 9f87 d63b 933f 17be
00000150: f46e 483c 7001 91bc df8c 59be de75 013d
00000160: 1a01 4e3e f308 7fbe 71d9 4bbc f4eb 3abb
00000170: 7360 67be 8cf6 c73d f93a 75bd b627 323e
00000180: 05f0 28bd 1153 553d 78ca 2fbe 6905 553e
00000190: bdb9 24be c308 b1bd b55d 6e3e 2279 85be
000001a0: 0723 66be 84cc 213e 30e4 76be d0b7 96be
000001b0: 0ab9 9b3e cf5d 6bbd 142f e8bd 25bb ad3d
000001c0: 9565 7a3e 5bd9 7abe 294f 4a3c 73d1 263e
000001d0: f87d 623e 72e0 c0bc 8205 81be 9cb3 48be
000001e0: 004a 3cbe c327 8abe 6812 403e 86fb e4bd
000001f0: 96aa 41bd d6e2 123e f6b4 2d3e e872 aa3c
00000200: bc9c 7ebe 03ee de3d d0d4 c63d 9d08 943e
00000210: 3785 6bbd 3c5b 5e3d ed9e 4fbe 3399 153e
00000220: 4530 b23d 7a3c 0f3e 3409 bdbc 166c b1bd
00000230: da1d 663e 163a 0d3d af57 11bc 807b 56be

linear_relu_stack2.2.bias f4 [12]
-0.07632139 0.22564952 0.16265385 0.19542368 0.2116968 -0.017534444 0.041228987 0.24228813
0.094960414 0.06293696 -0.27746448 -0.08294504
00000000: 644e 9cbd ab10 673e bb8e 263e 251d 483e
00000010: 0cc7 583e 65a4 8fbc badf 283d 611a 783e
00000020: 9b7a c23d 18e5 803d d30f 8ebe 17df a9bd

linear_relu_stack2.4.weight f4 [8, 12]
-0.07404179 0.22191404 0.14596961 0.16302465 0.009398638 0.0773576 0.21351852 -0.23374422
0.26790854 0.27390066 -0.19942038 -0.08648809 -0.18915741 0.01412779 -0.21829447 0.011950134
0.08434311 0.11929723 0.045522008 -0.08951595 0.15195808 0.044368565 -0.043003734 0.08319143
-0.27982366 -0.05745192 0.2075967 -0.25567597 0.07005337 0.18788497 0.09601188 -0.2144157
-0.23765758 -0.12254732 -0.14695874 -0.123247415 0.17533402 -0.10865526 0.25428978 0.14055982
-0.2118388 0.021052638 -0.19351764 -0.16629292 0.15058923 -0.17039357 -0.2644978 0.0014413678
0.16742674 0.113348715 0.14891252 -0.26062074 0.11104734 -0.21196578 -0.05062295 -0.009178221
0.03457189 -0.005818189 -0.1287335 0.22655734 -0.18513471 -0.14875065 -0.016997483 -0.23645993
-0.3028665 0.13812397 0.08742959 -0.1764807 0.24103151 -0.24896899 0.22614054 0.14258458
0.0998385 0.16458197 0.08006195 -0.107921734 -0.24869958 -0.13618717 0.12214868 0.06162554
0.11103141 -0.12732576 -0.19361618 0.1672929 0.14162496 -0.10852571 0.28762287 -0.10208899
0.033224963 0.14902382 -0.017129045 0.092292905 0.1753292 0.031417564 0.24167655 -0.044967126
00000000: 39a3 97bd 6f3d 633e 0f79 153e efef 263e
00000010: bffc 193c a96d 9e3d 99a4 5a3e a55a 6fbe
00000020: 4f2b 893e b53c 8c3e db34 4cbe ab20 b1bd
00000030: 7bb2 41be 3f78 673c 9688 5fbe 7fca 433c
00000040: 15bc ac3d 1b52 f43d 4975 3a3d 2354 b7bd
00000050: e69a 1b3e d0bb 353d af24 30bd 4560 aa3d
00000060: 0c45 8fbe b452 6bbd 3b94 543e f6e7 82be
00000070: 2478 8f3d eb64 403e e0a1 c43d ca8f 5bbe
00000080: 825c 73be 17fa fabd 5a7c 16be 2469 fcbd
00000090: c38a 333e a686 debd 4532 823e eaee 0f3e
000000a0: 45ec 58be 9576 ac3c 7d29 46be b148 2abe
000000b0: 1034 1a3e a77b 2ebe 416c 87be 47ec bc3a
000000c0: ea71 2b3e 5f23 e83d 867c 183e 1570 85be
000000d0: ca6c e33d 8f0d 59be 035a 4fbd 4060 16bc
000000e0: 419b 0d3d 82a6 bebb b7d2 03be a6fe 673e
000000f0: f493 3dbe 1752 18be 4e3e 8bbc 8d22 72be
00000100: 5111 9bbe 5f70 0d3e 490e b33d 5bb7 34be
00000110: f7d0 763e baf1 7ebe 6391 673e b101 123e
00000120: 2178 cc3d 2d88 283e 85f7 a33d 1206 ddbd
00000130: 1aab 7ebe a674 0bbe 1629 fa3d 106b 7c3d
00000140: 7064 e33d af61 02be 5243 46be d44e 2b3e
00000150: 2206 113e ba42 debd 4e43 933e 0814 d1bd
00000160: e616 083d b399 183e 3652 8cbc 1004 bd3d
00000170: 7f89 333e b4af 003d 0f7a 773e 732f 38bd

linear_relu_stack2.4.bias f4 [8]
-0.1429378 0.084113315 -0.20416337 -0.16321191 -0.1758873 0.17328887 0.30625767 0.06020288
00000000: 495e 12be 9a43 ac3d 3410 51be 0621 27be
00000010: cd1b 34be a372 313e cecd 9c3e 4c97 763d
