Other Experiments/Noiseless_Fashion/PCA-NQE300.pt (torch, 3631 bytes, 6 tensors)

linear_relu_stack2.0.weight f4 [12, 4]
00000000: fc2e 523e a845 83be d7f4 6ebe 233f cb3e
00000010: 1268 e53e 9af6 c5be 1b49 93be 52e5 9a3e
00000020: d888 b4be 6da8 e4be fda4 f2be 9980 433e
00000030: 2893 92bc 82c6 f03e 4617 e13e 686c d33c
00000040: 1bf3 bb3d 350d 4d3d b499 d33e 0155 de3e
00000050: 8d3d 2bbe 1f39 413e 7539 1abe 91ad d73e
00000060: 4e32 173e 8659 e23e bf01 b8be ff2e 5c3e
00000070: 06a1 c5bd 258c e2be ac1c 823e 36c0 a2bb
00000080: 368c aabe 9c31 39be 2087 54be 67fd b13e
00000090: 09e9 fdbe 1abb 54be 7760 c0be ea2c e33e
000000a0: 8ec9 9f3e 0160 243e 1e11 7cbc 2293 80bc
000000b0: 0eb7 9dbe 455d 4d3e 9222 34be 8220 0d3e
0.20525736 -0.2563908 -0.23335586 0.39696607 0.44805962 -0.38664705 -0.28766713 0.30253083
-0.35260653 -0.4465975 -0.473915 0.19092025 -0.017892435 0.4702645 0.4396307 0.025808528
0.09177228 0.050061423 0.41328204 0.43424228 -0.16722699 0.18869446 -0.1506098 0.42124608
0.14765283 0.44208926 -0.35938832 0.21502303 -0.096498534 -0.44247547 0.254125 -0.004966761
-0.33310097 -0.1808533 -0.20754671 0.34763643 -0.49591854 -0.20774499 -0.37573597 0.44370204
0.31208462 0.16052248 -0.01538494 -0.015695158 -0.30803722 0.20055111 -0.17591313 0.13781932

linear_relu_stack2.0.bias f4 [12]
00000000: 152c ff3e e02b 40be 572e 483d 69a2 d8be
00000010: 25d7 f0be 895c 8cbd ac82 59bd 557c babe
00000020: 492a edbe 9ad8 4b3d 27a0 ec3e 5d44 65be
0.4983832 -0.18766737 0.048872318 -0.4231141 -0.47039142 -0.06853587 -0.053103134 -0.36422983
-0.46321324 0.049767114 0.46215937 -0.2238936

linear_relu_stack2.2.weight f4 [12, 12]
00000000: 564b 8ebd 85fb 9bbd bfcb 5b3e 0b12 88be
00000010: a0cc 363e c32d fe3d 30a3 813e 19b4 18be
00000020: b244 10bd 3408 79be 5986 26be 12a6 5d3e
00000030: 2f25 aa3d 9f8b 01be b8ec 1ebd 7495 453d
00000040: 1527 d43b 9d69 8bbd fba1 b4bd 087e 063e
00000050: 274f d73d 516c 80be 664b 7abe 7f35 9a3d
00000060: f57b acbd 3361 6e3e e921 7bbe cfd0 adbc
00000070: 9669 5fbe ac71 87bd e9f3 863e 7c56 1fbe
00000080: a79d 3fbe cc5d 2b3e 33fc 53bd 71f1 463e
00000090: 44a4 6abe b6c5 19be b632 e9bd 70da 34be
000000a0: 0e51 403e 8b5c e0bc 87dd 8c3d ef67 02be
000000b0: 2a25 d1bd 428a 6f3e 106a a6bc 772c debd
000000c0: 71eb 203e be4e 43be d995 51be 79fe 44be
000000d0: 1f60 af3e 920f 983e 1488 e23b 6dc5 79be
000000e0: f279 653e 5d35 ea3d 889d d33d 4e40 31be
000000f0: b50f 2ebd 011f 2f3e 22fd 4d3e 9b7e 4b3c
00000100: 59ae 073d 2db2 a1bd 2ad9 0c3d 89d5 7d3e
00000110: 03cf 48bd 90ad 663e a441 693e f52e 6d3d
00000120: 4176 7f3e 96e7 e13d 05b3 d0bd b123 083e
00000130: 38ca bbbd 8747 b03d e4dd 1ebe 4bfd d0bd
00000140: ce5f 30be 53fc f2bd b3f3 9dbb 61cd 14be
00000150: 6aea 313d 3456 1a3c e06b 58be 3128 dd3a
00000160: a02a 613e 1b28 81be 8eb1 a0bc d467 083a
00000170: 9338 65be bda5 e23d fee6 51bd 682f 313e
00000180: 3c78 11bd c347 6d3d 78ca 2fbe ec00 433e
00000190: e862 34be 80ab c4bd 92f2 6a3e 1281 85be
000001a0: f43d 66be 84c2 1e3e f132 76be 822f 98be
000001b0: db9f 9f3e 499c 45bd abbd e6bd 3ef3 c43d
000001c0: eb38 953e f3f0 69be 5168 7d3c 2985 293e
000001d0: 648c 633e e89a 5bbc 1196 82be 37dc 40be
000001e0: af8a 3abe fa06 8abe 4712 403e 530c dfbd
000001f0: 09db 3abd 2a1f 153e 2dfa 313e e872 aa3c
00000200: 306c 7ebe de33 e23d 0ecf cd3d 975e 943e
00000210: bd44 61bd 8432 5b3d e99e 4fbe 95ea e43d
00000220: b30d 8b3d a0a8 ff3d c72c 2bbd 3a3f afbd
00000230: 4173 663e 29d1 0c3d 0ee0 bebc 2e8f 5bbe
-0.06947963 -0.07616333 0.21464442 -0.26576266 0.17851496 0.12411072 0.25319815 -0.14912452
-0.035221763 -0.24319535 -0.16262187 0.21645382 0.083078735 -0.12650917 -0.03879997 0.048238233
0.0064743855 -0.068072535 -0.08819958 0.13134015 0.10513144 -0.2508264 -0.24442825 0.07529735
-0.084220804 0.23279266 -0.24524654 -0.021217732 -0.21817622 -0.06613478 0.26357964 -0.15560335
-0.18712483 0.16735 -0.051754188 0.1942804 -0.22914225 -0.15016827 -0.113866255 -0.17661452
0.1878092 -0.027387878 0.068781905 -0.1273496 -0.102121666 0.23392585 -0.020314246 -0.10848325
0.15714814 -0.19073007 -0.20467319 -0.19237699 0.34253022 0.2969938 0.0069131944 -0.24391718
0.224098 0.114359595 0.10332781 -0.17309687 -0.04249545 0.17101671 0.20116094 0.012420322
0.033125255 -0.078953125 0.03438679 0.24788488 -0.049025547 0.22527146 0.22778946 0.05790611
0.24947454 0.110305 -0.10190395 0.13294865 -0.091694295 0.08607393 -0.15514332 -0.10204562
-0.17224047 -0.11864533 -0.004820311 -0.14531471 0.043436445 0.0094199665 -0.21134901 0.001687294
0.21988916 -0.2522591 -0.019615915 0.000520346 -0.22384863 0.11066768 -0.051245682 0.1730324
-0.035515055 0.057929765 -0.1716708 0.1904332 -0.17615855 -0.096030235 0.22944096 -0.26075035
-0.2248457 0.1550389 -0.2404287 -0.29723746 0.31176648 -0.04824475 -0.11266645 0.09616707
0.29144987 -0.22845821 0.0154667655 0.16554703 0.22221524 -0.013403632 -0.25505117 -0.18834005
-0.18216966 -0.26958448 0.18756972 -0.108910225 -0.045619044 0.1456267 0.1738059 0.020806745
-0.24845958 0.11045049 0.10049258 0.28978416 -0.054997195 0.053514972 -0.20275463 0.111775555
0.06789722 0.124833345 -0.04179075 -0.085569814 0.22504903 0.03437916 -0.023300197 -0.21441337

linear_relu_stack2.2.bias f4 [12]
00000000: 04ca afbd 8f85 653e 1524 233e b2eb 393e
00000010: 9ae2 533e 004c b0bc cd95 193d d132 7c3e
00000020: 4fc0 b33d 4e0f 8d3d b87e 8cbe 74b8 cbbd
-0.08583453 0.2241423 0.15931733 0.18156317 0.2069191 -0.021520615 0.037496377 0.2462876
0.08776914 0.06887685 -0.2744043 -0.09947291

linear_relu_stack2.4.weight f4 [8, 12]
00000000: a076 98bd e006 633e 78f2 123e aa83 2a3e
00000010: f9c9 55b9 bc9a 863d bb44 523e 3008 71be
00000020: 8b3f 8a3e 1fde 873e 0ebe 4bbe ad7e 9dbd
00000030: d7f0 3fbe 1f49 733c ce23 5bbe ed39 573c
00000040: 561a b73d 70c2 f23d f554 313d 997e babd
00000050: 5a67 1c3e a4cd 373d 6fb5 2cbd 153f a83d
00000060: afcc 90be eb78 61bd e3b9 4a3e 6581 80be
00000070: aee9 223d 9d86 1c3e 1787 8d3d 0575 5ebe
00000080: 7a2a 62be b664 09be e43f 15be 0d49 e1bd
00000090: fe15 293e 6240 e4bd 215a 8a3e c82f 073e
000000a0: 33b8 7cbe 0949 c03c 48e5 37be 9013 3cbe
000000b0: c9a7 1a3e bf12 4bbe ed2c 89be 6a2d d8ba
000000c0: 27c2 2a3e 79f1 e93d 606a 163e 378c 87be
000000d0: 5268 d53d efb3 48be cf35 1ebd 20aa 9fba
000000e0: d033 f03c 35af d43a b4c2 04be ffb6 5e3e
000000f0: 37fa 44be 72b4 16be 0e7f e93a 8ed8 71be
00000100: 1b73 9ebe d372 043e ea57 bb3d 42d7 42be
00000110: 8395 7b3e 7997 88be c747 653e 4e26 173e
00000120: 44a6 c23d 1e7e 263e 449b d43d 279e e3bd
00000130: 78ce 86be ff62 f3bd 4845 093e e865 5d3d
00000140: d694 e43d 0e6d 17be 0a1c 47be a856 273e
00000150: dcb6 0c3e 3209 dcbd 1e51 933e ce08 cebd
00000160: be0b 903c ae62 0c3e 7942 abbc 8604 b73d
00000170: 8233 383e cc14 ae3c 8d16 763e 6b24 10bd
-0.07444501 0.22170591 0.14350307 0.16651788 -0.00020388504 0.06572482 0.20534031 -0.2353828
0.27001604 0.26536652 -0.19896719 -0.07690177 -0.18744217 0.014848976 -0.21400377 0.013136369
0.0894057 0.11853492 0.043293912 -0.09106178 0.152738 0.04487385 -0.042165216 0.08215157
-0.2828116 -0.055046957 0.19797473 -0.2509872 0.039773636 0.15285726 0.06910532 -0.21724327
-0.22086516 -0.13417324 -0.14575154 -0.110002615 0.16512296 -0.111450925 0.27021888 0.13201821
-0.24679641 0.023472326 -0.17958558 -0.18366838 0.15103067 -0.1983137 -0.26792088 -0.0016493027
0.16675626 0.114230104 0.14689016 -0.26474163 0.10420288 -0.19599889 -0.038625535 -0.0012181439
0.029321581 0.0016226532 -0.12964898 0.21749495 -0.19236074 -0.14717272 0.0017814355 -0.23617765
-0.30947194 0.12934427 0.09147628 -0.19027427 0.24568753 -0.26678064 0.22390662 0.14760706
0.09504369 0.16259047 0.10381177 -0.111141495 -0.26329398 -0.118841164 0.13405335 0.054052263
0.11161201 -0.14787695 -0.1944429 0.1634165 0.1374163 -0.10743941 0.28772825 -0.10060273
0.017583724 0.13709518 -0.02090572 0.0893641 0.17988399 0.021250151 0.2403204 -0.03519098

linear_relu_stack2.4.bias f4 [8]
00000000: f5d4 13be fc86 af3d 9158 59be 6309 32be
00000010: 2570 31be d266 373e b4ad a73e 3130 783d
-0.14436705 0.08570668 -0.21225192 -0.17386393 -0.17327936 0.17910317 0.32749712 0.060592834
