Additional Experiments/Noisy_Kuzushiji/NQE400.pt (torch, 9989 bytes, 6 tensors)

layer1.0.weight f4 [1, 1, 3, 3]
000000 17 c2 9e 3e b4 3a 96 3d 95 d2 ae 3e 3c 65 3b bd
       0.31007454 0.073354155 0.34145036 -0.04575084
000010 4b b3 c9 3e b9 52 41 3e 54 5d 8a 3d 45 33 56 3d
       0.39394602 0.18879212 0.06756082 0.05229499
000020 f0 a1 a6 3e
       0.32545424

layer2.0.weight f4 [1, 1, 3, 3]
000000 62 ba 47 be 8a 48 a3 be ea 1e b7 ba a3 11 9c be
       -0.19504693 -0.3189128 -0.0013971005 -0.30482206
000010 65 8d 2f ba c8 4b e7 be 31 31 d9 3e 19 5f 1c be
       -0.00066967896 -0.45175004 0.42420343 -0.15270652
000020 63 99 62 bd
       -0.055322062

fc1.weight f4 [32, 49]
000000 e2 0c fb 3d d2 26 3f 3d 80 ea 9f 3c 31 5b 81 bd
       0.122583166 0.04666788 0.019520998 -0.063162215
000010 1d f6 40 3c 10 c2 06 be 86 6a d0 3c 52 7f 10 3e
       0.011777428 -0.13159966 0.02544142 0.14111069
000020 d4 4b f3 3d e8 b2 b7 3d ca f0 59 bd 5d 6f 8b 3c
       0.118796974 0.089696705 -0.05320815 0.017020876
000030 27 b3 4e 3d f3 c3 7f bd a0 e6 f0 3d 46 0d 24 3e
       0.05046382 -0.06244273 0.11762738 0.16020688
000040 6f c0 ad bc b8 df bc bd d2 a2 90 bd 9d 40 c0 bd
       -0.021209924 -0.092223585 -0.070623055 -0.09387324
000050 40 28 9f bd df c3 c4 3d 13 02 e7 3d 1a 26 db bd
       -0.07771349 0.09607672 0.112796925 -0.10700627
000060 21 a9 29 be 5f 05 47 bd 07 7a 90 3d 43 67 10 3e
       -0.16568424 -0.048589107 0.07054525 0.14101891
000070 06 05 14 3e 2b 52 3f 3d a0 21 01 3e 28 86 ad bd
       0.14455041 0.04670922 0.12610483 -0.08472854
000080 d4 fc 33 bc 07 87 3e bb c9 70 a1 3d 58 a4 da bd
       -0.010985572 -0.0029072182 0.0788284 -0.10675877
000090 06 c9 e6 3d 0e 92 e3 bd 2c 53 00 bc 14 35 f5 3c
       0.11268811 -0.11111842 -0.00783233 0.029932536
0000a0 5a cb f1 3d fe 91 0f bd b7 08 b7 bd e8 a7 b1 3d
       0.11806364 -0.03505134 -0.08937209 0.08674604
0000b0 0c 4c 0b be 55 b2 df 3d c6 e6 ac bd fd b4 06 be
       -0.13603228 0.10922686 -0.08442454 -0.13154979
0000c0 e1 95 0a be 8f dc ed 3d 70 d4 04 be f0 a8 24 3c
       -0.13533737 0.11614334 -0.12971663 0.010050043
0000d0 f3 5f c4 3d 07 f0 86 bd 83 ea 8f bb 3b 02 95 3c
       0.09588613 -0.0658875 -0.0043919696 0.01818954
0000e0 c0 e5 98 bd c1 f1 70 3c 8d 33 d6 bd cd dc 0a 3e
       -0.07465696 0.014706076 -0.10459051 0.13560791
0000f0 3b 7f bd bd 57 d4 99 bd 35 61 10 3e f6 bc e2 bd
       -0.09252783 -0.07511204 0.14099582 -0.11071198
000100 24 a9 01 3e 30 48 1b 3d b4 2d da bd cf ed 22 3d
       0.12662178 0.03791064 -0.106532484 0.039777573
000110 2f 5a 71 bd f9 1a 24 bd a4 dd f3 3c 67 a7 d9 3d
       -0.058923896 -0.040064786 0.029768772 0.106276326
000120 79 77 0c 3e 3b cd 11 3d 7c 35 b3 3d df f7 ba bb
       0.1371745 0.035596114 0.08750436 -0.005705818
000130 32 4c 05 be fb db a8 3d 0e 94 dd bd 69 9b d4 3d
       -0.13017347 0.08245083 -0.10819255 0.10381205
000140 63 dc 93 bd e3 40 24 3d ef 28 11 be d6 2b e4 bd
       -0.0721977 0.040100943 -0.14175771 -0.111411735
000150 3a 12 b1 bd 69 83 c5 ba d9 67 e4 bc 7f 83 9e bc
       -0.086460546 -0.001506907 -0.02788155 -0.019349812
000160 97 c3 f3 bd 51 64 ae bd bf 82 c2 3d 49 16 ed bd
       -0.1190254 -0.085152276 0.09497594 -0.11576516
000170 f1 3f ad 3c c0 3a de bd e3 14 82 3c 3e df 4d bd
       0.021148654 -0.108510494 0.0158791 -0.05026173
000180 bd 9a 1d bd fe 87 b9 bd d8 0e c7 3d e1 08 c7 bb
       -0.038477648 -0.090591416 0.09719628 -0.0060740565
000190 78 29 8a bd 17 d6 a9 3c 8e 71 9c bd b0 6d 44 3d
       -0.06746191 0.020731969 -0.07638846 0.04795617
0001a0 f9 e1 a4 bd e6 f8 08 3d a7 67 f4 bd e3 f2 54 3d
       -0.08050913 0.033440493 -0.119338326 0.051989447
0001b0 37 3c 87 3d b4 98 ad 3d 65 82 af 3d df 7d f5 3d
       0.06603282 0.084763914 0.08569793 0.11986899
0001c0 8e 4d c8 3c 75 6d f0 bc 81 e1 c4 bd 7e e1 d2 3d
       0.024451043 -0.029349068 -0.09613324 0.102969155
0001d0 11 4a fa bd f1 2b 73 bd e8 95 0a 3e f9 fb 74 3d
       -0.12221158 -0.059368078 0.13533747 0.059810612
0001e0 d5 41 f5 3a 09 52 40 bd 9b 82 08 be 8e 3a f3 3b
       0.0018711636 -0.046953235 -0.13331072 0.0074227517
0001f0 02 7f 0f be f4 11 53 3d 6e 57 cb 3d f1 44 09 3e
       -0.14013293 0.051530793 0.09928785 0.13405205
000200 55 60 11 3e db ec cb 3c 54 74 e2 3d 5b 39 b5 3d
       0.14196904 0.024893215 0.11057344 0.0884883
000210 eb ac d8 3d 8b a2 ac bd 21 d7 81 3d c6 26 fe 3d
       0.105798565 -0.0842944 0.06339861 0.12409739
000220 10 ab fd 3d a9 76 37 bd 74 c4 90 3c 30 22 3c 3c
       0.12386143 -0.044790898 0.017671801 0.01148276
000230 ca 1f a5 bd 8b 16 c6 3b 47 2a b3 3d 96 84 b8 3d
       -0.08062704 0.006045168 0.08748298 0.09009664
000240 0f a9 dc bd d5 ea 08 bd d0 c3 e2 bd 24 05 12 3e
       -0.10774433 -0.03342708 -0.110725045 0.14259773
000250 b4 c4 79 3d 50 a2 2c bd 67 db 3a 3d cc de f4 bd
       0.060978606 -0.04214698 0.045619395 -0.11956558
000260 ad 8e b1 3d eb 0d 23 bd b4 e6 94 bd 58 ff 0f 3e
       0.08669791 -0.039808195 -0.07270566 0.1406225
000270 05 05 6e bc ba dd e8 bc db d9 ea 3d a7 56 c3 3d
       -0.014527564 -0.02842604 0.11467334 0.09538012
000280 d2 17 fa 3d 1f 16 f6 bc 44 f3 87 bd e6 2f e8 bd
       0.122115746 -0.030039845 -0.06638196 -0.11337261
000290 51 9c d7 bb 6b 1a f3 3d c8 98 a6 bd 07 44 b2 bd
       -0.0065799137 0.11870273 -0.081346095 -0.087043814
0002a0 47 05 ba bd 74 36 99 bd cc ac 05 3e cc 63 ff bd
       -0.09083038 -0.07481089 0.13054198 -0.124702066
0002b0 09 57 e1 3c e6 14 87 3d dc 8d b4 3d eb 29 aa bd
       0.027507322 0.06595783 0.0881612 -0.083087765
0002c0 6c d0 05 be 07 db ed 3d 47 4b 31 bd f6 98 01 3e
       -0.13067788 0.11614042 -0.04328468 0.12656006
0002d0 6c a5 36 bd b7 c9 71 bd e4 a6 fa 3c d8 e2 c3 3c
       -0.044591352 -0.05903026 0.030597158 0.023911878
0002e0 74 7e 51 bd d3 35 d5 bd 15 d0 fa bd 47 45 8c bd
       -0.051145986 -0.10410657 -0.1224672 -0.06849151
0002f0 a2 4e 7b bd e2 95 c5 3d 87 e3 90 3d 9e 30 00 3e
       -0.061354287 0.096477285 0.070746474 0.12518546
000300 53 d6 9e bd 8d d4 ca 3d 8f fd 96 3d cd 6a 93 3d
       -0.07755723 0.09903822 0.07372581 0.07198105
000310 87 b4 45 3c 3c b5 df bd d0 26 ad 3d be 66 2c 3d
       0.012066967 -0.109232396 0.084546685 0.04209017
000320 6b de dc bc ce bc 7d bd 5e 12 36 bc 70 29 98 bd
       -0.026961526 -0.061947636 -0.0111127775 -0.074297786
000330 f5 ce a9 bd 5a 13 aa 3c 91 05 3a bd 30 35 a2 bd
       -0.08291427 0.02076118 -0.045415465 -0.07920301
000340 07 f0 05 bd 78 de 93 3d 66 31 be 3d dd 4a 11 bc
       -0.03269961 0.07220167 0.09286766 -0.008867946
000350 7e 01 07 be 5d e4 ac bc 93 b7 ad 3c c4 90 97 3d
       -0.13184163 -0.021104986 0.0212057 0.07400659
000360 ae 3c b0 bd 36 eb ae 3d 84 40 99 3d f2 de 0c 3c
       -0.08605324 0.08540957 0.074830085 0.008598076
000370 c3 47 0e be fa fd cf bd 2f 4b 85 3d 23 56 f5 3d
       -0.13894562 -0.10155864 0.06508481 0.1197932
000380 a1 68 1f bd 60 fb 04 3e f7 a9 05 3e 5d 37 83 bd
       -0.03891814 0.12986517 0.13053118 -0.06407044
000390 4d c2 fc bd 31 95 87 bc 24 c2 be 3d b7 aa 59 3d
       -0.123417474 -0.016550632 0.09314373 0.053141322
0003a0 21 f1 e2 bd 61 15 35 bd ff bc 0f 3e 31 57 5d 3d
       -0.11081148 -0.04420984 0.1403694 0.05403823
0003b0 34 6f 16 bc c6 60 93 bd 4e 15 1a be 71 59 9f bd
       -0.009181786 -0.071961924 -0.1504719 -0.077807315
0003c0 dd 16 34 bd d8 d8 8d bd 1b 72 7b bd ec 4d 93 bb
       -0.043967117 -0.06926125 -0.061388116 -0.004495373
0003d0 7f 6c 91 bd ba 04 06 3e cc f3 66 bc d1 32 6b 3d
       -0.07100772 0.1308774 -0.014096212 0.05742151
0003e0 16 14 4f bd 0a 6c f7 3d 15 17 d1 bd 67 37 14 3e
       -0.050556265 0.12081154 -0.10209481 0.1447426
0003f0 cf d8 34 bd 5b 36 3a 3d c1 ac a3 bc 15 f8 6b bd
       -0.044152077 0.045461994 -0.019979836 -0.057609636

fc1.bias f4 [32]
000000 2f c7 ef bd a4 1c 73 bd 58 dd 01 be ef 95 ce 3b
       -0.11707913 -0.059353486 -0.12682092 0.0063044946
000010 36 29 8a 3c e8 19 0b 3e 7d b5 b2 bd 82 47 57 bd
       0.016865354 0.13584101 -0.087260224 -0.05255843
000020 ab a6 02 be 7d 05 d4 3d 45 b0 da bd 1f 29 fc bd
       -0.12758891 0.10352609 -0.10678152 -0.12312531
000030 a4 e2 f9 bd 50 61 08 be 7e cb c3 3d 08 78 e1 3c
       -0.122014314 -0.13318372 0.095602974 0.027523056
000040 a5 e7 b8 3d 4e 27 cd bd c7 4e f8 3d f6 0a a2 bd
       0.09028558 -0.100172624 0.121244006 -0.07912247
000050 dd 5b 8e 3d bb f1 d8 3d a2 dd 80 bd 6e ce 0b 3e
       0.06951115 0.105929814 -0.06292273 0.13652965
000060 3c b0 8a bd 1e 64 25 bb d6 9a f7 bd 25 1d 02 3e
       -0.06771895 -0.0025236676 -0.120900795 0.1270643
000070 2a da a5 bd c3 42 fe 3d d3 60 ec 3d a3 a7 00 be
       -0.08098252 0.124150775 0.11541905 -0.12563948

fc2.weight f4 [7, 32]
000000 94 64 d1 3d 0d 3d bd 3d 5e 4d f5 bd 9e 67 26 3e
       0.10224262 0.0924016 -0.11977647 0.16250464
000010 7a ee f9 bd 6b 1a 36 bd 71 51 6c 3d 10 f8 94 3d
       -0.12203689 -0.044458788 0.057694856 0.07273877
000020 c7 ba ec bd 46 62 5e bc fe e8 02 3d 53 f0 84 3d
       -0.115590625 -0.013573235 0.03196048 0.06491151
000030 0f e9 7e bd d8 d1 0e be d6 a7 bc bc 3d fd 0b be
       -0.06223398 -0.13947237 -0.02302925 -0.13670821
000040 bc 42 f9 bb fc 01 8c bd 63 3e cc bd a1 bd 00 be
       -0.0076068323 -0.06836316 -0.09972837 -0.12572338
000050 e1 2d 32 bd 24 9f 05 be 28 9e 33 be 39 c5 51 bd
       -0.043500785 -0.13048989 -0.175408 -0.051213477
000060 a1 49 85 bc 66 72 d6 3d 1e 0d 18 3e 40 47 f8 3b
       -0.01627046 0.104710385 0.14848754 0.007576853
000070 f0 cc f5 3d b7 40 f3 bd ff 34 c4 bd c1 78 c2 3c
       0.12001979 -0.11877578 -0.09580421 0.02373922
000080 b1 51 a7 bd bf a8 7d bd ad b0 10 3e 65 b2 eb bd
       -0.08169878 -0.061928507 0.14129896 -0.115086354
000090 22 ac cd 3d 2e ef 1b bd 55 33 f9 3c 1b 12 0d 3e
       0.10042597 -0.038069896 0.030419985 0.13776438
0000a0 c5 32 d3 3d 33 03 af 3d bd ec 39 be 7d 93 da bc
       0.10312418 0.08545532 -0.18156715 -0.026681656
0000b0 c9 89 bb 3d 67 3e 25 bc f0 0c 2c be 24 7e 6e 3d
       0.0915714 -0.010085679 -0.1680181 0.058225766
0000c0 81 53 9e 3d 93 ea eb bb fe 94 08 3d 99 57 1e bd
       0.07730771 -0.0071995943 0.033345215 -0.03865776
0000d0 3e 77 11 bd d7 71 8f bd d3 03 fb 3d 0b 19 15 be
       -0.03551411 -0.07004135 0.12256589 -0.14560334
0000e0 b4 60 f0 3d dd e7 c4 3d 9c 41 28 be ed 15 3b be
       0.11737195 0.09614537 -0.16431278 -0.18270083
0000f0 a4 86 10 3e 9d 3f 0e 3d 04 03 cd 3d b9 9e 24 be
       0.14113861 0.034728635 0.10010341 -0.16076173
000100 59 98 f9 bc f0 c7 f6 bd 12 cc 00 be ea 99 6c bd
       -0.030468153 -0.12049854 -0.12577847 -0.05776397
000110 98 de 1c be d7 23 2a 3e 82 a5 15 3e 9c e6 24 be
       -0.15319288 0.16615234 0.14613917 -0.16103595
000120 47 dd 18 3c ef c7 9c 3d 28 75 25 3e e0 cd e3 3d
       0.0093301 0.07655322 0.16157973 0.11123252
000130 b3 86 49 be a8 fc ce bd 82 73 26 be 53 3a 2f be
       -0.1968029 -0.10106784 -0.16255 -0.17112093
000140 55 ce 36 bd 4d 1f ec 3d 10 fd 47 3d 63 15 98 3d
       -0.044630367 0.11529408 0.048825324 0.07425954
000150 47 5c 06 3e d0 8e 9f bd fa 9c 07 bd 52 fb 1a be
       0.13121139 -0.07790911 -0.03310869 -0.15134934
000160 09 81 96 3d 67 d2 27 be d2 46 02 be 68 e6 cc bc
       0.0734883 -0.16388856 -0.12722328 -0.02501221
000170 d0 b7 5c bd d0 7f ca 3d d2 48 09 3e dc 0a 92 bd
       -0.053886235 0.098876595 0.13406685 -0.071309775
000180 2a fc 57 3d e0 4d cf bd 0b e5 02 3e 88 c5 11 3e
       0.052730717 -0.10122275 0.12782685 0.14235508
000190 02 e7 28 bc de 21 0e be 0a fb 17 3e 99 99 f4 bd
       -0.010308983 -0.13880107 0.14841858 -0.11943359
0001a0 b8 61 44 bc c4 80 17 3e 10 7b 24 bd 22 8c 43 3d
       -0.011986189 0.14795214 -0.040156424 0.047741063
0001b0 2c 43 43 3b 01 64 a5 3d 18 0d fc bd aa 20 21 3e
       0.0029794676 0.08075715 -0.12307185 0.15735117
0001c0 a9 c7 37 3d 8d 3f 39 bd e5 05 b7 3d 1b c8 ff bd
       0.044868145 -0.045226622 0.08936671 -0.12489339
0001d0 67 24 12 be de 3f f3 3b 32 8f 02 be 0d 2b ae bd
       -0.14271699 0.007423385 -0.12749937 -0.08504305
0001e0 de 37 2a 3e d2 a5 03 3d a3 f6 a3 3d f6 3c 2a bd
       0.16622874 0.03214056 0.080060266 -0.041562043
0001f0 09 67 e1 bd 7a ee cb bd 28 ed 0e be 9b 7b b9 3d
       -0.110059805 -0.09957595 -0.13957655 0.09056779
000200 7f a8 e2 3c 92 21 2e 3e 20 75 22 be 76 fe b7 3d
       0.027668236 0.17004994 -0.15864992 0.089840814
000210 21 d2 5b bd 50 aa ec 3c 1b fc f9 3d 71 ea 98 bd
       -0.05366719 0.028889805 0.122062884 -0.07466591
000220 35 b9 23 be e2 03 16 3e 18 85 e7 3d 1a 64 34 3d
       -0.1598862 0.14649919 0.113046825 0.044040777
000230 70 a6 31 be ba 38 0c 3e 1c 40 c6 3d 58 a6 2a 3e
       -0.17348647 0.13693514 0.09680197 0.16665018
000240 ad 9b 7a bd 87 e4 0a be 3a e2 f4 bd ff 29 23 3e
       -0.06118362 -0.13563739 -0.11957212 0.15933989
000250 44 0f 0b be 3b 0c 64 3c 12 25 fd 3d 1c 0f 6f 3d
       -0.13580042 0.013918932 0.12360586 0.05836402
000260 a7 3a f1 bd 02 f8 e5 bd ec 75 17 3e e9 29 16 3e
       -0.11778765 -0.11228944 0.14791077 0.14664425
000270 fd a6 ef 3d 99 29 0f be 1c 5e 3d bc f9 b3 dd 3d
       0.11701772 -0.13980712 -0.011558082 0.10825343
000280 4d 8a b5 3d 49 15 7d bd 79 fa 9c bd c5 a9 f6 bd
       0.088642694 -0.061787877 -0.07664961 -0.120441
000290 92 c9 ba bd f2 a8 63 3c 8e 4b b6 bd 86 26 25 bd
       -0.09120478 0.01389526 -0.0890113 -0.040319942
0002a0 cf eb 7e bc a2 17 06 3e 42 d5 55 3d 6c 61 d8 3b
       -0.015559151 0.13094953 0.05220533 0.0066034105
0002b0 5a db ea 3d d0 b1 11 3c 56 4c 8c bc 30 70 06 3d
       0.11467619 0.008892491 -0.017126244 0.032821834
0002c0 6f 50 1d bd 24 d0 ad 3d d2 e5 95 bd 8f 8d 3e 3e
       -0.038406786 0.08486965 -0.07319225 0.18608688
0002d0 6a ea e4 bd 3a a6 9a b8 4a 65 11 3e 63 c4 dc 3d
       -0.111775234 -7.374254e-05 0.14198795 0.10779645
0002e0 7a 83 2f be ef d4 eb 3d 17 a2 96 bd 90 c2 be bb
       -0.17139998 0.11515223 -0.07355135 -0.0058215335
0002f0 c6 03 07 3e 3f 36 b1 bd 00 d1 0d 3e 45 bd b1 bd
       0.13185033 -0.08652925 0.13849258 -0.086786784
000300 52 41 8e be 58 30 ab 3d 1f 9f 7b 3c e9 41 83 3d
       -0.2778421 0.0835883 0.015357762 0.06409056
000310 63 10 4e be ea ff 4e 3e 67 cb 2b 3e a2 8c 61 be
       -0.20123439 0.20214811 0.1677681 -0.22026303
000320 f8 23 1d 3c 32 55 f8 bd 84 30 20 3e b6 07 ac 3b
       0.009591095 -0.12125625 0.15643507 0.0052499427
000330 11 d8 cb bd 5b 48 03 be fb 20 24 3e 28 97 06 3e
       -0.09953321 -0.1282057 0.16028206 0.13143599
000340 60 6c 04 3d d1 5d 58 3e 22 34 3c be 50 69 09 be
       0.032329917 0.21129538 -0.18379262 -0.1341908
000350 99 74 0f 3e bb cb 18 3e 76 07 54 be 6a d1 64 bd
       0.14009322 0.14921467 -0.20705971 -0.055863775
000360 44 30 1c be f6 9e 55 be 46 52 41 be d7 e6 c6 3d
       -0.15252787 -0.2086142 -0.18879041 0.09711998
000370 84 07 56 bd 4c 94 a3 bd 76 83 25 3b 13 30 7b be
       -0.05225326 -0.0798727 0.0025255359 -0.24530058

fc2.bias f4 [7]
000000 b4 c1 32 be 9b b8 e7 3c 83 4c 0a be a8 fc 51 bd
       -0.17456704 0.028286269 -0.1350575 -0.051266342
000010 61 1d 21 3d 1d 78 1c 3e 12 f0 4d bd
       0.03933466 0.15280195 -0.050277777
