Additional Experiments/Noisy_Kuzushiji/NQE650.pt (torch, 9989 bytes, 6 tensors)

layer1.0.weight f4 [1, 1, 3, 3]
000000 89 0a 9f 3e 89 73 9f 3d a4 72 b4 3e dd df 19 bd
       0.31062725 0.077857085 0.35243714 -0.03756701
000010 60 2e cb 3e e0 df 42 3e b5 fd a9 3d 20 54 74 3d
       0.3968382 0.19030714 0.08300344 0.05965054
000020 33 b9 a9 3e
       0.33149108

layer2.0.weight f4 [1, 1, 3, 3]
000000 43 ee 4c be 47 f9 af be 1f ed 03 bd b9 e8 a5 be
       -0.20012765 -0.3436987 -0.03220856 -0.32404116
000010 17 1d a7 bc 5f 89 ee be b1 39 c3 3e 89 e4 2d be
       -0.020399613 -0.4658918 0.38129953 -0.1698171
000020 36 2f 94 bd
       -0.07235567

fc1.weight f4 [32, 49]
000000 13 7a f4 3d 2d 3d 32 3d 7a c7 3d 3c 60 4d 91 bd
       0.11937346 0.043515373 0.011583203 -0.07094836
000010 bd c4 4c 3c 87 4b fd bd 9c 3f bb 3c d4 22 0f 3e
       0.012498078 -0.12367921 0.02285748 0.1397813
000020 33 54 e2 3d bf 5e b3 3d 94 52 79 bd cd 1e 27 3c
       0.11051216 0.08758306 -0.06086977 0.010200215
000030 62 f5 70 3d 2b 79 68 bd cf 32 ea 3d 53 c0 23 3e
       0.058827765 -0.05675618 0.11435472 0.15991335
000040 fd 36 b4 bc b6 6b ce bd 5d c7 b1 bd e5 12 c8 bd
       -0.021998877 -0.10079138 -0.08680604 -0.09769229
000050 4a 99 90 bd 3f 4f c3 3d 6b c3 eb 3d ca 2e d8 bd
       -0.070604876 0.09536599 0.115118824 -0.10555799
000060 7c 3a 28 be 36 56 56 bd f5 b5 85 3d b6 7b 15 3e
       -0.1642856 -0.05232831 0.06528846 0.14597973
000070 d6 2e 1e 3e a8 ce 40 3d de a3 f1 3d c6 c9 b2 bd
       0.15447554 0.047072083 0.11798833 -0.087298915
000080 75 3b 7d bb b6 d3 ba 3b ff 7b b2 3d 97 16 dc bd
       -0.0038640175 0.0057015074 0.08715057 -0.10746496
000090 78 c3 e1 3d 7e 22 e3 bd ea 36 f6 bb 6b 9a c8 3c
       0.11023611 -0.11090563 -0.0075138705 0.024487695
0000a0 d1 a5 ee 3d 2f ae fb bc 38 37 d6 bd 33 ff a0 3d
       0.11652721 -0.030722706 -0.10459751 0.078611754
0000b0 66 5e 07 be f0 0c dc 3d 07 1e b8 bd b8 e7 0b be
       -0.13219604 0.10744655 -0.08990102 -0.13662612
0000c0 e2 39 0d be 4d f5 ef 3d d6 d6 03 be 50 d4 7c 3c
       -0.13791612 0.11716709 -0.12874922 0.015431479
0000d0 06 47 c8 3d f6 43 89 bd da 4d f3 bb 28 1e 9a 3c
       0.09779172 -0.06702416 -0.007425052 0.018813208
0000e0 07 f3 96 bd e0 48 7c 3c 79 a4 ce bd 1d 19 11 3e
       -0.073705725 0.015398234 -0.100899644 0.14169736
0000f0 06 3c ba bd d4 ca 9d bd 72 06 0f 3e 6d c4 e0 bd
       -0.0909348 -0.07704702 0.13967302 -0.10974965
000100 a3 25 ff 3d 92 1f 1a 3d b3 4c cf bd d6 48 31 3d
       0.124583505 0.037627764 -0.10122051 0.043282352
000110 0a 85 72 bd 0d c1 25 bd 5f bf ea 3c 30 be d2 3d
       -0.059208907 -0.04046731 0.028655706 0.10290182
000120 06 26 0a 3e b4 ea 15 3d fe 34 b7 3d 60 5a db bb
       0.13491067 0.036600783 0.08945654 -0.006694123
000130 c2 ff 07 be 8a f1 9e 3d 4c 99 e2 bd cc e0 d4 3d
       -0.13281158 0.07760914 -0.11064395 0.10394439
000140 ee 09 91 bd eb 08 21 3d 70 b9 14 be 88 e4 ec bd
       -0.07081972 0.039315145 -0.14523864 -0.115670264
000150 e1 2d b3 bd 50 28 d2 ba 65 73 e7 bc cf 31 ab bc
       -0.08748985 -0.0016033743 -0.028253267 -0.020897774
000160 c3 ad f0 bd 4b 65 ac bd 37 4a bf 3d d5 37 e2 bd
       -0.117518924 -0.084177576 0.09340327 -0.11045805
000170 0e 19 bf 3c 37 c4 dd bd 2f 9f 92 3c 63 f4 4a bd
       0.023327377 -0.10828441 0.01789817 -0.04954947
000180 77 b2 17 bd 72 f9 b7 bd 5b 69 c5 3d 9a bf d9 bb
       -0.03703543 -0.08983125 0.096392356 -0.006645155
000190 97 ab 93 bd d9 39 a1 3c 93 d4 9a bd 26 89 4f 3d
       -0.072104625 0.019680904 -0.075600766 0.050667904
0001a0 32 f7 a3 bd d1 e7 05 3d 68 7e f5 bd ca 54 49 3d
       -0.08006133 0.03269178 -0.11987001 0.049153127
0001b0 55 a9 7b 3d 61 47 a9 3d 0f be ad 3d da cd f5 3d
       0.061440784 0.082655676 0.084835164 0.12002154
0001c0 05 77 bc 3c c6 05 e3 bc e4 e3 c6 bd 06 af cb 3d
       0.023005972 -0.027712714 -0.097114354 0.099454924
0001d0 72 5c fa bd 2b c7 6e bd d8 4c 09 3e c8 d1 78 3d
       -0.12224664 -0.05829541 0.1340822 0.060746938
0001e0 b4 9b 92 3b 76 8e 3d bd 25 bb 0a be 60 5d db 3b
       0.0044741277 -0.04627844 -0.13547952 0.006694481
0001f0 1a 94 0f be 1d 5d 5b 3d bc 71 d3 3d 81 e7 0a 3e
       -0.1402134 0.053555597 0.103244275 0.13564874
000200 83 4e 0f 3e 74 54 af 3c 01 64 e2 3d fb 51 bc 3d
       0.13994794 0.021402575 0.110542305 0.09195324
000210 de 59 e0 3d 8b dc a9 bd 05 c0 82 3d 9a 4c fa 3d
       0.10954641 -0.08294018 0.06384281 0.12221642
000220 78 d2 ff 3d db ca 34 bd 6b 1c 9f 3c 94 88 5c 3c
       0.124913156 -0.04413877 0.01942273 0.013460297
000230 c2 31 ae bd 94 8a a0 3b a6 09 b1 3d c6 47 b4 3d
       -0.08505584 0.0048993323 0.086444184 0.08802752
000240 6b 68 da bd 6b ab 0a bd 1d b4 e3 bd da 44 13 3e
       -0.106644474 -0.033854883 -0.11118338 0.14381734
000250 a3 80 7e 3d e4 00 11 bd af e2 45 3d 45 32 f6 bd
       0.062134396 -0.03540124 0.048311885 -0.12021307
000260 be ef ab 3d d3 6b 1e bd 4e 55 93 bd e8 0b 11 3e
       0.083953366 -0.038677048 -0.07194005 0.14164698
000270 85 36 39 bc 4f b3 b2 bc be 63 ed 3d b1 a5 bc 3d
       -0.011304502 -0.021814017 0.1159129 0.09211291
000280 65 2c f7 3d 85 14 f4 bc bd 84 8b bd ae 5e e9 bd
       0.120690145 -0.02979494 -0.06812427 -0.11395012
000290 ba cc 15 bb b5 89 fc 3d cc 95 a6 bd ef 2b b5 bd
       -0.0022857622 0.12330953 -0.0813404 -0.0884627
0002a0 17 f1 bb bd df 11 a0 bd e3 08 04 3e 5d 44 fb bd
       -0.091768436 -0.07815909 0.12894015 -0.12268899
0002b0 80 7f f6 3c 15 04 85 3d 7c 4c ad 3d 60 78 b5 bd
       0.030090094 0.06494919 0.08461854 -0.0886085
0002c0 3c 43 08 be 7f 99 ee 3d 58 6c 2c bd 42 7d 00 3e
       -0.13306898 0.11650371 -0.042095512 0.12547782
0002d0 94 3b 43 bd c9 7f 82 bd a5 05 e8 3c 02 fd c1 3c
       -0.04766424 -0.06372029 0.028323004 0.023680214
0002e0 39 c3 54 bd 1e 6b d6 bd 38 2e f5 bd a9 b2 89 bd
       -0.05194399 -0.1046965 -0.11971706 -0.0672353
0002f0 09 d0 81 bd 6f 6c d1 3d 84 92 95 3d d8 f9 fd 3d
       -0.06338508 0.1022576 0.07303336 0.124011695
000300 c1 c3 9a bd c1 26 d0 3d 43 17 9b 3d 79 2b 95 3d
       -0.07556868 0.10163642 0.07572796 0.072836824
000310 5f a7 17 3c 09 56 e4 bd 96 a5 97 3d bd 50 11 3d
       0.009256213 -0.111492224 0.0740463 0.03547739
000320 d7 27 d2 bc 2d 7e 5e bd 63 36 51 bc e6 31 9a bd
       -0.025653763 -0.05431955 -0.012769314 -0.075290486
000330 81 d7 b4 bd eb e9 8e 3c f7 87 61 bd a9 76 ad bd
       -0.088301666 0.017445525 -0.055061307 -0.08469898
000340 ca a0 da bc 6d 02 9c 3d e0 5d b8 3d ea 5d e9 bb
       -0.026687998 0.0761765 0.0900228 -0.007121791
000350 18 18 08 be da bb f5 bc 34 c3 22 3c 9d 36 95 3d
       -0.13290441 -0.029996801 0.009934235 0.07285807
000360 90 0e a7 bd a6 40 b0 3d 35 69 a2 3d 45 fb 28 3c
       -0.081570745 0.08606081 0.07930223 0.010313814
000370 37 86 0f be 4b f4 d6 bd 4b f0 7d 3d 7f 9d 00 3e
       -0.14016043 -0.10495814 0.06199674 0.1256008
000380 4d 1e e5 bc c5 20 07 3e fa c7 fc 3d 8d 1f 8c bd
       -0.02796855 0.13196094 0.1234283 -0.06841955
000390 37 cf f1 bd c0 35 ee bb 15 70 d1 3d cd 07 60 3d
       -0.11807101 -0.007269591 0.10226456 0.05469494
0003a0 f2 cd e4 bd d1 e6 3a bd 45 d5 10 3e eb f1 4f 3d
       -0.111720935 -0.04563028 0.14143856 0.05076782
0003b0 8a bb 0c bc 55 07 89 bd bd 7c 28 be 4f 6c ab bd
       -0.008589635 -0.066908516 -0.16453834 -0.083702676
0003c0 60 8f 29 bd 89 a3 93 bd 24 f5 83 bd b5 66 08 bc
       -0.0413965 -0.07208926 -0.06443241 -0.0083252685
0003d0 2b 94 95 bd c8 14 09 3e 08 30 39 bc bb 8b 86 3d
       -0.073036514 0.13386834 -0.011302955 0.0656962
0003e0 f5 49 33 bd 5a c3 f5 3d 2a 1c e1 bd c8 d6 15 3e
       -0.043771703 0.12000151 -0.109917 0.14632714
0003f0 44 62 2f bd 33 41 58 3d 9e f4 8d bc 6c 23 4c bd
       -0.042818323 0.052796554 -0.017328557 -0.04983847

fc1.bias f4 [32]
000000 d6 b0 ef bd 55 95 73 bd fd 99 01 be 79 da cd 3b
       -0.11703651 -0.059468586 -0.12656398 0.0062821475
000010 93 14 8e 3c fd e3 0a 3e 6e c7 b2 bd f3 f3 55 bd
       0.017343795 0.13563533 -0.087294444 -0.0522346
000020 6b 7c 02 be 74 d2 d3 3d a0 65 db bd de 43 fc bd
       -0.12742774 0.10342875 -0.10712743 -0.12317632
000030 2f fa f9 bd 7a 40 08 be de 45 c3 3d ce a7 df 3c
       -0.12205922 -0.13305846 0.095348105 0.027301695
000040 c9 0e b9 3d 1e c2 cd bd 1f 3d f9 3d 9b 67 a2 bd
       0.09036023 -0.100467905 0.12169861 -0.079299174
000050 e1 a7 8e 3d 98 9e d8 3d c7 b8 80 bd 6c 95 0b 3e
       0.06965614 0.10577124 -0.062852435 0.13631219
000060 ff 78 89 bd 71 76 27 bb 86 53 f7 bd 5f e2 01 3e
       -0.06712531 -0.0025552774 -0.12076478 0.1268401
000070 02 56 a6 bd e7 16 ff 3d 51 1f ec 3d 13 57 00 be
       -0.081218734 0.1245554 0.11529411 -0.12533216

fc2.weight f4 [7, 32]
000000 94 36 c4 3d bf bf bf 3d ef 8a f3 bd ce 42 26 3e
       0.095807225 0.093627445 -0.11891734 0.16236421
000010 83 e4 01 be f1 06 2c bd 5a 08 7a 3d 27 1b 89 3d
       -0.12684827 -0.041998807 0.06104312 0.06694632
000020 d1 53 f3 bd 0b 87 8b bc 9d ec 14 3d 4a 65 83 3d
       -0.11881221 -0.017032167 0.036358465 0.06415804
000030 75 53 87 bd a4 76 0e be 92 eb c7 bc c8 d1 08 be
       -0.06607715 -0.13912445 -0.02440432 -0.13361275
000040 63 e1 bd bb 8b 49 86 bd e0 df d1 bd e2 ea 02 be
       -0.0057946905 -0.06556996 -0.10247779 -0.12784913
000050 d7 df 26 bd ad 0d 02 be 35 27 38 be ca b9 58 bd
       -0.040740814 -0.1270053 -0.17983706 -0.052911557
000060 d9 22 8a bc af 94 cd 3d 23 51 14 3e f3 df 34 3c
       -0.01686232 0.10038125 0.14484076 0.011039722
000070 87 9b f2 3d d7 83 f8 bd 45 21 ca bd 7c b4 ae 3c
       0.11846071 -0.121345215 -0.09869627 0.021326296
000080 bc bb 99 bd b6 9b 80 bd ef 91 14 3e e2 85 f1 bd
       -0.075065106 -0.062796995 0.14508794 -0.11793114
000090 a5 e9 d9 3d a1 ac 2b bd 6c 67 d8 3c 9b 67 0f 3e
       0.10640267 -0.04191268 0.026416503 0.14004366
0000a0 d6 9f da 3d 64 30 b6 3d 3d fe 3b be dc 17 e7 bc
       0.106750175 0.088959485 -0.18358703 -0.02820962
0000b0 9a 6a c7 3d 75 ab f6 bb 46 5b 2b be 12 51 5e 3d
       0.097371295 -0.0075277635 -0.16734037 0.054276533
0000c0 54 c8 99 3d 86 59 01 bc 2a 68 15 3d 3e 61 15 bd
       0.07508913 -0.007894879 0.03647629 -0.03646969
0000d0 e5 21 22 bd 1f 17 98 bd 3c 9f 02 3e 3f 91 10 be
       -0.039583106 -0.07426285 0.12756056 -0.14117907
0000e0 ab 07 f2 3d f7 47 c6 3d 64 3c 25 be 8a 15 3f be
       0.11817869 0.09681695 -0.16136318 -0.1866056
0000f0 f3 f6 0f 3e c4 91 20 3d 73 e5 d4 3d 65 be 21 be
       0.14059047 0.039201513 0.103953265 -0.15795286
000100 d1 7a fa bc 60 2b f4 bd f1 bc 06 be 48 78 50 bd
       -0.030576142 -0.119223356 -0.13158013 -0.05089596
000110 16 05 1f be 6b 6f 2e 3e 5a 3e 14 3e ff b4 21 be
       -0.15529284 0.1703469 0.1447691 -0.15791701
000120 03 d6 32 3c 12 f8 a1 3d d3 bd 20 3e bc e3 e9 3d
       0.010915282 0.07908644 0.15697412 0.1142039
000130 da fc 44 be 3c 41 c7 bd 75 97 21 be 5b 80 2a be
       -0.1923708 -0.09729239 -0.15780433 -0.16650526
000140 79 f1 3d bd 7b 84 e4 3d c1 be 33 3d df 33 9a 3d
       -0.046372864 0.11158081 0.04388309 0.07529425
000150 4c 37 05 3e a6 d8 97 bd b3 c6 14 bd 2d c2 1e be
       0.13009375 -0.07414369 -0.036322307 -0.1550376
000160 4a 37 9b 3d b2 75 1e be 7a 9f 01 be 5f 3e 94 bc
       0.07578905 -0.15474585 -0.12658492 -0.018096147
000170 6c 86 61 bd 2f 6e bf 3d 4b 12 05 3e 60 f7 84 bd
       -0.055059835 0.09347188 0.1299526 -0.064924955
000180 4e 2c 57 3d 9b 64 cb bd e9 ea ff 3d 55 41 0f 3e
       0.052532487 -0.09931298 0.124959774 0.13989766
000190 4b 54 05 bc 72 c5 0f be d4 78 18 3e 26 55 f3 bd
       -0.008137773 -0.14040163 0.14889842 -0.11881475
0001a0 6d a8 58 bc 13 e1 18 3e a1 ed 1e bd f4 76 3d 3d
       -0.01322375 0.14929609 -0.03880084 0.04625602
0001b0 e0 87 23 3a 9d a1 9c 3d f2 b0 fb bd 33 c7 1b 3e
       0.00062382035 0.07648013 -0.12289609 0.15212707
0001c0 ad 45 33 3d fc 1f 3b bd c0 ba b6 3d 8e a5 fb bd
       0.04376762 -0.0456848 0.089223385 -0.122874364
0001d0 96 78 0f be 68 f3 e8 3b a2 b7 01 be 4f 5e a9 bd
       -0.14010844 0.0071090944 -0.12667707 -0.08269941
0001e0 7c 66 26 3e 88 06 02 3d 72 51 a2 3d 96 0e 2c bd
       0.16250032 0.03174451 0.07925691 -0.042006098
0001f0 9e 02 db bd ad 83 c7 bd 4a 07 0b be 12 97 b7 3d
       -0.106938586 -0.09741912 -0.13577 0.08964361
000200 e2 b0 c4 3c db 1a 2c 3e df 96 21 be 0d f0 b9 3d
       0.024010126 0.1680712 -0.15780209 0.09078989
000210 cb 45 72 bd 03 3a f7 3c 7e ee fa 3d 0e 0b a2 bd
       -0.05914859 0.03017903 0.1225252 -0.07912265
000220 2c 29 24 be bd f5 0e 3e c7 5f ef 3d af 16 36 3d
       -0.16031331 0.13960929 0.1168819 0.044455227
000230 bb 53 37 be b6 f7 08 3e cb 0b c1 3d d0 02 2b 3e
       -0.17903034 0.13375744 0.094260775 0.16700292
000240 a2 61 70 bd 52 6f 08 be 3a 93 f9 bd fb 84 1e 3e
       -0.05868686 -0.13323715 -0.12186284 0.15480416
000250 79 dc 08 be 4e 32 7e 3c f5 94 f2 3d be 73 66 3d
       -0.13365354 0.015514923 0.118448175 0.056262724
000260 1b ec f1 bd 76 ca ec bd a1 8d 12 3e 1b 2d 18 3e
       -0.11812612 -0.11562054 0.1431184 0.14860956
000270 7c db eb 3d 65 f0 10 be f1 87 7f bc 27 ff d8 3d
       0.11516473 -0.14154203 -0.015596376 0.105955414
000280 43 3c b6 3d 81 86 78 bd 89 4e 91 bd 1d f5 fc bd
       0.08898213 -0.060675148 -0.070950575 -0.12351439
000290 1e 9f b2 bd 7c 0a 1a 3c 53 e8 b8 bd 2b 6a 24 bd
       -0.087217554 0.009401914 -0.09028687 -0.040140312
0002a0 00 4c 76 bc 05 cb 02 3e c3 cf 59 3d e3 e9 b9 3b
       -0.015032768 0.12772758 0.053176653 0.0056736334
0002b0 53 ac e6 3d 41 d3 28 3c 4b e2 af bc 8f dd 0d 3d
       0.11263337 0.010304273 -0.02147021 0.034635123
0002c0 88 c3 29 bd f9 27 b0 3d bb 34 8a bd 0f 68 3a 3e
       -0.04144624 0.08601374 -0.06748339 0.18203758
0002d0 9b 48 e9 bd 9c bb c4 ba 86 c0 11 3e 64 dc dc 3d
       -0.113908015 -0.0015009525 0.14233598 0.10784224
0002e0 f2 b8 2e be a1 06 e4 3d 7e 2d 96 bd 1f 66 18 bc
       -0.17062739 0.11134077 -0.07332896 -0.009301691
0002f0 9d af 08 3e 96 ae a8 bd a5 60 0b 3e a6 61 b7 bd
       0.13348241 -0.082364246 0.13611086 -0.08954172
000300 21 42 94 be 22 61 ac 3d 78 0c 93 bc 37 f5 ad 3d
       -0.28956702 0.08416964 -0.017950282 0.08494037
000310 1f 57 58 be 2e 7b 62 3e 1f 18 36 3e a2 9c 63 be
       -0.21126984 0.22117302 0.17782639 -0.2222772
000320 5f 7b 4e 3c dc ff ff bd 4d a4 27 3e 45 a0 45 3c
       0.012602656 -0.12499973 0.1637127 0.012062137
000330 8f 3e e8 bd 57 0e 0b be 49 45 1e 3e c2 7f 06 3e
       -0.11340057 -0.13579689 0.15456118 0.13134673
000340 25 1f 09 3d 97 41 4f 3e 23 d2 54 be 35 7a f7 bd
       0.033476967 0.20239864 -0.20783286 -0.12083856
000350 14 e1 19 3e 81 3c 22 3e cd 98 67 be ed 5f 8d bd
       0.15027267 0.15843393 -0.22616883 -0.06903062
000360 70 7c 1b be 0f 2d 46 be 44 d1 3e be bd a9 f4 3d
       -0.15184188 -0.19353126 -0.18634516 0.119464375
000370 3b 69 7a bd f1 65 c3 bd cc be f2 bb 89 41 67 be
       -0.06113551 -0.09540928 -0.0074079987 -0.22583593

fc2.bias f4 [7]
000000 61 45 33 be 25 ea ea 3c 4c 05 0a be b6 3a 52 bd
       -0.17506935 0.028676102 -0.13478583 -0.051325522
000010 cc 13 20 3d ef 7b 1a 3e 99 76 52 bd
       0.03908138 0.1508634 -0.051382635
