Additional Experiments/Noisy_Kuzushiji/NQE750.pt (torch, 9989 bytes, 6 tensors)

layer1.0.weight f4 [1, 1, 3, 3]
00000000: 40fa 9f3e d830 a53d 26cd b63e a3fb 10bd
00000010: 4e2c cb3e 53b3 423e 22a0 b33d 32c2 7b3d
00000020: 5cc8 a93e
0.31245613 0.08065957 0.3570339 -0.03539623 0.3968224 0.1901372 0.08770777 0.061464496
0.33160675

layer2.0.weight f4 [1, 1, 3, 3]
00000000: a293 50be ac41 b4be 84fc 24bd 330c a8be
00000010: d2a8 cebc 0abe eebe b3c1 bf3e b824 2dbe
00000020: bdc1 92bd
-0.20368817 -0.35206354 -0.04027988 -0.32821807 -0.025226984 -0.46629363 0.37452468 -0.16908538
-0.07165859

fc1.weight f4 [32, 49]
00000000: 1ffc f13d ca68 2f3d 4d5a 113c bfe1 96bd
00000010: a4f7 453c 4b48 f8bd 4f2f b13c fbf4 0e3e
00000020: 75fd dc3d b03f b43d 4db1 80bd 4410 fb3b
00000030: 77fb 783d d67c 60bd 4dd9 e73d 31d3 233e
00000040: 0dca b8bc 6797 d3bd 83e8 babd 1620 cabd
00000050: 0623 8abd 37e1 c03d 9381 ec3d e2b6 d7bd
00000060: 139b 25be 20de 58bd 67c9 833d 24f5 163e
00000070: 1b17 223e ccc2 413d f29b ed3d 4b2f b3bd
00000080: 10f3 f3ba 32c8 053c 2424 b83d 6b2c ddbd
00000090: 3d33 de3d e5a4 e2bd 3d23 fbbb d26d ae3c
000000a0: c1bf ea3d fbe8 eebc 1982 e1bd 7a35 9b3d
000000b0: 41b3 05be 3697 dc3d c19d bdbd 6de8 0ebe
000000c0: 74be 0ebe 4e9a f03d 3cc3 03be 56fc 8a3c
000000d0: f780 c93d 6a25 89bd efd6 07bc 8814 9d3c
000000e0: f96d 96bd a762 7e3c 15bb ccbd 76b9 123e
000000f0: 230d b9bd cc86 9ebd 847e 0e3e fa03 e0bd
00000100: d3da fd3d 2216 1a3d 670d ccbd ae83 353d
00000110: 3da8 72bd bb23 28bd 6f7c e93c d039 d13d
00000120: 1b8b 093e a71e 133d c0ee b73d af5d ecbb
00000130: 3cec 08be e24e 9b3d c3c0 e3bd d5e3 d43d
00000140: c145 90bd 711b 203d 9b79 15be b076 efbd
00000150: cd53 b3bd 62d6 96ba abc5 e8bc 7898 afbc
00000160: f5a3 eebd 7e0e aabd d995 be3d f71d debd
00000170: 74ca c43c 8c1e debd 9842 953c 8e03 49bd
00000180: 4890 13bd 72e1 b6bd a825 c53d 9272 d1bb
00000190: aff1 96bd 871b 9d3c fcb8 9abd 4698 533d
000001a0: 9f57 a4bd c51a 063d 0a79 f5bd 1df2 473d
000001b0: b0d4 763d 80fa a73d 8c4d ad3d 679a f63d
000001c0: fdaa b93c 8219 dcbc 9c8d c7bd 0cd9 c83d
000001d0: f585 fabd 4740 6cbd df6c 093e 0597 793d
000001e0: ea6b af3b a51d 3dbd d746 0abe 175e de3b
000001f0: f740 0fbe 41eb 5e3d d014 d73d 3193 0b3e
00000200: d87f 0e3e 7d3d a53c eb3a e23d af73 be3d
00000210: 48b4 e23d b3ee a8bd 3539 823d 00dd f83d
00000220: eb41 003e 90e9 35bd 81c5 9e3c 4402 643c
00000230: 6ece b1bd 3c3d 9d3b aceb b03d 604e b33d
00000240: 720b dabd b606 0dbd 9470 e4bd ecbb 133e
00000250: 2e1f 7f3d 8eb5 07bd ebfa 493d ab62 f5bd
00000260: fa35 aa3d 2ae9 1bbd f3f4 92bd 7d6a 113e
00000270: 539d 2cbc ab2b a3bc c2af ee3d e737 bb3d
00000280: ee00 f63d 9751 f3bc ecb6 8cbd de8a e9bd
00000290: 5fec 96ba 8299 ff3d 6858 a6bd ba5f b7bd
000002a0: a409 bcbd 1fac a1bd b3b5 033e 9158 fcbd
000002b0: 459c fa3c 85e6 833d 99ea aa3d 2bf1 b9bd
000002c0: 60f2 08be 4ea7 ee3d d6de 2abd 5808 003e
000002d0: 2e03 46bd 0158 85bd f60c e33c 530a c53c
000002e0: 7f51 56bd bba0 d6bd 0e8b f1bd b1b9 86bd
000002f0: 67d8 82bd 924c d63d e129 973d a66f fc3d
00000300: 33ed 99bd fd29 d33d eeda 9d3d eb9d 963d
00000310: 9449 0b3c cb31 e4bd 0283 903d 0a2d 083d
00000320: 45d1 d3bc 6222 55bd 9b01 62bc ada7 99bd
00000330: cf6c b7bd ae2d 903c 54c6 6abd 61f7 b0bd
00000340: 567c cfbc e60e 9f3d 22f9 b63d 7da6 c5bb
00000350: 97ac 08be 9da0 05bd 254b eb3b 4683 953d
00000360: 5849 a2bd 3e82 af3d 7d10 a53d 239e 2d3c
00000370: 956f 0dbe dd5e d7bd e41a 7e3d 2976 023e
00000380: 1435 c3bc 141f 083e 1122 f93d 2053 8ebd
00000390: 13c3 eebd d5fd 97bb e5e6 d63d 3a06 623d
000003a0: fefe e6bd 5d19 3dbd ede6 103e 7489 463d
000003b0: 79e1 20bc ce1e 86bd 4856 2dbe 4a5a aebd
000003c0: 7598 24bd 352d 94bd 3e3f 87bd 6e26 2dbc
000003d0: 24f9 97bd 7414 0a3e e435 33bc 793c 8c3d
000003e0: 347e 29bd 5b45 f63d ff25 e6bd 49da 163e
000003f0: a15c 2fbd b2ef 603d 4ef1 91bc 0084 44bd
0.118156664 0.042824544 0.008871627 -0.073672764 0.012082968 -0.12123164 0.021629004 0.1396064
0.107905306 0.0880121 -0.062838174 0.007661851 0.06078669 -0.054806553 0.11320744 0.15998532
-0.022557283 -0.10331612 -0.09126379 -0.09869401 -0.067449614 0.09417956 0.11548152 -0.10532929
-0.16172437 -0.05294621 0.06434899 0.14741951 0.15829127 0.047304913 0.1160201 -0.08749255
-0.0018611867 0.008165406 0.08991268 -0.10799488 0.10849617 -0.110666074 -0.007664113 0.0212926
0.114623554 -0.029163828 -0.11011142 0.07578559 -0.13056661 0.10771029 -0.09258605 -0.13955851
-0.1393984 0.11748181 -0.12867445 0.016966026 0.09839051 -0.06696589 -0.00829099 0.01917483
-0.07345194 0.01552645 -0.099966206 0.1432856 -0.09035709 -0.07740554 0.1391545 -0.109382585
0.12395253 0.037618764 -0.09963494 0.044315033 -0.059242476 -0.0410497 0.028501717 0.10216105
0.13431971 0.035917904 0.08981085 -0.0072133164 -0.13371366 0.07583405 -0.11120751 0.10395018
-0.070445545 0.03908867 -0.1459717 -0.1169256 -0.08756218 -0.0011507983 -0.028414568 -0.021435007
-0.11652366 -0.083035454 0.09305925 -0.10845559 0.024022318 -0.1084567 0.018220231 -0.049075656
-0.03602627 -0.08929719 0.09626323 -0.0063918317 -0.07370316 0.019178165 -0.07554814 0.05165889
-0.08024525 0.032740373 -0.11985977 0.04881488 0.06026143 0.08202076 0.084620565 0.12041169
0.022664541 -0.026867632 -0.09743807 0.098070234 -0.122325815 -0.057678487 0.13420437 0.06093504
0.0053534405 -0.04617085 -0.13503586 0.0067861187 -0.13989626 0.054423574 0.105020165 0.13630368
0.13915956 0.020170921 0.11046394 0.09299409 0.11069542 -0.08248653 0.063585676 0.121515274
0.12525146 -0.044412196 0.019381287 0.013916556 -0.086819515 0.0047985595 0.08638701 0.08755183
-0.10646714 -0.03443023 -0.11154285 0.14427155 0.062285595 -0.03313213 0.04931156 -0.1198171
0.083110765 -0.03806416 -0.071756266 0.14200778 -0.010535556 -0.019918283 0.11654617 0.09141522
0.12011896 -0.029701991 -0.06870827 -0.1140344 -0.0011514536 0.12480451 -0.08122331 -0.08953805
-0.09181526 -0.078941576 0.12862282 -0.1232158 0.030592093 0.064404525 0.08345527 -0.09079202
-0.13373709 0.116530046 -0.04171642 0.12503183 -0.048342876 -0.06510926 0.027716141 0.024052775
-0.052323814 -0.10479876 -0.11794101 -0.065783866 -0.06388932 0.104638234 0.07381035 0.12325983
-0.07515945 0.10310743 0.07707773 0.07354339 0.008501429 -0.1114231 0.07056238 0.033246078
-0.025856623 -0.052034743 -0.013794328 -0.07502685 -0.089563005 0.017599907 -0.057318047 -0.08640934
-0.025327843 0.077665135 0.08934237 -0.00603181 -0.13347088 -0.032623876 0.007180589 0.07300429
-0.079241455 0.085697636 0.080597855 0.010596785 -0.13812096 -0.105161406 0.062037364 0.12740387
-0.02382902 0.13293105 0.12164701 -0.069494486 -0.11658301 -0.0046384134 0.104932584 0.05518172
-0.11279105 -0.046166766 0.14150591 0.04847093 -0.009819382 -0.06548844 -0.16927445 -0.08513315
-0.040184457 -0.07235185 -0.06603859 -0.010568244 -0.07420567 0.13484365 -0.0109381415 0.06847472
-0.041380122 0.12024947 -0.11237716 0.14731707 -0.042812947 0.05491609 -0.017815258 -0.047977448

fc1.bias f4 [32]
00000000: cc2a f0bd 5b4e 73bd 01a8 01be 6f44 d43b
00000010: aa20 8d3c 6219 0b3e 803d b2bd adb1 56bd
00000020: 047e 02be 026e d33d 4d13 dbbd 0e1d fcbd
00000030: d0a5 fabd e562 08be d365 c33d 2fdf de3c
00000040: 9416 b93d 6ca7 cdbd 9637 f93d b8d6 a2bd
00000050: f13f 8f3d b7b9 d83d 8a65 81bd d55f 0b3e
00000060: 1732 89bd a06a 3dbb 1d5d f7bd a600 023e
00000070: 5fda a6bd 8f46 ff3d 27e0 eb3d cf52 00be
-0.11726913 -0.059400897 -0.12661745 0.0064778845 0.01722749 0.13583902 -0.087031364 -0.05241554
-0.12743384 0.10323717 -0.10697041 -0.12310229 -0.122386575 -0.13318975 0.09540906 0.027206032
0.090375096 -0.10041699 0.12168805 -0.079511106 0.06994618 0.10582297 -0.06318195 0.13610776
-0.06699007 -0.0028902665 -0.12078307 0.1269556 -0.0814712 0.1246463 0.11517363 -0.12531589

fc2.weight f4 [7, 32]
00000000: a3ed bf3d 6d27 c03d fe00 f3bd 8ffe 253e
00000010: caef 02be d1f8 29bd 5d55 7e3d ca55 853d
00000020: 8550 f5bd 6020 94bc 80fd 193d 1d1c 823d
00000030: 3dac 8abd c06e 0ebe aa4c d1bc 61d5 07be
00000040: 3ff7 acbb 8036 85bd 83ba d3bd 2719 03be
00000050: eca9 20bd 3ae0 00be e946 39be b17b 58bd
00000060: ec8e 8abc 819a ca3d a637 133e 475c 403c
00000070: eaca f13d fe6e f9bd fe74 ccbd 6b8a aa3c
00000080: 2f65 95bd 5cfb 7fbd 008f 153e ec3f f3bd
00000090: 3637 dd3d e765 2fbd 86f7 ca3c bfeb 0f3e
000000a0: 4314 dd3d 16ed b73d 8238 3cbe 6f20 ecbc
000000b0: 930a cb3d d5e2 c5bb 73e3 2abe 790e 5a3d
000000c0: ed05 983d 820a fabb 0f60 193d d96c 14bd
000000d0: 8b80 27bd 4b55 9abd a0d7 033e 8289 0fbe
000000e0: 3794 f23d e118 c73d 3c4d 24be 6cd3 3fbe
000000f0: 59ab 0f3e be76 243d 70a3 d63d 543d 21be
00000100: 7c62 febc fb74 f3bd ad58 08be b02c 47bd
00000110: 56a4 1fbe afbd 2f3e a5dd 133e 0b71 21be
00000120: 4127 303c 92cb a33d 80f9 1e3e f539 ec3d
00000130: c4c9 43be 96cd c5bd 9a2b 20be b2e8 28be
00000140: 162d 40bd f325 e13d 9ed2 2d3d 0d3e 9b3d
00000150: 1d30 053e bce0 94bd 5456 1abd 42b1 1fbe
00000160: 9340 9c3d 6d1f 1cbe 6d5c 01be 4652 88bc
00000170: 9a2c 61bd c347 bc3d 6b34 043e 0a2c 81bd
00000180: 2327 573d 463b cabd c6ab fd3d e026 0e3e
00000190: d9ed f2bb fb77 10be 3a7b 183e 78e0 f2bd
000001a0: 091e 60bc 7f60 193e 5bdb 1cbd be98 393d
000001b0: 1e04 85b9 06e1 993d f500 fbbd 76e0 193e
000001c0: d77e 323d d243 3bbd 90a0 b63d ee84 fabd
000001d0: 5955 0ebe 955e e33b d31d 01be 892f a7bd
000001e0: 4917 253e b722 013d 1e19 a13d d0fa 2bbd
000001f0: 6b88 d8bd caf9 c5bd e5ef 09be c03d b63d
00000200: a08d bb3c 8815 2b3e 248c 21be 5d74 ba3d
00000210: 6397 79bd 10c0 f93c 4805 fc3d 1efc a3bd
00000220: 7d09 24be 87de 0c3e 91ca f03d b6fa 363d
00000230: 90ea 38be 167a 073e bef4 be3d 1624 2b3e
00000240: 2066 6dbd 3202 08be 894d fbbd a6ca 1d3e
00000250: aedf 07be a6d1 7e3c 75cd ef3d 8edb 643d
00000260: 2eba f1bd c902 efbd 1fea 103e 122c 183e
00000270: 5ade e93d b711 11be 2baa 8abc d855 d83d
00000280: ba47 b53d 7204 74bd 567b 8cbd a916 00be
00000290: 2f0a afbd 5d7e fc3b c5b3 b9bd efd5 23bd
000002a0: 760e 78bc c715 013e db38 5e3d a4ee a03b
000002b0: cbbb e33d fea2 3a3c b922 c4bc 8a2e 123d
000002c0: a6b5 30bd 7120 b13d a043 85bd 3c30 383e
000002d0: 70ef e9bd caee d6ba eb62 113e 8496 dc3d
000002e0: a479 2ebe 4603 e13d 3486 95bd e1cc 27bc
000002f0: 1cc1 093e b64b a5bd 5270 093e 00eb b9bd
00000300: 6c67 96be 2615 a93d c45a efbc 0bad bd3d
00000310: 1152 5bbe 33ef 683e bab1 3a3e 8640 65be
00000320: c19a 613c 96c0 00be 5326 293e 474d 733c
00000330: d42d f2bd 0550 10be c2b5 1b3e 2fa7 053e
00000340: 760b 0c3d e394 4a3e 00a3 5ebe 4900 e9bd
00000350: 6844 1e3e d645 243e e2e2 6dbe 9a2e 93bd
00000360: ca05 1bbe 811f 42be d88e 3fbe 4518 ff3d
00000370: 308c 84bd 6f85 cdbd 01db 12bc 04ae 5ebe
0.093714975 0.0938252 -0.118654236 0.16210388 -0.12786785 -0.041497055 0.062093128 0.065105036
-0.119782485 -0.018081844 0.037595272 0.063530184 -0.06771133 -0.13909435 -0.025549252 -0.13264991
-0.0052784975 -0.06504536 -0.10338309 -0.12802564 -0.03922455 -0.12585536 -0.18093456 -0.052852336
-0.016913854 0.098927505 0.14376697 0.011740751 0.11806281 -0.12179373 -0.09983252 0.020817956
-0.0729469 -0.062495574 0.14605331 -0.118774265 0.10801546 -0.04282179 0.024776231 0.14054774
0.1079488 0.089807674 -0.18380931 -0.02882406 0.09914126 -0.0060390034 -0.16688327 0.05323646
0.07423005 -0.007630647 0.037445124 -0.036236618 -0.040894073 -0.075357996 0.12875223 -0.14017299
0.11844676 0.09721542 -0.16045088 -0.18732995 0.14030208 0.040152304 0.10480392 -0.15746051
-0.03105282 -0.11887547 -0.13315077 -0.0486266 -0.15590033 0.17162202 0.1444002 -0.15765779
0.010751546 0.07997812 0.15524864 0.11534492 -0.19119936 -0.09658353 -0.15641633 -0.16495016
-0.046917997 0.10993566 0.04243719 0.075801946 0.13006635 -0.07269427 -0.037679985 -0.15594962
0.07629504 -0.15246363 -0.12632914 -0.016640794 -0.054974176 0.09193375 0.12910621 -0.06307228
0.052527558 -0.09874587 0.12386279 0.13882017 -0.0074136076 -0.14108269 0.14890757 -0.1185922
-0.013679036 0.14978217 -0.03829513 0.045311682 -0.00025370804 0.07513623 -0.12256042 0.15027031
0.043577995 -0.045718975 0.089173436 -0.122323856 -0.13899745 0.0069387653 -0.12609033 -0.081633635
0.16122164 0.031527247 0.07866119 -0.04198724 -0.10572895 -0.09666784 -0.13470419 0.08898497
0.02289468 0.16707432 -0.15776116 0.09104226 -0.06093539 0.03048709 0.12305695 -0.08007072
-0.16019244 0.13756762 0.117573865 0.04467269 -0.18058228 0.13230166 0.093240246 0.16712984
-0.057958722 -0.13282087 -0.12270648 0.15409335 -0.13268921 0.015552914 0.1170911 0.055873446
-0.11803089 -0.11670453 0.1415181 0.14860561 0.11419363 -0.14166914 -0.016926846 0.105632484
0.088515714 -0.059574552 -0.06859462 -0.12508644 -0.08546864 0.0077054934 -0.090674914 -0.039998945
-0.0151401665 0.12605964 0.05425344 0.0049112607 0.11119803 0.011391399 -0.023942338 0.035688914
-0.043141983 0.08648766 -0.06507039 0.1798715 -0.11422622 -0.0016398069 0.1419789 0.10770896
-0.1703859 0.109869525 -0.07300988 -0.010241718 0.13452572 -0.08071081 0.13421753 -0.09078026
-0.2937578 0.08255987 -0.029218085 0.09261521 -0.21418025 0.22747497 0.1823186 -0.22387895
0.013769806 -0.12573466 0.16518526 0.014849967 -0.11825147 -0.14093025 0.15206054 0.13052057
0.034190618 0.19783358 -0.21741867 -0.113770075 0.15455782 0.16042265 -0.2323108 -0.07186623
-0.15138927 -0.1895733 -0.18706834 0.12455801 -0.06472051 -0.10035216 -0.008963347 -0.21746069

fc2.bias f4 [7]
00000000: f83f 33be 1584 e83c 5271 09be 0957 52bd
00000010: 3c26 203d 5844 193e 009b 50bd
-0.17504871 0.028383294 -0.13422135 -0.051352534 0.039098963 0.14967477 -0.05092907
