Additional Experiments/Noisy_Kuzushiji/PCA-NQE200.pt (torch, 3567 bytes, 6 tensors)

linear_relu_stack2.0.weight f4 [12, 4]
0	0x3e997556	0.29972333
1	0xbd4a5f9e	-0.049407594
2	0xbe93e910	-0.2888875
3	0x3e22bab6	0.15891537
4	0xbe5cda74	-0.21567708
5	0xbe48226a	-0.19544378
6	0xbe158c8f	-0.146044
7	0x3ede23a2	0.4338656
8	0xbe8c1c81	-0.27365497
9	0xbe73bb1e	-0.23801848
10	0xbee4ef16	-0.44713658
11	0x3eb99195	0.36243883
12	0xbef8b92f	-0.48578784
13	0x3eaf63df	0.34255883
14	0x3eee5b40	0.46553993
15	0x3de217f8	0.11039728
16	0x3f06ac8f	0.52607054
17	0xbdfca127	-0.12335425
18	0xbeaf81ed	-0.34278813
19	0xbe977f68	-0.2958939
20	0xbe7da716	-0.2477077
21	0x3f0b56ca	0.54429305
22	0x3e9f6a43	0.3113576
23	0x3cb19d17	0.021681352
24	0x3e275899	0.16342391
25	0x3e624bd9	0.22099246
26	0x3ecb4b99	0.39706114
27	0xbf0033e1	-0.5007916
28	0x3b694a00	0.0035597086
29	0xbd253400	-0.040332794
30	0xbef13b2e	-0.47115463
31	0xbe5e6f84	-0.21722227
32	0x3e9707ee	0.29498237
33	0x3e1226f0	0.14272666
34	0x3e88d111	0.26722005
35	0xbedd9644	-0.43278706
36	0xbe8ecf50	-0.27892542
37	0x3e9cd0e0	0.3062811
38	0xbe525f9d	-0.20544286
39	0xbe850875	-0.25983015
40	0xbec24c69	-0.3794892
41	0x3e1217bc	0.14266866
42	0xbdc471d8	-0.095920265
43	0x3e9d6136	0.3073823
44	0x3e374ede	0.17901179
45	0x3edbf8f8	0.42963386
46	0x3ee04a73	0.438068
47	0x3e0446b7	0.129176

linear_relu_stack2.0.bias f4 [12]
0	0x3e690036	0.22753987
1	0x3e76c96e	0.24100277
2	0x3e9554c9	0.29166248
3	0xbd9856bd	-0.07438419
4	0x3dfdc5e4	0.1239126
5	0xbd8b6169	-0.06805689
6	0x3e82edc4	0.25572026
7	0xbcfda5c0	-0.030962825
8	0xbeb129c0	-0.34602165
9	0xbeff91b9	-0.49915865
10	0xbea54b22	-0.32283884
11	0x3de10d34	0.109888464

linear_relu_stack2.2.weight f4 [12, 12]
0	0x3e83c881	0.2573891
1	0x3e39fc1f	0.18162583
2	0x3e87bc6a	0.26510936
3	0xbe2e835a	-0.17042294
4	0xbe8191ed	-0.25306645
5	0x3cbdc65a	0.02316587
6	0x3dec8018	0.115478694
7	0xbe81587b	-0.25262818
8	0xbe1f73eb	-0.15571563
9	0xbe8ccec9	-0.27501515
10	0x3e0c7bcc	0.137191
11	0xbd540db8	-0.051770896
12	0xbdf969da	-0.12178393
13	0xbe8c91ec	-0.2745508
14	0x3e86d195	0.26331773
15	0xbc3f8c8b	-0.011691223
16	0x3e5872af	0.21137498
17	0xbe6eef9a	-0.23333588
18	0x3e8dc109	0.27686337
19	0xbc362be6	-0.011118865
20	0x3e73f237	0.23822866
21	0xbe90ca64	-0.28279412
22	0xbe936c52	-0.2879358
23	0x3e340ea5	0.17583711
24	0xbd8b10f6	-0.067903444
25	0x3e12bac0	0.14329052
26	0xbd94ad86	-0.072596595
27	0x3d756bd0	0.05991727
28	0xbbf4946f	-0.0074639837
29	0xbe1eaf73	-0.15496616
30	0xbd445029	-0.04792801
31	0xbe9146bc	-0.2837428
32	0xbde63627	-0.112407975
33	0xbe00d006	-0.12579355
34	0x3e36ebb6	0.17863354
35	0xbd9fa642	-0.07795383
36	0x3b4f8d8f	0.003167007
37	0x3e89fcc0	0.26950645
38	0xbd86f97a	-0.06590553
39	0x3e7b2027	0.24523984
40	0xbea04551	-0.31302884
41	0x3ecfe196	0.40601796
42	0xbe18a121	-0.14905216
43	0xbe9229a8	-0.28547406
44	0xbe5d5cc6	-0.21617422
45	0xbe9228fb	-0.2854689
46	0x3d9317a2	0.07182242
47	0x3dd55336	0.10416262
48	0x3dba0ca3	0.090844415
49	0xbde907d1	-0.11378444
50	0xbdc1b35a	-0.09458037
51	0x3e6f14dd	0.23347802
52	0xbe2add5d	-0.16686006
53	0xbe3cbe1c	-0.18431896
54	0xbd883765	-0.06651191
55	0xbe4387bc	-0.19094747
56	0x3e91f839	0.2850969
57	0x3e129c88	0.14317524
58	0xbc74ae2c	-0.014934104
59	0xbe3d5fd2	-0.18493584
60	0x3e4b55ca	0.19856945
61	0x3e5e775f	0.21725224
62	0xbb0deb1b	-0.0021655026
63	0xbe71e6d4	-0.2362321
64	0xbe8259e0	-0.25459194
65	0xbe800f85	-0.2501184
66	0x3e899b09	0.26876095
67	0xbe01298e	-0.12613508
68	0xbe28efb9	-0.16497697
69	0xbd01a974	-0.031655744
70	0xbc603223	-0.0136838285
71	0xbd34529b	-0.04402409
72	0xbe8126e6	-0.2522499
73	0xbd88360b	-0.06650933
74	0xbba58aaa	-0.0050519304
75	0x3d23c093	0.039978575
76	0x3e2b7025	0.16741998
77	0xbe845a66	-0.2585022
78	0x3e460b0f	0.19340156
79	0xbd4cce8c	-0.050001666
80	0x3e919cbb	0.28439888
81	0xbe858d80	-0.26084518
82	0xbd180078	-0.037109822
83	0xbe72b5ed	-0.23702212
84	0x3e4dd961	0.20102455
85	0xbc942e94	-0.018088616
86	0x3e82770d	0.25481454
87	0x3da16b19	0.078817554
88	0x3e34b189	0.1764585
89	0xbe97e080	-0.29663467
90	0xbe1b477f	-0.15163992
91	0x3e694853	0.22781496
92	0xbc9c4ab6	-0.019078594
93	0xbe39949e	-0.18123099
94	0x3da55e75	0.08074657
95	0x3e969559	0.29410818
96	0x3d898a36	0.06715815
97	0x3e44723e	0.19184205
98	0xbc6c68b4	-0.01442926
99	0xbe566305	-0.2093621
100	0xbd92b68c	-0.07163724
101	0xbe9282d8	-0.2861545
102	0x3dbd601a	0.092468455
103	0xbe3fbe2f	-0.18724893
104	0x3d4e3614	0.05034454
105	0xbddc8ba0	-0.10768819
106	0xbdf97c5c	-0.12181923
107	0x3e730fa1	0.2373643
108	0x3e4fec76	0.20305046
109	0x3e2ff742	0.17184165
110	0x3d99396c	0.074816555
111	0xbe473f25	-0.19457681
112	0x3d426a75	0.047464807
113	0xbd5dbb51	-0.054133717
114	0xbe3cbcf7	-0.1843146
115	0x3e03c9dc	0.12869972
116	0xbe0df545	-0.13863094
117	0xbdd8fd73	-0.105952166
118	0x3dcbff1d	0.09960768
119	0xbe5e2390	-0.21693254
120	0x3df4b14d	0.1194788
121	0x3d6a526c	0.05720751
122	0x3e907810	0.282166
123	0x3e3a78f5	0.18210204
124	0x3e0d7299	0.13813247
125	0xbe8f6769	-0.28008583
126	0x3e50c58e	0.20387861
127	0xbe4233ad	-0.18965025
128	0x3d90bddf	0.07067465
129	0x3e59151a	0.21199456
130	0xbe7198f8	-0.23593509
131	0xbd920853	-0.07130494
132	0x3e09c6b1	0.13454701
133	0xbd60070b	-0.054694217
134	0xbcc0fa31	-0.0235568
135	0xbc9bb83b	-0.019008746
136	0x3e5e4e6e	0.21709606
137	0x3e188ad6	0.14896712
138	0xbe821a40	-0.25410652
139	0xbe481b5a	-0.19541684
140	0xbde17d3d	-0.110102154
141	0xbdb88421	-0.090095766
142	0x3d3b3f5f	0.045714732
143	0xbe705910	-0.23471475

linear_relu_stack2.2.bias f4 [12]
0	0xbe6b31ed	-0.22968264
1	0xbe397d1e	-0.18114135
2	0x3e5d8e37	0.21636282
3	0x3e526c89	0.20549215
4	0xbdcaa9ec	-0.09895691
5	0xbe4552b0	-0.19269824
6	0xbe230712	-0.15920666
7	0xbe7f1905	-0.24911888
8	0xbdbf5fe9	-0.09344465
9	0x3d91c6bb	0.07117983
10	0x3dd030ed	0.10165582
11	0xbe34dad9	-0.17661609

linear_relu_stack2.4.weight f4 [7, 12]
0	0x3d9d0cda	0.07668467
1	0x3e247565	0.16060407
2	0xbdf74e5d	-0.120754935
3	0x3eaa6db3	0.3328682
4	0xbe938821	-0.28814796
5	0x3e32cc03	0.17460637
6	0xbe54b388	-0.2077161
7	0x3e62ea76	0.22159752
8	0xbe5a26de	-0.21303889
9	0xbe8dd566	-0.27701873
10	0x3ce44d3c	0.02786886
11	0x3dfd6d36	0.12374346
12	0xbdde1e8a	-0.108456686
13	0x3e8e2b9f	0.27767655
14	0xbe419ea4	-0.18908173
15	0xbeafafce	-0.34313816
16	0xbe138f7a	-0.144102
17	0x3d6c9d77	0.057767358
18	0x3da79730	0.081831336
19	0x3d3fdb3f	0.04683995
20	0x3d5b7d38	0.053586215
21	0x3e8f1869	0.2794831
22	0x3e9788c2	0.29596525
23	0x3dee7ced	0.116449215
24	0x3e2216ab	0.1582896
25	0xbe489fa3	-0.19592147
26	0xbe8824b5	-0.26590505
27	0x3e95952c	0.29215372
28	0x3d9e6693	0.07734408
29	0x3e643f24	0.22289711
30	0x3e3cce6a	0.18438116
31	0xbea6a5e1	-0.3254843
32	0xbe6eb653	-0.23311739
33	0x3e2466d2	0.16054848
34	0xbca69e23	-0.020339077
35	0xbdbbac53	-0.091637276
36	0x3e4e89d9	0.20169772
37	0xbd718848	-0.05896786
38	0xbe063ac1	-0.1310835
39	0x3e840941	0.2578831
40	0x3c848d79	0.01618074
41	0x3dd1b139	0.10238881
42	0x3e6ad66d	0.2293336
43	0xbdd4db84	-0.10393432
44	0xbc13bc7d	-0.009017107
45	0x3e91125e	0.28334326
46	0xbe7c65a1	-0.24648143
47	0x3c91a5ce	0.017779257
48	0xbc8e550a	-0.017374534
49	0x3e5acb5c	0.21366638
50	0xbdb5a56a	-0.08869441
51	0x3e054172	0.13013247
52	0xbddd975a	-0.10819884
53	0xbe8ee7b9	-0.27911165
54	0x3de548b3	0.11195507
55	0x3bf29ee4	0.007404195
56	0x3e22ed71	0.15910889
57	0xbde0f479	-0.109841295
58	0xbd35cb82	-0.044383533
59	0x3d986cb8	0.074426115
60	0x3ba25bac	0.004954776
61	0xbe398d7e	-0.18120381
62	0x3e2ad620	0.16683245
63	0xbe52de5f	-0.2059264
64	0xbdac675c	-0.08418152
65	0xbe70dbb8	-0.23521316
66	0xbd55d76e	-0.052207403
67	0xbe1fe7fa	-0.15615836
68	0x3e2209da	0.1582407
69	0x3d5373f6	0.05162426
70	0xbd32380b	-0.043510478
71	0xbe0f7aca	-0.14011684
72	0x3ca1ccb6	0.019750934
73	0x3d729eb5	0.059233386
74	0xbe4bd1ae	-0.19904205
75	0xbd6dadd5	-0.058027107
76	0xbe15c8ff	-0.14627455
77	0xbd0dfb70	-0.034663618
78	0x3de308a7	0.11085635
79	0xbe3169c7	-0.17325507
80	0x3d90e5ae	0.07075058
81	0x3e788d4a	0.24272648
82	0x3e25a61d	0.16176648
83	0xbdc44aef	-0.09584605

linear_relu_stack2.4.bias f4 [7]
0	0xbe8a801a	-0.2705086
1	0x3e1bdff7	0.15222155
2	0xbc0cb6ba	-0.008588487
3	0x3d902ad7	0.07039421
4	0xbe4298e0	-0.1900363
5	0x3e07a102	0.13245013
6	0x3e2f1340	0.17097187
