QCNN_demonstration/Real device/Real/Model3 pre-train/Model3_42.pt (torch, 3687 bytes, 4 tensors)

layer1.0.weight f4 [1, 1, 3, 3]
00000000: 3cc8 3d3e 38c2 6d3e d9f7 9c3e 6dc5 f0bd
00000010: 9fac 38bd 8baa 913e c4ba 303b d85c 183e
00000020: f187 e13d
0.18533415 0.2321862 0.30657843 -0.11756406 -0.0450865 0.28450426 0.002696679 0.14879167
0.11012257

layer2.0.weight f4 [1, 1, 3, 3]
00000000: d285 66be c063 133e 168d f23d 7eb6 e03d
00000010: 6a63 ac3e 0b1b 5a3e 22bc db3d c57e 73be
00000020: 2c53 ec3d
-0.22511986 0.1439352 0.11843316 0.109723076 0.33669597 0.21299379 0.10729243 -0.23778827
0.11539301

fc.weight f4 [7, 49]
00000000: 0211 053e 7ca7 c03d 4ac9 1b3d ae60 07be
00000010: 3bba 53bc a741 a13b f636 7e3d 0d47 003e
00000020: 3a6f a33d b12d 65bd 20a4 ca3c fb73 a63d
00000030: 40a8 05bd 86b1 613d b42e d53d e203 f9bd
00000040: c0fd 723c ce63 d83c 7587 13bd efaf 3b3d
00000050: fb49 b8bc 4847 c0bc 8a63 013e a49a 0b3a
00000060: 549f 1fbd e336 f63c d07c 663d ad76 04bd
00000070: 3eaa b13d c3d0 8a3d 9270 9dbc 36f7 a03d
00000080: 8542 3ebd 26bc a4bd 6f05 26bc 81a0 0bbe
00000090: f2de f83d 98be 723d 2875 d23b dfd3 b8bd
000000a0: f48c d53d a1c9 b7bd e848 fc3a 7729 9bbd
000000b0: 376b babc 8847 c93d 0128 963d f21f c43d
000000c0: eca7 da3d 3242 f1bd 0c1a c3bd 0db3 66bd
000000d0: a220 1bbe 0174 0fbe 8206 e9bd 2cd9 9fbc
000000e0: a7fc 7fbb 18c8 bf3d f341 d6bd c79f ecbd
000000f0: 7180 d0bd b268 693b 0961 e03b 7545 f0bd
00000100: fc27 36bd f33f 16be 92ee e73c eb82 18be
00000110: f422 7c3d 3c1b b53d 8b6d 963d 434f 33be
00000120: 3f7e e8bd 4f6b 5bbd a550 853d 600f 2dbe
00000130: cc3f 15be a169 31be 3954 5bbe caa9 3f3c
00000140: de29 003e 31be 58bd f0b5 b7bd af6b 843d
00000150: 2c21 7e3d 6b7f 793b 3007 1cbd 98c7 dfbd
00000160: f82f 9bbd 99ca 623d a49d 8c3d 17f8 b9bd
00000170: 0d80 13bd 34a3 85bd d7d2 6bbd c6e3 f6bd
00000180: 109f ebbd 23c5 853d 59d3 723d c993 e8bd
00000190: 4327 3a3c 708c 333d c5d7 fcbd 5153 09bd
000001a0: bf51 98bb 9693 2ebd 702e de3b f084 debc
000001b0: b05c af3d 385a cb3c 2cac cebd 3730 013e
000001c0: ac5f 11be 5205 d53d fdd8 4abd 32b0 8dbd
000001d0: c912 a83d bf21 423d 53a9 2abc 9947 0abd
000001e0: 30da f1bc 0731 cf3d 852a e7bc 2543 b1bd
000001f0: fc9c c6bb 33b7 19bd 5e97 f33d b093 dabd
00000200: 4d3a 9d3c aa1e 77bb 1ccc 2c3d 38ac a7bc
00000210: f829 21bc e3af df3d dad1 b5bd 3631 f7bd
00000220: 00db 563d 15c3 42bd ce5c e7bd b138 773c
00000230: 8401 f23d c2ca 16bd c0d7 8d3d c357 d9bd
00000240: adb3 443a 171f 86bc dd95 68bd 8323 8abc
00000250: 2406 92bd e8fa eb3d 6fc6 b4bd d354 bfbd
00000260: fb8c d33d 5fed 113e 1033 063e 9bf8 973d
00000270: 09e2 c13d 1da1 1d3e 4351 8e3d 60cd 11bd
00000280: 9262 63bd 77cd b53d 775d 79bc c526 8abc
00000290: 2959 78bd 06c0 313e 6b5e 72bc 71b9 dcbd
000002a0: dacc bb3d 2c5f f53c 3abf 483d 615b 4dbe
000002b0: 8c4f b23c 376c 483d 9d0c 9bbd 0e8e d0bc
000002c0: 2ddf 173e 28a3 03bd e690 c1bd feb9 403e
000002d0: 3094 2d3e 3c25 8e3c 3ab4 c03d 9c68 213e
000002e0: c27a eebd 2813 0b3e c57a 9d3d f067 b2bd
000002f0: e576 e53c d346 b1bc 2ef6 eabd 59a6 653d
00000300: 8540 033e 94d4 7a3b a488 8abd 3165 1abd
00000310: 6d00 f83d a189 0dbe 8277 bc3d 2bc1 abbd
00000320: 4533 9fbd 8c82 c53c 6e21 1cb9 7204 fb3c
00000330: db20 0ebe 063c c53d a05a 27bd 2fc5 3e3b
00000340: e303 c13d 13eb 4fbd f908 97bd b603 1c3d
00000350: 35c3 cf3d 6357 ebbd 6d5d fb3d e91a d1bd
00000360: 8c59 f9bd 470f 38bd 881e ef3b 60e4 ab3d
00000370: b03c a53d 8bd8 fd3c 48dd 0f3d 498e 9ebd
00000380: 0367 973d 1eff 423d c253 9fbd a4cb cabd
00000390: f0fe ac3d d948 c83d c85a 52bc 24bd c73c
000003a0: 0ca3 b63c 5380 a53c 7814 c4bd 8d36 c6bb
000003b0: 6d4d b13d d226 10be 8258 06be 3f5c e6bd
000003c0: 1c90 f8bd b07e e73c bdfa cdbd d3cd fc3d
000003d0: 73bc d6bc 8999 b5bd 478a 58bd c2f0 ef3d
000003e0: 09a6 8fbd d384 03be 7ae3 b13d a698 cdbd
000003f0: f8eb 0dbd c51c ce3d ba7b d5bb 4fb3 abbc
0.12994769 0.09406945 0.03803376 -0.13220474 -0.012922819 0.0049211564 0.062064134 0.12527104
0.07980199 -0.055951778 0.024736464 0.0812759 -0.03263116 0.05510094 0.104092985 -0.12158944
0.0148310065 0.026414778 -0.036017854 0.04582208 -0.022496214 -0.02347149 0.12635627 0.00053254724
-0.038970307 0.030055469 0.056271374 -0.03233974 0.08675049 0.067780994 -0.019218717 0.07859652
-0.046450157 -0.08043699 -0.010133131 -0.13635446 0.121518984 0.059263796 0.0064226575 -0.09024786
0.10427275 -0.089740045 0.0019247802 -0.07576268 -0.022756202 0.09828097 0.07331849 0.095764056
0.1067656 -0.11780204 -0.095264524 -0.0563231 -0.15149167 -0.14009096 -0.113781944 -0.019512735
-0.0039060505 0.09364337 -0.104617976 -0.115539126 -0.10180748 0.0035615382 0.006847505 -0.11731998
-0.044471726 -0.14672832 0.028312001 -0.14893691 0.06155677 0.08843085 0.073451124 -0.17510705
-0.113522045 -0.053569134 0.06509522 -0.16900396 -0.14575118 -0.1732545 -0.21418847 0.011698196
0.12515971 -0.052915756 -0.08970249 0.064658515 0.062043354 0.0038070332 -0.038092792 -0.10926741
-0.07577509 0.055368993 0.06866005 -0.090805225 -0.03601079 -0.06525269 -0.05757412 -0.12055163
-0.11504948 0.065317415 0.059283588 -0.11356313 0.0113619 0.043835104 -0.12345842 -0.033526722
-0.004648417 -0.042621218 0.006780438 -0.027162999 0.085626006 0.024823293 -0.10091433 0.12616049
-0.14196652 0.104014054 -0.049523342 -0.06918372 0.08206708 0.047395464 -0.010416347 -0.033759687
-0.029522985 0.10116773 -0.028218517 -0.08655385 -0.0060611945 -0.037528228 0.118941054 -0.106727004
0.019192839 -0.0037707486 0.04218684 -0.020467862 -0.009836666 0.109222196 -0.08877917 -0.12069933
0.05245495 -0.047549326 -0.11296998 0.0150892 0.11816695 -0.03681446 0.06925917 -0.10612442
0.00075035804 -0.016372247 -0.056783546 -0.016862636 -0.071300775 0.11522466 -0.08826911 -0.09342351
0.10329624 0.14250706 0.13105416 0.074204646 0.09466941 0.15393491 0.06949093 -0.03559625
-0.055513926 0.0887708 -0.015220038 -0.01686419 -0.060631905 0.17358407 -0.014793019 -0.10777558
0.09169932 0.029952608 0.049010493 -0.2005439 0.021766447 0.048931327 -0.07570765 -0.025458362
0.14831229 -0.03213802 -0.09451465 0.1882095 0.1695106 0.01735174 0.094093755 0.15762562
-0.11644508 0.13581526 0.07689432 -0.08711231 0.028010795 -0.021640217 -0.11472736 0.056066845
0.12817581 0.003827368 -0.067643434 -0.03769416 0.12109456 -0.13822033 0.09202482 -0.08386453
-0.07773451 0.024110101 -0.00014889773 0.030641768 -0.13879721 0.09630589 -0.04085791 0.002910923
0.094245695 -0.050761294 -0.07374758 0.038089477 0.10144655 -0.11491277 0.12273679 -0.10210211
-0.12175283 -0.044936445 0.007297341 0.083931684 0.08068216 0.030987045 0.03512314 -0.077419825
0.07392695 0.04760658 -0.077796474 -0.099021226 0.08447063 0.097795196 -0.012839027 0.024382181
0.022294544 0.020202791 -0.095742166 -0.0060489834 0.08657346 -0.14077309 -0.131197 -0.11248063
-0.12136862 0.028258651 -0.1005759 0.12343945 -0.026212906 -0.08867175 -0.052866247 0.11715843
-0.070140906 -0.12843637 0.08685966 -0.10038881 -0.034648865 0.10064081 -0.0065149935 -0.020959524

fc.bias f4 [7]
00000000: 910c 3cbd 13d5 eebc cb34 c3bd 9bee bcbd
00000010: ff49 0abe 1888 41bd 1a88 bdbd
-0.04591042 -0.029154336 -0.09531554 -0.09225198 -0.1350479 -0.04724893 -0.09254475
