QCNN_demonstration/Real device/Real/Model3 pre-train/Model3_38.pt (torch, 3687 bytes, 4 tensors)

layer1.0.weight f4 [1, 1, 3, 3]
0	0x3e4d4737	0.20046698
1	0x3e7c14c8	0.24617302
2	0x3ea44c26	0.32089347
3	0xbdcb64c1	-0.09931327
4	0xbced3383	-0.028955227
5	0x3e974a5e	0.29548925
6	0x3c90b1d2	0.017662916
7	0x3e273dd3	0.16332178
8	0x3dfbb551	0.12290443

layer2.0.weight f4 [1, 1, 3, 3]
0	0xbe63582d	-0.22201605
1	0x3e219796	0.15780482
2	0x3e107403	0.14106755
3	0x3df00301	0.11719323
4	0x3eb5ca9b	0.35506138
5	0x3e6f83a3	0.23390059
6	0x3de9aff3	0.11410513
7	0xbe630cea	-0.22172895
8	0x3e033249	0.12812151

fc.weight f4 [7, 49]
0	0x3e04ec49	0.1298076
1	0x3dc0d784	0.09416106
2	0x3d1adf92	0.03781087
3	0xbe07803e	-0.13232514
4	0xbc562fc9	-0.013072916
5	0x3ba70565	0.0050970786
6	0x3d7eaa41	0.062174086
7	0x3e0063c6	0.1253806
8	0x3da3deca	0.08001478
9	0xbd6a3f25	-0.057189126
10	0x3cba00ab	0.022705397
11	0x3da6f59e	0.081523165
12	0xbd057f98	-0.032592386
13	0x3d60cbd0	0.05488187
14	0x3dd6f927	0.10496741
15	0xbdfcd338	-0.12344974
16	0x3c36b0d7	0.01115056
17	0x3ccb7812	0.024837527
18	0xbd1c65b5	-0.038182933
19	0x3d3a5199	0.045487974
20	0xbcbbfe55	-0.022948423
21	0xbcb59358	-0.022164986
22	0x3e006246	0.12537488
23	0xbb9d473c	-0.0047997516
24	0xbd115d59	-0.035489414
25	0x3cec5694	0.028849877
26	0x3d6395cf	0.05556279
27	0xbd07579c	-0.033042535
28	0x3db3fa13	0.08787932
29	0x3d872d0b	0.06600388
30	0xbca3475b	-0.019931486
31	0x3dad3548	0.08457428
32	0xbd44f287	-0.048082855
33	0xbdaaa6b9	-0.08332581
34	0xbc2e70bf	-0.010646998
35	0xbe0a996f	-0.13535093
36	0x3ded6d51	0.11593116
37	0x3d6a8ac1	0.057261232
38	0x3c186837	0.0093021905
39	0xbdbf19cb	-0.093310915
40	0x3dd5365a	0.10410757
41	0xbdb84b9a	-0.08998795
42	0x3b0cd46d	0.002148892
43	0xbda34f8d	-0.079741575
44	0xbcc82468	-0.024431422
45	0x3dc5d96c	0.096606106
46	0x3d9390c0	0.07205343
47	0x3dc3f82b	0.09568819
48	0x3dda1f14	0.10650459
49	0xbdeb2cd8	-0.11483163
50	0xbdbb9106	-0.091585204
51	0xbd55d84a	-0.052208222
52	0xbe16cede	-0.14727351
53	0xbe0cb15e	-0.13739535
54	0xbde2610a	-0.11053665
55	0xbc88f0d3	-0.016716396
56	0xba38627f	-0.000703372
57	0x3dc89227	0.09793501
58	0xbdd17f7e	-0.10229395
59	0xbdeab1b7	-0.11459678
60	0xbdcdbf2f	-0.10046231
61	0x3af443a6	0.0018635883
62	0x3c0ab810	0.0084667355
63	0xbdee33b4	-0.11630955
64	0xbd45aa77	-0.04825827
65	0xbe14670c	-0.14492434
66	0x3d05c360	0.032657027
67	0xbe121966	-0.14267501
68	0x3d7250ab	0.059158962
69	0x3db86df7	0.09005349
70	0x3d8f84d3	0.07007756
71	0xbe3771cc	-0.17914504
72	0xbde945a9	-0.1139024
73	0xbd4b93f0	-0.04970163
74	0x3d9417b8	0.072310865
75	0xbe30a020	-0.17248583
76	0xbe1472e7	-0.14496957
77	0xbe351cfe	-0.17686841
78	0xbe5af626	-0.2138296
79	0x3c3deb3e	0.011591731
80	0x3e05ba11	0.1305926
81	0xbd3a9812	-0.04555518
82	0xbdc383c4	-0.09546617
83	0x3d89e4cb	0.06733092
84	0x3d7b9529	0.061421547
85	0x3a5adb51	0.0008348721
86	0xbd17a9c8	-0.03702715
87	0xbdd0f053	-0.10202088
88	0xbd9265f4	-0.07148352
89	0x3d55763e	0.052114718
90	0x3d9314c1	0.07181693
91	0xbdb59a3d	-0.08867309
92	0xbd1eedaf	-0.03880089
93	0xbd820535	-0.063486494
94	0xbd6443c6	-0.055728696
95	0xbdf4dff5	-0.11956779
96	0xbde5790c	-0.112047285
97	0x3d8bb826	0.06822233
98	0x3d765d59	0.060147617
99	0xbde6dfd6	-0.11273162
100	0x3c499ced	0.01230548
101	0x3d397555	0.045277912
102	0xbdfa0dd1	-0.122096665
103	0xbd050c38	-0.032482356
104	0xbb731c68	-0.003709579
105	0xbd2ae1e1	-0.04171932
106	0x3bf908c3	0.0075999214
107	0xbcd199b5	-0.025585989
108	0x3db2d542	0.08732082
109	0x3cda367b	0.026637306
110	0xbdcc6d4e	-0.09981786
111	0x3e02376c	0.12716454
112	0xbe100a11	-0.1406634
113	0x3dd72457	0.10504978
114	0xbd4302c6	-0.047610067
115	0xbd8bcb98	-0.06825942
116	0x3da98f2d	0.08279262
117	0x3d4a5828	0.04940048
118	0xbc1ab198	-0.009441756
119	0xbd02ed09	-0.031964336
120	0xbceb126e	-0.028695311
121	0x3dd106c3	0.10206368
122	0xbce55fc9	-0.027999775
123	0xbdb13b55	-0.08653895
124	0xbb84335f	-0.004034444
125	0xbd16d7ad	-0.03682678
126	0x3df6d6a3	0.120526575
127	0xbdd984fe	-0.10621069
128	0x3ca2140d	0.019784952
129	0xb9c48713	-0.0003748467
130	0x3d35f318	0.044421285
131	0xbca14ccc	-0.01968994
132	0xbc126771	-0.008935795
133	0x3de3aa47	0.11116462
134	0xbdb75c8b	-0.08953198
135	0xbdf51b62	-0.119681135
136	0x3d67fed6	0.056639515
137	0xbd3b2f86	-0.04569962
138	0xbde742b8	-0.112920225
139	0x3c82e0e4	0.015976377
140	0x3df41bd1	0.11919368
141	0xbd1aeb77	-0.037822213
142	0x3d8c3b23	0.06847217
143	0xbddaa18b	-0.10675343
144	0xb9096c04	-0.00013105577
145	0xbc7cec73	-0.015437233
146	0xbd6509c8	-0.05591753
147	0xbc830bc0	-0.015996814
148	0xbd9099d0	-0.070605874
149	0x3ded9f72	0.116026774
150	0xbdb2b713	-0.08726325
151	0xbdbc910a	-0.092073515
152	0x3dd5d3c8	0.10440785
153	0x3e13069a	0.14357987
154	0x3e07326c	0.13202828
155	0x3d994cc3	0.07485344
156	0x3dc93857	0.09825199
157	0x3e1fa3c8	0.15589821
158	0x3d92417a	0.07141395
159	0xbd014afb	-0.031565648
160	0xbd5bce88	-0.05366376
161	0x3dbc6966	0.09199791
162	0xbc4ac121	-0.012375147
163	0xbc8133b6	-0.015771728
164	0xbd70a704	-0.05875303
165	0x3e300a9b	0.17191546
166	0xbc1e138e	-0.009648217
167	0xbdd911ae	-0.10599075
168	0x3dca1db1	0.098689444
169	0x3d008505	0.031376857
170	0x3d49e7c8	0.04929331
171	0xbe483fd3	-0.19555597
172	0x3c9529cf	0.018208412
173	0x3d5dc618	0.054143995
174	0xbd97832f	-0.07398068
175	0xbc9d29b7	-0.01918493
176	0x3e166066	0.1468521
177	0xbce02dc1	-0.027365567
178	0xbdade4a1	-0.08490873
179	0x3e3d6e87	0.18499194
180	0x3e32490d	0.17410679
181	0x3c96dfda	0.018417288
182	0x3dc9a7e2	0.09846474
183	0x3e1f9b5e	0.15586612
184	0xbde76cff	-0.11300086
185	0x3e10d873	0.14145069
186	0x3d9a252f	0.075266235
187	0xbdaad438	-0.08341259
188	0x3ceaf798	0.028682515
189	0xbca4ced8	-0.020118162
190	0xbdec3be2	-0.11534859
191	0x3d5f3969	0.05449811
192	0x3e02082a	0.12698427
193	0x3b0ad9a7	0.002118686
194	0xbd88a83c	-0.06672713
195	0xbd171a01	-0.036890034
196	0x3df7e2d6	0.121038124
197	0xbe0d8b39	-0.1382264
198	0x3dbccaea	0.0921839
199	0xbdad2c26	-0.08455686
200	0xbda07a2a	-0.07835801
201	0x3cc34e44	0.02384103
202	0xb995d030	-0.00028574606
203	0x3cfb045a	0.030641723
204	0xbe0cc838	-0.13748252
205	0x3dcfb12c	0.10141215
206	0xbd267139	-0.04063532
207	0x3b69e8f3	0.0035691827
208	0x3dc42d9d	0.095790125
209	0xbd4e23bc	-0.050327048
210	0xbd92dc1e	-0.0717089
211	0x3d3d62fe	0.046236984
212	0x3ddb2422	0.10700251
213	0xbdea2f54	-0.114348084
214	0x3e014590	0.12624192
215	0xbdc5a85a	-0.09651251
216	0xbdf66518	-0.12031001
217	0xbd22ce43	-0.039747488
218	0x3c79dfa1	0.015251071
219	0x3db1889b	0.086686336
220	0x3d9b425e	0.07581018
221	0x3d0cc435	0.034366805
222	0x3d319cd9	0.043362472
223	0xbd9b945a	-0.07596655
224	0x3da41ef5	0.08013717
225	0x3d5fda28	0.05465141
226	0xbda2b2c7	-0.07944255
227	0xbdd44bd8	-0.103660285
228	0x3db94fea	0.090484455
229	0x3ddc1fcf	0.107482545
230	0xbc49e229	-0.012321987
231	0x3ce16374	0.027513243
232	0x3cf6dd49	0.030134814
233	0x3ca41c2d	0.020032967
234	0xbdc39e88	-0.09551722
235	0x39b5d638	0.00034682616
236	0x3dbc71fc	0.09201428
237	0xbe106bdf	-0.1410365
238	0xbe062b6b	-0.131025
239	0xbde02332	-0.10944213
240	0xbdfd71ff	-0.12375259
241	0x3ce36e5a	0.02776258
242	0xbdcb55e8	-0.09928495
243	0x3dfc9f75	0.123351015
244	0xbcd6e7be	-0.02623355
245	0xbdb7e94c	-0.08980045
246	0xbd5dc383	-0.054141533
247	0x3ded2c0c	0.11580667
248	0xbd929f2b	-0.07159265
249	0xbe04a03c	-0.1295175
250	0x3daf9c9b	0.08574792
251	0xbdcfd5b5	-0.10148183
252	0xbd12b005	-0.035812397
253	0x3dca91d1	0.098910935
254	0xbc123ccc	-0.008925628
255	0xbcbcf301	-0.023065092

fc.bias f4 [7]
0	0xbd3e7faf	-0.046508487
1	0xbcb5ce5b	-0.022193125
2	0xbdbef7d5	-0.09324614
3	0xbdb8f29d	-0.0903065
4	0xbe0a69b4	-0.13516885
5	0xbd4cbf0f	-0.049986895
6	0xbdbd881a	-0.09254475
