Additional Experiments/Noiseless_Fashion/NQE0.pt (torch, 3839 bytes, 4 tensors)

layer1.0.weight f4 [1, 1, 3, 3]
0.12819612 -0.123194516 -0.13423368 -0.05241501 -0.31203485 0.0698213 0.17601 -0.07764679
-0.18665451
00000000: d845 033e 684d fcbd 8e74 09be 1fb1 56bd
00000010: 08c3 9fbe 78fe 8e3d f73b 343e 4805 9fbd
00000020: 5c22 3fbe

layer2.0.weight f4 [1, 1, 3, 3]
0.05612093 -0.30806515 -0.29593697 -0.1832866 0.2592612 -0.03367654 0.22683734 -0.04864642
0.27742404
00000000: 0fdf 653d b7ba 9dbe 0d85 97be 7caf 3bbe
00000010: e2bd 843e 69f0 09bd 0c48 683e 7841 47bd
00000020: 860a 8e3e

fc.weight f4 [8, 49]
-0.012108089 0.14105338 -0.051725827 -0.13539751 -0.049906608 0.025222473 -0.039833926 -0.0707592
0.016328726 -0.07513485 -0.12834875 0.12120086 0.09008338 0.05126776 -0.11652185 0.074224785
0.043070022 -0.12752435 -0.060606167 -0.044647526 0.015648784 -0.02492517 0.03301017 0.13824554
-0.13339385 -0.016504591 0.089376286 0.13501756 -0.07599766 0.07094123 0.11512346 0.09222308
0.026332267 0.036638137 0.10320026 0.0630266 0.10565501 -0.06724921 -0.042613827 -0.09890643
-0.13124363 -0.13904431 -0.05085125 -0.048946008 -0.03308321 0.085222825 -0.118334755 -0.023678647
0.076022886 0.025647828 -0.05723105 -0.13096076 0.03908334 -0.04575771 -0.011011083 0.056081187
0.12444667 -0.122397706 -0.09053034 0.053493112 -0.10167785 -0.10654141 0.10616461 0.040457126
0.11271646 -0.014659177 -0.12569664 0.07045215 0.04454993 0.12126501 -0.053162474 -0.024390398
0.028816713 0.102026336 -0.107653975 0.053402033 -0.09579393 -0.07847077 0.044663385 -0.04544332
-0.018086383 0.08318408 -0.11969865 -0.11322734 -0.10930646 -0.08095277 0.04223737 0.13887295
-0.025102975 0.078295045 0.010837918 0.038201947 0.114108 0.092150144 0.0733864 0.07054814
-0.04844373 0.1212791 0.10709977 0.13159116 0.021514554 0.13320595 -0.01835064 -0.023584671
0.052114233 -0.0333038 0.046877183 -0.006230414 -0.090098955 0.0966867 -0.0073264074 0.07614448
-0.036694773 0.05830864 0.052142195 0.0053534196 0.051629808 0.11747783 -0.0895034 -0.098306015
0.118885726 -0.088538386 0.01765643 -0.084577285 0.10065812 -0.005591164 0.07210401 0.093586534
0.09240048 0.04783607 -0.10318878 0.077325545 0.011679399 0.10058679 0.01793893 -0.116515495
-0.11777275 0.07999349 -0.040247843 0.044848897 -0.008783293 0.11463047 0.01914235 0.0032687027
-0.009718958 -0.06925219 -0.10081067 0.017619794 0.019898335 0.121530324 -0.115706034 -0.06814562
0.11391006 -0.100482844 -0.018946694 0.08686464 0.0015745627 -0.024033943 0.14278662 -0.09083744
0.037314128 0.10459437 -0.019472182 0.10623344 -0.067777686 0.03423153 0.14151977 0.058106013
-0.038067065 -0.002297923 0.011897778 -0.109092504 -0.12258366 0.0812433 0.1349002 -0.071637705
-0.062325355 0.0020561588 -0.0014094444 -0.0413335 -0.090451196 0.10264036 0.06026849 0.07922357
-0.03827109 0.008973679 0.087775186 0.025479203 0.013903231 -0.06297129 0.13430123 -0.11871174
0.059641335 -0.079285115 -0.082616635 -0.017075345 -0.070720546 -0.054879386 0.009902064 0.049092747
0.090683654 -0.049958374 -0.042124134 -0.1252235 0.13881126 -0.110399954 -0.050982896 -0.027946489
0.0042848736 -0.13511062 0.059668437 -0.07615869 0.005292869 -0.10635687 -0.06846043 -0.00023764475
0.13852204 -0.019057138 -0.113001354 0.010834025 -0.06878492 0.022012806 -0.053210776 -0.05189213
0.13880119 0.10487005 0.07570784 0.030735422 -0.09063544 0.048540454 -0.06171245 -0.013716198
-0.099549085 -0.041957848 0.13532259 -0.079018444 0.1113339 0.034074213 0.0027368453 0.09615011
0.106314145 -0.040203195 -0.08427656 -0.09091873 -0.13360156 -0.039982826 -0.07984276 0.030550158
-0.07866265 0.13406977 -0.1363576 -0.14257175 0.13949391 0.10162355 0.056988884 -0.076181546
00000000: 0261 46bc 4c70 103e 76de 53bd a5a5 0abe
00000010: df6a 4cbd 5c9f ce3c e628 23bd 33ea 90bd
00000020: d2c3 853c 4de0 99bd db6d 03be 2838 f83d
00000030: a37d b83d 25fe 513d 02a3 eebd 2a03 983d
00000040: 316a 303d be95 02be 2c3e 78bd 53e0 36bd
00000050: e131 803c df2f ccbc ac35 073d 3d90 0d3e
00000060: 6698 08be a334 87bc ea0a b73d 0b42 0a3e
00000070: a9a4 9bbd a349 913d d9c5 eb3d 74df bc3d
00000080: c4b6 d73c df11 163d a85a d33d 1714 813d
00000090: a761 d83d f4b9 89bd d68b 2ebd 748f cabd
000000a0: bb64 06be a261 0ebe 6649 50bd 9c7b 48bd
000000b0: 4382 07bd 4e89 ae3d 7e59 f2bd b9f9 c1bc
000000c0: e3b1 9b3d 651b d23c 1b6b 6abd 941a 06be
000000d0: da15 203d 706c 3bbd d467 34bc 63b5 653d
000000e0: e5dd fe3d a6ab fabd f967 b9bd 981b 5b3d
000000f0: 7a3c d0bd 6232 dabd d56c d93d 5fb6 253d
00000100: e3d7 e63d 0b2d 70bc 9fb6 00be 3849 903d
00000110: fd79 363d ca59 f83d e5c0 59bd 5fce c7bc
00000120: 0711 ec3c 2ff3 d03d b079 dcbd 17bc 5a3d
00000130: 9c2f c4bd 48b5 a0bd f4f0 363d c622 3abd
00000140: e529 94bc 6a5c aa3d 9124 f5bd bce3 e7bd
00000150: 11dc dfbd 91ca a5bd 1801 2d3d b634 0e3e
00000160: c1a4 cdbc 2759 a03d 8691 313c a579 1c3d
00000170: 75b1 e93d 37b9 bc3d 9c4b 963d 8b7b 903d
00000180: ef6c 46bd 2d61 f83d 2057 db3d d5bf 063e
00000190: 4a3f b03c 2467 083e 1554 96bc a434 c1bc
000001a0: bc75 553d 9169 08bd 4a02 403d 8028 ccbb
000001b0: cd85 b8bd ad03 c63d 5c12 f0bb a3f1 9b3d
000001c0: 424d 16bd 0ad5 6e3d 0e93 553d bd6b af3b
000001d0: c779 533d 3798 f03d 8f4d b7bd aa54 c9bd
000001e0: 5c7a f33d 9d53 b5bd 38a4 903c db36 adbd
000001f0: d825 ce3d 1536 b7bb 44ab 933d 4caa bf3d
00000200: 763c bd3d c1ef 433d a454 d3bd db5c 9e3d
00000210: f35a 3f3c 7200 ce3d aaf4 923c ad9f eebd
00000220: d732 f1bd a0d3 a33d ecda 24bd 7ab3 373d
00000230: cde7 0fbc 61c3 ea3d 6bd0 9c3c bb37 563b
00000240: 443c 1fbc 18d4 8dbd d375 cebd 6357 903c
00000250: d501 a33c e4e4 f83d 49f7 ecbd ee8f 8bbd
00000260: ad49 e93d f3c9 cdbd 1936 9bbc 17e6 b13d
00000270: 8f61 ce3a d5e2 c4bc a836 123e fb08 babd
00000280: b3d6 183d 9335 d63d 2084 9fbc eb90 d93d
00000290: 07cf 8abd 5c36 0c3d 8fea 103e 9200 6e3d
000002a0: 36ec 1bbd c098 16bb e6ee 423c e46b dfbd
000002b0: 240d fbbd e362 a63d 4723 0a3e cab6 92bd
000002c0: df48 7fbd 9fc0 063b 1bbd b8ba 514d 29bd
000002d0: 7a3e b9bd 1c35 d23d 18dc 763d f83f a23d
000002e0: 25c2 1cbd 5606 133c 7ac3 b33d c3b9 d03c
000002f0: 61ca 633c 17f7 80bd 4386 093e 241f f3bd
00000300: 794a 743d 3c60 a2bd e932 a9bd 98e1 8bbc
00000310: efd5 90bd 35c9 60bd 443c 223c 7a15 493d
00000320: 5ab8 b93d 27a1 4cbd 5b8a 2cbd 973a 00be
00000330: 8a24 0e3e 5f19 e2bd 71d3 50bd 09f0 e4bc
00000340: 2068 8c3b 705a 0abe e466 743d 16f9 9bbd
00000350: ce6f ad3b a1d1 d9bd fb34 8cbd 4730 79b9
00000360: b9d8 0d3e b71d 9cbc 416d e7bd 3281 313c
00000370: 1cdf 8cbd 3354 b43c 8bf3 59bd d88c 54bd
00000380: e621 0e3e 1cc6 d63d b60c 9b3d dac8 fb3c
00000390: 139f b9bd 5bd2 463d 32c6 7cbd e7b9 60bc
000003a0: 64e0 cbbd fedb 2bbd 0192 0a3e 6cd4 a1bd
000003b0: 0703 e43d 6791 0b3d a55c 333b 59ea c43d
000003c0: 3bbb d93d 1bac 24bd 3099 acbd 9933 babd
000003d0: d9ce 08be 08c5 23bd 9a84 a3bd 5344 fa3c
000003e0: e219 a1bd 9649 093e 54a1 0bbe 54fe 11be
000003f0: 7ed7 0e3e 0220 d03d 2d6d 693d 1205 9cbd

fc.bias f4 [8]
-0.13231115 -0.020138826 -0.009155345 -0.13323198 0.04513128 0.06200219 -0.09578317 0.11145777
00000000: 937c 07be 2efa a4bc 4d00 16bc f76d 08be
00000010: 94db 383d 02f6 7d3d f729 c4bd f943 e43d
