Additional Experiments/Noiseless_Fashion/PCA-NQE500.pt (torch, 3631 bytes, 6 tensors)

linear_relu_stack2.0.weight f4 [12, 4]
0	0x3e440b08	0.19144833
1	0xbe7a0852	-0.24417236
2	0xbe69ee09	-0.2284471
3	0x3ecbb5cd	0.3978714
4	0x3ee90d0a	0.4551776
5	0xbec67437	-0.3876054
6	0xbe965172	-0.29359013
7	0x3e94c03f	0.29052922
8	0xbeb49685	-0.35271087
9	0xbee4a456	-0.44656628
10	0xbef2839b	-0.47366032
11	0x3e43b6bf	0.19112681
12	0xbcdbd855	-0.026836554
13	0x3eee70f0	0.4657054
14	0x3ede6668	0.43437505
15	0x3cdeb603	0.0271864
16	0x3d800c38	0.062523305
17	0x3ce67527	0.028132034
18	0x3ed64af4	0.4185406
19	0x3eded009	0.43518093
20	0xbe287656	-0.16451392
21	0x3e3db8fc	0.18527597
22	0xbe17a6be	-0.14809701
23	0x3ed71125	0.42005268
24	0x3e1c35dc	0.1525492
25	0x3ee3de75	0.4450566
26	0xbeb537c8	-0.3539412
27	0x3e5a5d5f	0.21324681
28	0xbdc8f80c	-0.09812936
29	0xbee289a7	-0.44245645
30	0x3e7f0468	0.24904025
31	0xbb8e09cd	-0.0043346644
32	0xbeaa7baa	-0.33297473
33	0xbe366424	-0.17811638
34	0xbe5594d0	-0.20857549
35	0x3eb32302	0.34987646
36	0xbefe2e87	-0.49644873
37	0xbe5579a0	-0.20847178
38	0xbec0c884	-0.3765298
39	0x3ee1d7ec	0.44110048
40	0x3ea02fa1	0.31286338
41	0x3e272cae	0.16325638
42	0xbc422567	-0.011849738
43	0xbbebe957	-0.007199447
44	0xbe9e61cd	-0.3093399
45	0x3e4b0968	0.19827807
46	0xbe315d36	-0.17320713
47	0x3e05574b	0.13021581

linear_relu_stack2.0.bias f4 [12]
0	0x3efee4b0	0.4978385
1	0xbe3f8815	-0.18704255
2	0x3d487346	0.04893806
3	0xbeda2a56	-0.42610425
4	0xbef87248	-0.4852469
5	0xbd88d1f7	-0.066806726
6	0xbd5106ed	-0.051031996
7	0xbebb4a41	-0.3658009
8	0xbeecccd5	-0.46250024
9	0x3d487a84	0.048944965
10	0x3eee3ba9	0.46529892
11	0xbe65e4f1	-0.22450615

linear_relu_stack2.2.weight f4 [12, 12]
0	0xbd912a56	-0.07088153
1	0xbd9b9024	-0.07595852
2	0x3e5bc688	0.21462452
3	0xbe880026	-0.26562613
4	0x3e35a41e	0.17738387
5	0x3dfb13e7	0.122596554
6	0x3e815b5c	0.25265014
7	0xbe18b419	-0.14912452
8	0xbd114df3	-0.03547473
9	0xbe7a6183	-0.2445126
10	0xbe268256	-0.16260657
11	0x3e5d2c70	0.21598983
12	0x3d94312c	0.07235941
13	0xbe025698	-0.12728345
14	0xbd1eecb8	-0.03879997
15	0x3d1ff04c	0.039047524
16	0xbc4014ae	-0.01172368
17	0xbda31ac7	-0.07964092
18	0xbdb8e7cc	-0.09028587
19	0x3e0702f6	0.13184723
20	0x3dd72234	0.105045706
21	0xbe80e06a	-0.25171214
22	0xbe7e1739	-0.24813546
23	0x3d99d26b	0.07510837
24	0xbdb6953d	-0.08915184
25	0x3e76de7b	0.24108307
26	0xbe7b62f6	-0.2454947
27	0xbc875afd	-0.016522879
28	0xbe6a8235	-0.22901233
29	0xbd9a37ca	-0.07530172
30	0x3e83a8e0	0.2571478
31	0xbe1f567c	-0.15560335
32	0xbe40fc00	-0.1884613
33	0x3e22599f	0.158545
34	0xbd42a3aa	-0.047519363
35	0x3e45e432	0.19325331
36	0xbe70e7ac	-0.23525876
37	0xbe1a147a	-0.15046874
38	0xbde8ef58	-0.11373776
39	0xbe2eeb2e	-0.17081901
40	0x3e3f08db	0.18655722
41	0xbcc00e73	-0.02344439
42	0x3d99c682	0.075085655
43	0xbe042a90	-0.12906861
44	0xbdd10ed4	-0.10207906
45	0x3e6fc0d3	0.234134
46	0xbca52985	-0.0201614
47	0xbddb1062	-0.10696484
48	0x3e1322c6	0.14368734
49	0xbe4510cc	-0.19244689
50	0xbe517bdb	-0.20457403
51	0xbe3f0243	-0.18653207
52	0x3eb21f53	0.34789523
53	0x3e94f819	0.29095533
54	0x3c312e79	0.010814303
55	0xbe777662	-0.24166253
56	0x3e656fbb	0.22405903
57	0x3dee68b0	0.11641061
58	0x3dd00a62	0.1015823
59	0xbe2d2e94	-0.169123
60	0xbd2fc161	-0.04290903
61	0x3e2970b7	0.16546904
62	0x3e4dd862	0.20102075
63	0x3c8a4f33	0.016883468
64	0x3d0dda11	0.034631792
65	0xbd93387c	-0.07188508
66	0x3d05b6a9	0.0326449
67	0x3e7cca54	0.24686557
68	0xbd492274	-0.049105123
69	0x3e662c79	0.22477902
70	0x3e643cf1	0.22288872
71	0x3d6dc018	0.058044523
72	0x3e7d365f	0.24727772
73	0x3ddbb70c	0.10728273
74	0xbdd0db6a	-0.101981
75	0x3e0bfae2	0.13669923
76	0xbdbde575	-0.09272281
77	0x3db75cc9	0.08953244
78	0xbe195a5a	-0.14975873
79	0xbdd0e431	-0.10199774
80	0xbe306042	-0.1722422
81	0xbdf2714a	-0.118380144
82	0xbb8c4f1c	-0.0042818915
83	0xbe139a5e	-0.14414355
84	0x3d247262	0.040148146
85	0x3c400a16	0.011721155
86	0xbe582a2b	-0.21109836
87	0x3aad49a9	0.0013220805
88	0x3e62a580	0.22133446
89	0xbe82818b	-0.25489458
90	0xbc572be2	-0.013133021
91	0x3a9dfb24	0.0012052995
92	0xbe64dc79	-0.22349729
93	0x3de7bea5	0.113156594
94	0xbd4259fb	-0.047449093
95	0x3e32c8c7	0.17459403
96	0xbcf60e67	-0.030036164
97	0x3d7ca61e	0.06168186
98	0xbe2fca78	-0.1716708
99	0x3e43723e	0.19086549
100	0xbe33f1ed	-0.17572756
101	0xbdc10e8f	-0.09426605
102	0x3e6fa6ae	0.23403427
103	0xbe858111	-0.26075032
104	0xbe663eeb	-0.22484939
105	0x3e1deacc	0.15421599
106	0xbe727d8e	-0.23680708
107	0xbe985d85	-0.2975885
108	0x3e97b5fc	0.2963103
109	0xbd5c55b5	-0.053792674
110	0xbde68003	-0.11254885
111	0x3dceec58	0.10103673
112	0x3e98e223	0.2986003
113	0xbe65dfb5	-0.22448619
114	0x3c94c712	0.01816133
115	0x3e29f74b	0.16598241
116	0x3e637dc2	0.22215942
117	0xbc410b80	-0.011782527
118	0xbe89539a	-0.26821595
119	0xbe3b14c1	-0.18269636
120	0xbe395dd3	-0.18102197
121	0xbe89f2cd	-0.26943055
122	0x3e401247	0.18756972
123	0xbddd01ae	-0.10791336
124	0xbd397b64	-0.04528369
125	0x3e15c8fc	0.1462745
126	0x3e3420e5	0.17590673
127	0x3caa72e8	0.020806745
128	0xbe7e363f	-0.2482538
129	0x3de4d2e7	0.11173039
130	0x3dd1f6a3	0.1025212
131	0x3e947c0f	0.290009
132	0xbd554e31	-0.052076522
133	0x3d5adc5b	0.053432804
134	0xbe4faab8	-0.20279968
135	0x3dd0e3ac	0.10199675
136	0x3d83a9c5	0.06428865
137	0x3df056ea	0.117353275
138	0xbd49f5db	-0.04930673
139	0xbdac77be	-0.084212765
140	0x3e669519	0.22517814
141	0x3d0cb892	0.034355707
142	0xbcd65b6b	-0.026166638
143	0xbe5df434	-0.21675187

linear_relu_stack2.2.bias f4 [12]
0	0xbdb13199	-0.08652038
1	0x3e5ff98c	0.21872538
2	0x3e258e97	0.16167675
3	0x3e36d9b2	0.17856482
4	0x3e544f9e	0.20733497
5	0xbcb54a5b	-0.022130182
6	0x3d1f8efe	0.038954727
7	0x3e7d2fb3	0.24725227
8	0x3db64a4d	0.089008905
9	0x3d7a5b8b	0.06112246
10	0xbe8ba52d	-0.27274457
11	0xbdd05949	-0.1017328

linear_relu_stack2.4.weight f4 [8, 12]
0	0xbd97a79f	-0.07405018
1	0x3e61ab9a	0.22038117
2	0x3e144403	0.1447907
3	0x3e2a8ce7	0.16655312
4	0xbb82eef7	-0.003995772
5	0x3d832c1c	0.064048976
6	0x3e515dcf	0.20445941
7	0xbe74af33	-0.23894958
8	0x3e8a1402	0.2696839
9	0x3e8469ab	0.25861868
10	0xbe4b8bf5	-0.19877608
11	0xbd988afe	-0.07448386
12	0xbe3f9e39	-0.18712701
13	0x3c84dd28	0.016218737
14	0xbe58a02b	-0.21154849
15	0x3c57fb04	0.013182405
16	0x3da94167	0.08264428
17	0x3df04094	0.11731067
18	0x3d229e73	0.03970189
19	0xbdbf2ba2	-0.09334494
20	0x3e1d2bd4	0.1534875
21	0x3d2eed43	0.04270674
22	0xbd2aac95	-0.041668493
23	0x3da1f65c	0.079083174
24	0xbe914438	-0.2837236
25	0xbd604213	-0.054750513
26	0x3e4b10ce	0.19830629
27	0xbe80b176	-0.25135392
28	0x3d10c5cc	0.035344884
29	0x3e19e090	0.1502707
30	0x3d905dcb	0.070491396
31	0xbe5d8368	-0.21632159
32	0xbe60b825	-0.21945246
33	0xbe0aae88	-0.13543141
34	0xbe14fa6e	-0.14548656
35	0xbde00695	-0.109387554
36	0x3e260823	0.16214041
37	0xbde992cf	-0.11404955
38	0x3e8c4009	0.27392605
39	0x3e034aa7	0.12821446
40	0xbe8016a9	-0.25017288
41	0x3ca1032d	0.019654835
42	0xbe2e7440	-0.17036533
43	0xbe418aef	-0.18900655
44	0x3e1ab115	0.15106614
45	0xbe511ce7	-0.20421182
46	0xbe89e9d7	-0.26936218
47	0x3a8ea026	0.0010881468
48	0x3e2a858b	0.16652505
49	0x3ded77bb	0.115951024
50	0x3e147c14	0.14500457
51	0xbe88012e	-0.265634
52	0x3dbd2445	0.092354335
53	0xbe44a283	-0.19202618
54	0xbd1b115d	-0.037858356
55	0x3b5b853a	0.0033496157
56	0x3ce97c26	0.028501581
57	0x3b4581c4	0.003013716
58	0xbe051591	-0.12996508
59	0x3e598d09	0.21245207
60	0xbe47296f	-0.194494
61	0xbe151b2a	-0.14561144
62	0x3be74306	0.0070575504
63	0xbe717fae	-0.23583862
64	0xbe9667fe	-0.29376215
65	0x3dfdc7bd	0.12391613
66	0x3dca00d3	0.098634385
67	0xbe42ad45	-0.1901141
68	0x3e7c6559	0.24648036
69	0xbe84b21d	-0.2591714
70	0x3e649830	0.2232368
71	0x3e1ab311	0.15107371
72	0x3dc06209	0.09393699
73	0x3e250f97	0.16119228
74	0x3de75f3c	0.112974614
75	0xbde74744	-0.1129289
76	0xbe8a63ae	-0.27029175
77	0xbdee1b55	-0.11626307
78	0x3e0ba59d	0.13637395
79	0x3d457071	0.048202936
80	0x3de6f76b	0.1127766
81	0xbe22ad5c	-0.15886444
82	0xbe46db72	-0.19419649
83	0x3e265177	0.16242014
84	0x3e0b897b	0.13626663
85	0xbddf0bf2	-0.1089095
86	0x3e94bfab	0.2905248
87	0xbdd0630b	-0.10175141
88	0x3c331a61	0.010931582
89	0x3e095d55	0.1341451
90	0xbc96a10b	-0.018387338
91	0x3dadb8c8	0.0848251
92	0x3e386243	0.18006234
93	0x3c5eb4fe	0.013592957
94	0x3e75798d	0.23972149
95	0xbd07ec20	-0.03318417

linear_relu_stack2.4.bias f4 [8]
0	0xbe14f851	-0.1454785
1	0x3da7cbcf	0.0819317
2	0xbe579880	-0.21054268
3	0xbe3a96d8	-0.18221605
4	0xbe32b76a	-0.1745278
5	0x3e3a3a2f	0.18186258
6	0x3ea86474	0.3288914
7	0x3d669195	0.05629118
